func.func @forward(%input1: tensor<1x3x224x224xf32>) -> tensor<1x1000xf32>  { 
	%1="ufront.conv2d"(%input1){dilation=[1, 1], groups=1, kernel=[16, 16], pad=[0, 0], stride=[16, 16]}:(tensor<1x3x224x224xf32>) -> tensor<1x768x14x14xf32>
	%2="ufront.reshape"(%1){shape=[1, 196, 768]}:(tensor<1x768x14x14xf32>) -> tensor<1x196x768xf32>
	%3="ufront.tensor"(){dtype="Float", initializer="…", requires_grad=false}:() -> tensor<1x1x768xf32>
	%4="ufront.expand"(%3){sizes=[1, 1, 768]}:(tensor<1x1x768xf32>) -> tensor<1x1x768xf32>
	%5="ufront.concat"(%4, %2){axis=1}:(tensor<1x1x768xf32>, tensor<1x196x768xf32>) -> tensor<1x197x768xf32>
	%6="ufront.tensor"(){dtype="Float", initializer="…", requires_grad=false}:() -> tensor<1x197x768xf32>
	%7="ufront.add"(%5, %6):(tensor<1x197x768xf32>, tensor<1x197x768xf32>) -> tensor<1x197x768xf32>
	%8="ufront.layer_norm"(%7){elementwise_affine=true, eps=0.000001, normalized_shape=[768]}:(tensor<1x197x768xf32>) -> tensor<1x197x768xf32>
	%9="ufront.multihead_attention"(%8, %8, %8){batch_first=true, dropout=0.0, embed_dim=768, num_heads=12}:(tensor<1x197x768xf32>, tensor<1x197x768xf32>, tensor<1x197x768xf32>) -> tensor<1x197x768xf32>
	%10="ufront.add"(%9, %7):(tensor<1x197x768xf32>, tensor<1x197x768xf32>) -> tensor<1x197x768xf32>
	%11="ufront.layer_norm"(%10){elementwise_affine=true, eps=0.000001, normalized_shape=[768]}:(tensor<1x197x768xf32>) -> tensor<1x197x768xf32>
	%12="ufront.linear"(%11):(tensor<1x197x768xf32>) -> tensor<1x197x3072xf32>
	%13="ufront.gelu"(%12):(tensor<1x197x3072xf32>) -> tensor<1x197x3072xf32>
	%14="ufront.linear"(%13):(tensor<1x197x3072xf32>) -> tensor<1x197x768xf32>
	%15="ufront.add"(%10, %14):(tensor<1x197x768xf32>, tensor<1x197x768xf32>) -> tensor<1x197x768xf32>
	%16="ufront.layer_norm"(%15){elementwise_affine=true, eps=0.000001, normalized_shape=[768]}:(tensor<1x197x768xf32>) -> tensor<1x197x768xf32>
	%17="ufront.multihead_attention"(%16, %16, %16){batch_first=true, dropout=0.0, embed_dim=768, num_heads=12}:(tensor<1x197x768xf32>, tensor<1x197x768xf32>, tensor<1x197x768xf32>) -> tensor<1x197x768xf32>
	%18="ufront.add"(%17, %15):(tensor<1x197x768xf32>, tensor<1x197x768xf32>) -> tensor<1x197x768xf32>
	%19="ufront.layer_norm"(%18){elementwise_affine=true, eps=0.000001, normalized_shape=[768]}:(tensor<1x197x768xf32>) -> tensor<1x197x768xf32>
	%20="ufront.linear"(%19):(tensor<1x197x768xf32>) -> tensor<1x197x3072xf32>
	%21="ufront.gelu"(%20):(tensor<1x197x3072xf32>) -> tensor<1x197x3072xf32>
	%22="ufront.linear"(%21):(tensor<1x197x3072xf32>) -> tensor<1x197x768xf32>
	%23="ufront.add"(%18, %22):(tensor<1x197x768xf32>, tensor<1x197x768xf32>) -> tensor<1x197x768xf32>
	%24="ufront.layer_norm"(%23){elementwise_affine=true, eps=0.000001, normalized_shape=[768]}:(tensor<1x197x768xf32>) -> tensor<1x197x768xf32>
	%25="ufront.multihead_attention"(%24, %24, %24){batch_first=true, dropout=0.0, embed_dim=768, num_heads=12}:(tensor<1x197x768xf32>, tensor<1x197x768xf32>, tensor<1x197x768xf32>) -> tensor<1x197x768xf32>
	%26="ufront.add"(%25, %23):(tensor<1x197x768xf32>, tensor<1x197x768xf32>) -> tensor<1x197x768xf32>
	%27="ufront.layer_norm"(%26){elementwise_affine=true, eps=0.000001, normalized_shape=[768]}:(tensor<1x197x768xf32>) -> tensor<1x197x768xf32>
	%28="ufront.linear"(%27):(tensor<1x197x768xf32>) -> tensor<1x197x3072xf32>
	%29="ufront.gelu"(%28):(tensor<1x197x3072xf32>) -> tensor<1x197x3072xf32>
	%30="ufront.linear"(%29):(tensor<1x197x3072xf32>) -> tensor<1x197x768xf32>
	%31="ufront.add"(%26, %30):(tensor<1x197x768xf32>, tensor<1x197x768xf32>) -> tensor<1x197x768xf32>
	%32="ufront.layer_norm"(%31){elementwise_affine=true, eps=0.000001, normalized_shape=[768]}:(tensor<1x197x768xf32>) -> tensor<1x197x768xf32>
	%33="ufront.multihead_attention"(%32, %32, %32){batch_first=true, dropout=0.0, embed_dim=768, num_heads=12}:(tensor<1x197x768xf32>, tensor<1x197x768xf32>, tensor<1x197x768xf32>) -> tensor<1x197x768xf32>
	%34="ufront.add"(%33, %31):(tensor<1x197x768xf32>, tensor<1x197x768xf32>) -> tensor<1x197x768xf32>
	%35="ufront.layer_norm"(%34){elementwise_affine=true, eps=0.000001, normalized_shape=[768]}:(tensor<1x197x768xf32>) -> tensor<1x197x768xf32>
	%36="ufront.linear"(%35):(tensor<1x197x768xf32>) -> tensor<1x197x3072xf32>
	%37="ufront.gelu"(%36):(tensor<1x197x3072xf32>) -> tensor<1x197x3072xf32>
	%38="ufront.linear"(%37):(tensor<1x197x3072xf32>) -> tensor<1x197x768xf32>
	%39="ufront.add"(%34, %38):(tensor<1x197x768xf32>, tensor<1x197x768xf32>) -> tensor<1x197x768xf32>
	%40="ufront.layer_norm"(%39){elementwise_affine=true, eps=0.000001, normalized_shape=[768]}:(tensor<1x197x768xf32>) -> tensor<1x197x768xf32>
	%41="ufront.multihead_attention"(%40, %40, %40){batch_first=true, dropout=0.0, embed_dim=768, num_heads=12}:(tensor<1x197x768xf32>, tensor<1x197x768xf32>, tensor<1x197x768xf32>) -> tensor<1x197x768xf32>
	%42="ufront.add"(%41, %39):(tensor<1x197x768xf32>, tensor<1x197x768xf32>) -> tensor<1x197x768xf32>
	%43="ufront.layer_norm"(%42){elementwise_affine=true, eps=0.000001, normalized_shape=[768]}:(tensor<1x197x768xf32>) -> tensor<1x197x768xf32>
	%44="ufront.linear"(%43):(tensor<1x197x768xf32>) -> tensor<1x197x3072xf32>
	%45="ufront.gelu"(%44):(tensor<1x197x3072xf32>) -> tensor<1x197x3072xf32>
	%46="ufront.linear"(%45):(tensor<1x197x3072xf32>) -> tensor<1x197x768xf32>
	%47="ufront.add"(%42, %46):(tensor<1x197x768xf32>, tensor<1x197x768xf32>) -> tensor<1x197x768xf32>
	%48="ufront.layer_norm"(%47){elementwise_affine=true, eps=0.000001, normalized_shape=[768]}:(tensor<1x197x768xf32>) -> tensor<1x197x768xf32>
	%49="ufront.multihead_attention"(%48, %48, %48){batch_first=true, dropout=0.0, embed_dim=768, num_heads=12}:(tensor<1x197x768xf32>, tensor<1x197x768xf32>, tensor<1x197x768xf32>) -> tensor<1x197x768xf32>
	%50="ufront.add"(%49, %47):(tensor<1x197x768xf32>, tensor<1x197x768xf32>) -> tensor<1x197x768xf32>
	%51="ufront.layer_norm"(%50){elementwise_affine=true, eps=0.000001, normalized_shape=[768]}:(tensor<1x197x768xf32>) -> tensor<1x197x768xf32>
	%52="ufront.linear"(%51):(tensor<1x197x768xf32>) -> tensor<1x197x3072xf32>
	%53="ufront.gelu"(%52):(tensor<1x197x3072xf32>) -> tensor<1x197x3072xf32>
	%54="ufront.linear"(%53):(tensor<1x197x3072xf32>) -> tensor<1x197x768xf32>
	%55="ufront.add"(%50, %54):(tensor<1x197x768xf32>, tensor<1x197x768xf32>) -> tensor<1x197x768xf32>
	%56="ufront.layer_norm"(%55){elementwise_affine=true, eps=0.000001, normalized_shape=[768]}:(tensor<1x197x768xf32>) -> tensor<1x197x768xf32>
	%57="ufront.multihead_attention"(%56, %56, %56){batch_first=true, dropout=0.0, embed_dim=768, num_heads=12}:(tensor<1x197x768xf32>, tensor<1x197x768xf32>, tensor<1x197x768xf32>) -> tensor<1x197x768xf32>
	%58="ufront.add"(%57, %55):(tensor<1x197x768xf32>, tensor<1x197x768xf32>) -> tensor<1x197x768xf32>
	%59="ufront.layer_norm"(%58){elementwise_affine=true, eps=0.000001, normalized_shape=[768]}:(tensor<1x197x768xf32>) -> tensor<1x197x768xf32>
	%60="ufront.linear"(%59):(tensor<1x197x768xf32>) -> tensor<1x197x3072xf32>
	%61="ufront.gelu"(%60):(tensor<1x197x3072xf32>) -> tensor<1x197x3072xf32>
	%62="ufront.linear"(%61):(tensor<1x197x3072xf32>) -> tensor<1x197x768xf32>
	%63="ufront.add"(%58, %62):(tensor<1x197x768xf32>, tensor<1x197x768xf32>) -> tensor<1x197x768xf32>
	%64="ufront.layer_norm"(%63){elementwise_affine=true, eps=0.000001, normalized_shape=[768]}:(tensor<1x197x768xf32>) -> tensor<1x197x768xf32>
	%65="ufront.multihead_attention"(%64, %64, %64){batch_first=true, dropout=0.0, embed_dim=768, num_heads=12}:(tensor<1x197x768xf32>, tensor<1x197x768xf32>, tensor<1x197x768xf32>) -> tensor<1x197x768xf32>
	%66="ufront.add"(%65, %63):(tensor<1x197x768xf32>, tensor<1x197x768xf32>) -> tensor<1x197x768xf32>
	%67="ufront.layer_norm"(%66){elementwise_affine=true, eps=0.000001, normalized_shape=[768]}:(tensor<1x197x768xf32>) -> tensor<1x197x768xf32>
	%68="ufront.linear"(%67):(tensor<1x197x768xf32>) -> tensor<1x197x3072xf32>
	%69="ufront.gelu"(%68):(tensor<1x197x3072xf32>) -> tensor<1x197x3072xf32>
	%70="ufront.linear"(%69):(tensor<1x197x3072xf32>) -> tensor<1x197x768xf32>
	%71="ufront.add"(%66, %70):(tensor<1x197x768xf32>, tensor<1x197x768xf32>) -> tensor<1x197x768xf32>
	%72="ufront.layer_norm"(%71){elementwise_affine=true, eps=0.000001, normalized_shape=[768]}:(tensor<1x197x768xf32>) -> tensor<1x197x768xf32>
	%73="ufront.multihead_attention"(%72, %72, %72){batch_first=true, dropout=0.0, embed_dim=768, num_heads=12}:(tensor<1x197x768xf32>, tensor<1x197x768xf32>, tensor<1x197x768xf32>) -> tensor<1x197x768xf32>
	%74="ufront.add"(%73, %71):(tensor<1x197x768xf32>, tensor<1x197x768xf32>) -> tensor<1x197x768xf32>
	%75="ufront.layer_norm"(%74){elementwise_affine=true, eps=0.000001, normalized_shape=[768]}:(tensor<1x197x768xf32>) -> tensor<1x197x768xf32>
	%76="ufront.linear"(%75):(tensor<1x197x768xf32>) -> tensor<1x197x3072xf32>
	%77="ufront.gelu"(%76):(tensor<1x197x3072xf32>) -> tensor<1x197x3072xf32>
	%78="ufront.linear"(%77):(tensor<1x197x3072xf32>) -> tensor<1x197x768xf32>
	%79="ufront.add"(%74, %78):(tensor<1x197x768xf32>, tensor<1x197x768xf32>) -> tensor<1x197x768xf32>
	%80="ufront.layer_norm"(%79){elementwise_affine=true, eps=0.000001, normalized_shape=[768]}:(tensor<1x197x768xf32>) -> tensor<1x197x768xf32>
	%81="ufront.multihead_attention"(%80, %80, %80){batch_first=true, dropout=0.0, embed_dim=768, num_heads=12}:(tensor<1x197x768xf32>, tensor<1x197x768xf32>, tensor<1x197x768xf32>) -> tensor<1x197x768xf32>
	%82="ufront.add"(%81, %79):(tensor<1x197x768xf32>, tensor<1x197x768xf32>) -> tensor<1x197x768xf32>
	%83="ufront.layer_norm"(%82){elementwise_affine=true, eps=0.000001, normalized_shape=[768]}:(tensor<1x197x768xf32>) -> tensor<1x197x768xf32>
	%84="ufront.linear"(%83):(tensor<1x197x768xf32>) -> tensor<1x197x3072xf32>
	%85="ufront.gelu"(%84):(tensor<1x197x3072xf32>) -> tensor<1x197x3072xf32>
	%86="ufront.linear"(%85):(tensor<1x197x3072xf32>) -> tensor<1x197x768xf32>
	%87="ufront.add"(%82, %86):(tensor<1x197x768xf32>, tensor<1x197x768xf32>) -> tensor<1x197x768xf32>
	%88="ufront.layer_norm"(%87){elementwise_affine=true, eps=0.000001, normalized_shape=[768]}:(tensor<1x197x768xf32>) -> tensor<1x197x768xf32>
	%89="ufront.multihead_attention"(%88, %88, %88){batch_first=true, dropout=0.0, embed_dim=768, num_heads=12}:(tensor<1x197x768xf32>, tensor<1x197x768xf32>, tensor<1x197x768xf32>) -> tensor<1x197x768xf32>
	%90="ufront.add"(%89, %87):(tensor<1x197x768xf32>, tensor<1x197x768xf32>) -> tensor<1x197x768xf32>
	%91="ufront.layer_norm"(%90){elementwise_affine=true, eps=0.000001, normalized_shape=[768]}:(tensor<1x197x768xf32>) -> tensor<1x197x768xf32>
	%92="ufront.linear"(%91):(tensor<1x197x768xf32>) -> tensor<1x197x3072xf32>
	%93="ufront.gelu"(%92):(tensor<1x197x3072xf32>) -> tensor<1x197x3072xf32>
	%94="ufront.linear"(%93):(tensor<1x197x3072xf32>) -> tensor<1x197x768xf32>
	%95="ufront.add"(%90, %94):(tensor<1x197x768xf32>, tensor<1x197x768xf32>) -> tensor<1x197x768xf32>
	%96="ufront.layer_norm"(%95){elementwise_affine=true, eps=0.000001, normalized_shape=[768]}:(tensor<1x197x768xf32>) -> tensor<1x197x768xf32>
	%97="ufront.multihead_attention"(%96, %96, %96){batch_first=true, dropout=0.0, embed_dim=768, num_heads=12}:(tensor<1x197x768xf32>, tensor<1x197x768xf32>, tensor<1x197x768xf32>) -> tensor<1x197x768xf32>
	%98="ufront.add"(%97, %95):(tensor<1x197x768xf32>, tensor<1x197x768xf32>) -> tensor<1x197x768xf32>
	%99="ufront.layer_norm"(%98){elementwise_affine=true, eps=0.000001, normalized_shape=[768]}:(tensor<1x197x768xf32>) -> tensor<1x197x768xf32>
	%100="ufront.linear"(%99):(tensor<1x197x768xf32>) -> tensor<1x197x3072xf32>
	%101="ufront.gelu"(%100):(tensor<1x197x3072xf32>) -> tensor<1x197x3072xf32>
	%102="ufront.linear"(%101):(tensor<1x197x3072xf32>) -> tensor<1x197x768xf32>
	%103="ufront.add"(%98, %102):(tensor<1x197x768xf32>, tensor<1x197x768xf32>) -> tensor<1x197x768xf32>
	%104="ufront.mean"(%103){dims=[2], keepdims=true}:(tensor<1x197x768xf32>) -> tensor<1x197x1xf32>
	%105="ufront.subtract"(%103, %104):(tensor<1x197x768xf32>, tensor<1x197x1xf32>) -> tensor<1x197x768xf32>
	%106="ufront.multiply"(%105, %105):(tensor<1x197x768xf32>, tensor<1x197x768xf32>) -> tensor<1x197x768xf32>
	%107="ufront.mean"(%106){dims=[2], keepdims=true}:(tensor<1x197x768xf32>) -> tensor<1x197x1xf32>
	%108="ufront.sadd"(%107){scalar=9.999999974752427e-07}:(tensor<1x197x1xf32>) -> tensor<1x197x1xf32>
	%109="ufront.tensor"(){dtype="Float", initializer="…", requires_grad=false}:() -> tensor<768xf32>
	%110="ufront.multiply"(%108, %109):(tensor<1x197x1xf32>, tensor<768xf32>) -> tensor<1x197x768xf32>
	%111="ufront.multiply"(%104, %110):(tensor<1x197x1xf32>, tensor<1x197x768xf32>) -> tensor<1x197x768xf32>
	%112="ufront.multiply"(%103, %110):(tensor<1x197x768xf32>, tensor<1x197x768xf32>) -> tensor<1x197x768xf32>
	%113="ufront.add"(%112, %111):(tensor<1x197x768xf32>, tensor<1x197x768xf32>) -> tensor<1x197x768xf32>
	%114="ufront.slice"(%113){axis=[0 1], end=[1, 1], output_shape=[1, 1, 768], start=[0, 0]}:(tensor<1x197x768xf32>) -> tensor<1x1x768xf32>
	%115="ufront.flat"(%114){end_dim=-1, start_dim=1}:(tensor<1x1x768xf32>) -> tensor<1x768xf32>
	%116="ufront.linear"(%115):(tensor<1x768xf32>) -> tensor<1x1000xf32>
	%117="ufront.relu"(%116):(tensor<1x1000xf32>) -> tensor<1x1000xf32>
	%118="ufront.softmax"(%117):(tensor<1x1000xf32>) -> tensor<1x1000xf32>
	return %118: tensor<1x1000xf32>
}