func.func @forward(%input1: tensor<1x3x224x224xf32>) -> tensor<1x1000xf32>  { 
	%1="ufront.conv2d"(%input1){groups=1, kernel=[3, 3], pad=[1, 1], stride=[2, 2]}:(tensor<1x3x224x224xf32>) -> tensor<1x64x112x112xf32>
	%2="ufront.batchnorm"(%1){affine=true, eps=0.001, momentum=0.99, track_running_stats=true}:(tensor<1x64x112x112xf32>) -> tensor<1x64x112x112xf32>
	%3="ufront.gelu"(%2):(tensor<1x64x112x112xf32>) -> tensor<1x64x112x112xf32>
	%4="ufront.conv2d"(%3){groups=1, kernel=[3, 3], pad=[1, 1], stride=[1, 1]}:(tensor<1x64x112x112xf32>) -> tensor<1x64x112x112xf32>
	%5="ufront.pool2d"(%4){kernel=[3, 3], pad=[1, 1], pool_type="POOL_AVG", stride=[2, 2]}:(tensor<1x64x112x112xf32>) -> tensor<1x64x56x56xf32>
	%6="ufront.conv2d"(%5){groups=1, kernel=[1, 1], pad=[0, 0], stride=[1, 1]}:(tensor<1x64x56x56xf32>) -> tensor<1x64x56x56xf32>
	%7="ufront.batchnorm"(%4){affine=true, eps=0.001, momentum=0.99, track_running_stats=true}:(tensor<1x64x112x112xf32>) -> tensor<1x64x112x112xf32>
	%8="ufront.conv2d"(%7){groups=1, kernel=[1, 1], pad=[0, 0], stride=[1, 1]}:(tensor<1x64x112x112xf32>) -> tensor<1x256x112x112xf32>
	%9="ufront.batchnorm"(%8){affine=true, eps=0.001, momentum=0.99, track_running_stats=true}:(tensor<1x256x112x112xf32>) -> tensor<1x256x112x112xf32>
	%10="ufront.gelu"(%9):(tensor<1x256x112x112xf32>) -> tensor<1x256x112x112xf32>
	%11="ufront.conv2d"(%10){groups=256, kernel=[3, 3], pad=[1, 1], stride=[2, 2]}:(tensor<1x256x112x112xf32>) -> tensor<1x256x56x56xf32>
	%12="ufront.batchnorm"(%11){affine=true, eps=0.001, momentum=0.99, track_running_stats=true}:(tensor<1x256x56x56xf32>) -> tensor<1x256x56x56xf32>
	%13="ufront.gelu"(%12):(tensor<1x256x56x56xf32>) -> tensor<1x256x56x56xf32>
	%14="ufront.pool2d"(%13){output_size=[1, 1], pool_type="POOL_ADAPTIVE"}:(tensor<1x256x56x56xf32>) -> tensor<1x256x1x1xf32>
	%15="ufront.conv2d"(%14){groups=1, kernel=[1, 1], pad=[0, 0], stride=[1, 1]}:(tensor<1x256x1x1xf32>) -> tensor<1x16x1x1xf32>
	%16="ufront.silu"(%15):(tensor<1x16x1x1xf32>) -> tensor<1x16x1x1xf32>
	%17="ufront.conv2d"(%16){groups=1, kernel=[1, 1], pad=[0, 0], stride=[1, 1]}:(tensor<1x16x1x1xf32>) -> tensor<1x256x1x1xf32>
	%18="ufront.sigmoid"(%17):(tensor<1x256x1x1xf32>) -> tensor<1x256x1x1xf32>
	%19="ufront.multiply"(%18, %13):(tensor<1x256x1x1xf32>, tensor<1x256x56x56xf32>) -> tensor<1x256x56x56xf32>
	%20="ufront.conv2d"(%19){groups=1, kernel=[1, 1], pad=[0, 0], stride=[1, 1]}:(tensor<1x256x56x56xf32>) -> tensor<1x64x56x56xf32>
	%21="ufront.identity"(%20):(tensor<1x64x56x56xf32>) -> tensor<1x64x56x56xf32>
	%22="ufront.add"(%6, %21):(tensor<1x64x56x56xf32>, tensor<1x64x56x56xf32>) -> tensor<1x64x56x56xf32>
	%23="ufront.reshape"(%22){shape=[1, 64, 8, 7, 8, 7]}:(tensor<1x64x56x56xf32>) -> tensor<1x64x8x7x8x7xf32>
	%24="ufront.transpose"(%23){perms=[0, 2, 4, 3, 5, 1]}:(tensor<1x64x8x7x8x7xf32>) -> tensor<1x8x8x7x7x64xf32>
	%25="ufront.reshape"(%24){shape=[1, 64, 49, 64]}:(tensor<1x8x8x7x7x64xf32>) -> tensor<1x64x49x64xf32>
	%26="ufront.identity"(%25):(tensor<1x64x49x64xf32>) -> tensor<1x64x49x64xf32>
	%27="ufront.layer_norm"(%26){elementwise_affine=true, eps=0.00001, normalized_shape=[64]}:(tensor<1x64x49x64xf32>) -> tensor<1x64x49x64xf32>
	%28="ufront.linear"(%27):(tensor<1x64x49x64xf32>) -> tensor<1x64x49x192xf32>
	%29, %30, %31="ufront.chunk"(%28){axis=-1, sizes=3}:(tensor<1x64x49x192xf32>) -> tensor<1x64x49x64xf32>, tensor<1x64x49x64xf32>, tensor<1x64x49x64xf32>
	%32="ufront.reshape"(%29){shape=[1, 64, 49, 2, 32]}:(tensor<1x64x49x64xf32>) -> tensor<1x64x49x2x32xf32>
	%33="ufront.transpose"(%32){perms=[0, 1, 3, 2, 4]}:(tensor<1x64x49x2x32xf32>) -> tensor<1x64x2x49x32xf32>
	%34="ufront.reshape"(%30){shape=[1, 64, 49, 2, 32]}:(tensor<1x64x49x64xf32>) -> tensor<1x64x49x2x32xf32>
	%35="ufront.transpose"(%34){perms=[0, 1, 3, 2, 4]}:(tensor<1x64x49x2x32xf32>) -> tensor<1x64x2x49x32xf32>
	%36="ufront.reshape"(%31){shape=[1, 64, 49, 2, 32]}:(tensor<1x64x49x64xf32>) -> tensor<1x64x49x2x32xf32>
	%37="ufront.transpose"(%36){perms=[0, 1, 3, 2, 4]}:(tensor<1x64x49x2x32xf32>) -> tensor<1x64x2x49x32xf32>
	%38="ufront.smultiply"(%35){scalar=0.125}:(tensor<1x64x2x49x32xf32>) -> tensor<1x64x2x49x32xf32>
	%39="ufront.call"(%33, %38){addargs=[('arg1', 'B G H I D, B G H J D -> B G H I J')], func=einsum}:(tensor<1x64x2x49x32xf32>, tensor<1x64x2x49x32xf32>) -> tensor<1x64x2x49x49xf32>
	%40="ufront.parameter"(%40){dtype=DataType.Float, initializer=[[… requires_grad=true}:(tensor<169x2xf32>) -> tensor<169x2xf32>
	%41="ufront.tensor"(%41){dtype=DataType.Int64, initializer=[84, 83, 82, 81, 80, 79, 78, 71, 70, 69, 68, 67, 66, 65, 58, 57, 56, 55, 54, 53, 52, 45, 44, 43, 42, 41, 40, 39, 32, 31, 30, 29, 28, 27, 26, 19, 18, 17, 16, 15, 14, 13, 6, 5, 4, 3, 2, 1, 0, 85, 84, 83, 82, 81, 80, 79, 72, 71, 70, 69, 68, 67, 66, 59, 58, 57, 56, 55, 54, 53, 46, 45, 44, 43, 42, 41, 40, 33, 32, 31, 30, 29, 28, 27, 20, 19, 18, 17, 16, 15, 14, 7, 6, 5, 4, 3, 2, 1, 86, 85, 84, 83, 82, 81, 80, 73, 72, 71, 70, 69, 68, 67, 60, 59, 58, 57, 56, 55, 54, 47, 46, 45, 44, 43, 42, 41, 34, 33, 32, 31, 30, 29, 28, 21, 20, 19, 18, 17, 16, 15, 8, 7, 6, 5, 4, 3, 2, 87, 86, 85, 84, 83, 82, 81, 74, 73, 72, 71, 70, 69, 68, 61, 60, 59, 58, 57, 56, 55, 48, 47, 46, 45, 44, 43, 42, 35, 34, 33, 32, 31, 30, 29, 22, 21, 20, 19, 18, 17, 16, 9, 8, 7, 6, 5, 4, 3, 88, 87, 86, 85, 84, 83, 82, 75, 74, 73, 72, 71, 70, 69, 62, 61, 60, 59, 58, 57, 56, 49, 48, 47, 46, 45, 44, 43, 36, 35, 34, 33, 32, 31, 30, 23, 22, 21, 20, 19, 18, 17, 10, 9, 8, 7, 6, 5, 4, 89, 88, 87, 86, 85, 84, 83, 76, 75, 74, 73, 72, 71, 70, 63, 62, 61, 60, 59, 58, 57, 50, 49, 48, 47, 46, 45, 44, 37, 36, 35, 34, 33, 32, 31, 24, 23, 22, 21, 20, 19, 18, 11, 10, 9, 8, 7, 6, 5, 90, 89, 88, 87, 86, 85, 84, 77, 76, 75, 74, 73, 72, 71, 64, 63, 62, 61, 60, 59, 58, 51, 50, 49, 48, 47, 46, 45, 38, 37, 36, 35, 34, 33, 32, 25, 24, 23, 22, 21, 20, 19, 12, 11, 10, 9, 8, 7, 6, 97, 96, 95, 94, 93, 92, 91, 84, 83, 82, 81, 80, 79, 78, 71, 70, 69, 68, 67, 66, 65, 58, 57, 56, 55, 54, 53, 52, 45, 44, 43, 42, 41, 40, 39, 32, 31, 30, 29, 28, 27, 26, 19, 18, 17, 16, 15, 14, 13, 98, 97, 96, 95, 94, 93, 92, 85, 84, 83, 82, 81, 80, 79, 72, 71, 70, 69, 68, 67, 66, 59, 58, 57, 56, 55, 54, 53, 46, 45, 44, 43, 42, 41, 40, 33, 32, 31, 30, 29, 28, 27, 20, 19, 18, 17, 16, 15, 14, 99, 98, 97, 96, 95, 94, 93, 86, 85, 84, 83, 82, 81, 80, 73, 72, 71, 70, 69, 68, 67, 60, 59, 58, 57, 56, 55, 54, 47, 46, 45, 44, 43, 42, 41, 34, 33, 32, 31, 30, 29, 28, 21, 20, 19, 18, 17, 16, 15, 100, 99, 98, 97, 96, 95, 94, 87, 86, 85, 84, 83, 82, 81, 74, 73, 72, 71, 70, 69, 68, 61, 60, 59, 58, 57, 56, 55, 48, 47, 46, 45, 44, 43, 42, 35, 34, 33, 32, 31, 30, 29, 22, 21, 20, 19, 18, 17, 16, 101, 100, 99, 98, 97, 96, 95, 88, 87, 86, 85, 84, 83, 82, 75, 74, 73, 72, 71, 70, 69, 62, 61, 60, 59, 58, 57, 56, 49, 48, 47, 46, 45, 44, 43, 36, 35, 34, 33, 32, 31, 30, 23, 22, 21, 20, 19, 18, 17, 102, 101, 100, 99, 98, 97, 96, 89, 88, 87, 86, 85, 84, 83, 76, 75, 74, 73, 72, 71, 70, 63, 62, 61, 60, 59, 58, 57, 50, 49, 48, 47, 46, 45, 44, 37, 36, 35, 34, 33, 32, 31, 24, 23, 22, 21, 20, 19, 18, 103, 102, 101, 100, 99, 98, 97, 90, 89, 88, 87, 86, 85, 84, 77, 76, 75, 74, 73, 72, 71, 64, 63, 62, 61, 60, 59, 58, 51, 50, 49, 48, 47, 46, 45, 38, 37, 36, 35, 34, 33, 32, 25, 24, 23, 22, 21, 20, 19, 110, 109, 108, 107, 106, 105, 104, 97, 96, 95, 94, 93, 92, 91, 84, 83, 82, 81, 80, 79, 78, 71, 70, 69, 68, 67, 66, 65, 58, 57, 56, 55, 54, 53, 52, 45, 44, 43, 42, 41, 40, 39, 32, 31, 30, 29, 28, 27, 26, 111, 110, 109, 108, 107, 106, 105, 98, 97, 96, 95, 94, 93, 92, 85, 84, 83, 82, 81, 80, 79, 72, 71, 70, 69, 68, 67, 66, 59, 58, 57, 56, 55, 54, 53, 46, 45, 44, 43, 42, 41, 40, 33, 32, 31, 30, 29, 28, 27, 112, 111, 110, 109, 108, 107, 106, 99, 98, 97, 96, 95, 94, 93, 86, 85, 84, 83, 82, 81, 80, 73, 72, 71, 70, 69, 68, 67, 60, 59, 58, 57, 56, 55, 54, 47, 46, 45, 44, 43, 42, 41, 34, 33, 32, 31, 30, 29, 28, 113, 112, 111, 110, 109, 108, 107, 100, 99, 98, 97, 96, 95, 94, 87, 86, 85, 84, 83, 82, 81, 74, 73, 72, 71, 70, 69, 68, 61, 60, 59, 58, 57, 56, 55, 48, 47, 46, 45, 44, 43, 42, 35, 34, 33, 32, 31, 30, 29, 114, 113, 112, 111, 110, 109, 108, 101, 100, 99, 98, 97, 96, 95, 88, 87, 86, 85, 84, 83, 82, 75, 74, 73, 72, 71, 70, 69, 62, 61, 60, 59, 58, 57, 56, 49, 48, 47, 46, 45, 44, 43, 36, 35, 34, 33, 32, 31, 30, 115, 114, 113, 112, 111, 110, 109, 102, 101, 100, 99, 98, 97, 96, 89, 88, 87, 86, 85, 84, 83, 76, 75, 74, 73, 72, 71, 70, 63, 62, 61, 60, 59, 58, 57, 50, 49, 48, 47, 46, 45, 44, 37, 36, 35, 34, 33, 32, 31, 116, 115, 114, 113, 112, 111, 110, 103, 102, 101, 100, 99, 98, 97, 90, 89, 88, 87, 86, 85, 84, 77, 76, 75, 74, 73, 72, 71, 64, 63, 62, 61, 60, 59, 58, 51, 50, 49, 48, 47, 46, 45, 38, 37, 36, 35, 34, 33, 32, 123, 122, 121, 120, 119, 118, 117, 110, 109, 108, 107, 106, 105, 104, 97, 96, 95, 94, 93, 92, 91, 84, 83, 82, 81, 80, 79, 78, 71, 70, 69, 68, 67, 66, 65, 58, 57, 56, 55, 54, 53, 52, 45, 44, 43, 42, 41, 40, 39, 124, 123, 122, 121, 120, 119, 118, 111, 110, 109, 108, 107, 106, 105, 98, 97, 96, 95, 94, 93, 92, 85, 84, 83, 82, 81, 80, 79, 72, 71, 70, 69, 68, 67, 66, 59, 58, 57, 56, 55, 54, 53, 46, 45, 44, 43, 42, 41, 40, 125, 124, 123, 122, 121, 120, 119, 112, 111, 110, 109, 108, 107, 106, 99, 98, 97, 96, 95, 94, 93, 86, 85, 84, 83, 82, 81, 80, 73, 72, 71, 70, 69, 68, 67, 60, 59, 58, 57, 56, 55, 54, 47, 46, 45, 44, 43, 42, 41, 126, 125, 124, 123, 122, 121, 120, 113, 112, 111, 110, 109, 108, 107, 100, 99, 98, 97, 96, 95, 94, 87, 86, 85, 84, 83, 82, 81, 74, 73, 72, 71, 70, 69, 68, 61, 60, 59, 58, 57, 56, 55, 48, 47, 46, 45, 44, 43, 42, 127, 126, 125, 124, 123, 122, 121, 114, 113, 112, 111, 110, 109, 108, 101, 100, 99, 98, 97, 96, 95, 88, 87, 86, 85, 84, 83, 82, 75, 74, 73, 72, 71, 70, 69, 62, 61, 60, 59, 58, 57, 56, 49, 48, 47, 46, 45, 44, 43, 128, 127, 126, 125, 124, 123, 122, 115, 114, 113, 112, 111, 110, 109, 102, 101, 100, 99, 98, 97, 96, 89, 88, 87, 86, 85, 84, 83, 76, 75, 74, 73, 72, 71, 70, 63, 62, 61, 60, 59, 58, 57, 50, 49, 48, 47, 46, 45, 44, 129, 128, 127, 126, 125, 124, 123, 116, 115, 114, 113, 112, 111, 110, 103, 102, 101, 100, 99, 98, 97, 90, 89, 88, 87, 86, 85, 84, 77, 76, 75, 74, 73, 72, 71, 64, 63, 62, 61, 60, 59, 58, 51, 50, 49, 48, 47, 46, 45, 136, 135, 134, 133, 132, 131, 130, 123, 122, 121, 120, 119, 118, 117, 110, 109, 108, 107, 106, 105, 104, 97, 96, 95, 94, 93, 92, 91, 84, 83, 82, 81, 80, 79, 78, 71, 70, 69, 68, 67, 66, 65, 58, 57, 56, 55, 54, 53, 52, 137, 136, 135, 134, 133, 132, 131, 124, 123, 122, 121, 120, 119, 118, 111, 110, 109, 108, 107, 106, 105, 98, 97, 96, 95, 94, 93, 92, 85, 84, 83, 82, 81, 80, 79, 72, 71, 70, 69, 68, 67, 66, 59, 58, 57, 56, 55, 54, 53, 138, 137, 136, 135, 134, 133, 132, 125, 124, 123, 122, 121, 120, 119, 112, 111, 110, 109, 108, 107, 106, 99, 98, 97, 96, 95, 94, 93, 86, 85, 84, 83, 82, 81, 80, 73, 72, 71, 70, 69, 68, 67, 60, 59, 58, 57, 56, 55, 54, 139, 138, 137, 136, 135, 134, 133, 126, 125, 124, 123, 122, 121, 120, 113, 112, 111, 110, 109, 108, 107, 100, 99, 98, 97, 96, 95, 94, 87, 86, 85, 84, 83, 82, 81, 74, 73, 72, 71, 70, 69, 68, 61, 60, 59, 58, 57, 56, 55, 140, 139, 138, 137, 136, 135, 134, 127, 126, 125, 124, 123, 122, 121, 114, 113, 112, 111, 110, 109, 108, 101, 100, 99, 98, 97, 96, 95, 88, 87, 86, 85, 84, 83, 82, 75, 74, 73, 72, 71, 70, 69, 62, 61, 60, 59, 58, 57, 56, 141, 140, 139, 138, 137, 136, 135, 128, 127, 126, 125, 124, 123, 122, 115, 114, 113, 112, 111, 110, 109, 102, 101, 100, 99, 98, 97, 96, 89, 88, 87, 86, 85, 84, 83, 76, 75, 74, 73, 72, 71, 70, 63, 62, 61, 60, 59, 58, 57, 142, 141, 140, 139, 138, 137, 136, 129, 128, 127, 126, 125, 124, 123, 116, 115, 114, 113, 112, 111, 110, 103, 102, 101, 100, 99, 98, 97, 90, 89, 88, 87, 86, 85, 84, 77, 76, 75, 74, 73, 72, 71, 64, 63, 62, 61, 60, 59, 58, 149, 148, 147, 146, 145, 144, 143, 136, 135, 134, 133, 132, 131, 130, 123, 122, 121, 120, 119, 118, 117, 110, 109, 108, 107, 106, 105, 104, 97, 96, 95, 94, 93, 92, 91, 84, 83, 82, 81, 80, 79, 78, 71, 70, 69, 68, 67, 66, 65, 150, 149, 148, 147, 146, 145, 144, 137, 136, 135, 134, 133, 132, 131, 124, 123, 122, 121, 120, 119, 118, 111, 110, 109, 108, 107, 106, 105, 98, 97, 96, 95, 94, 93, 92, 85, 84, 83, 82, 81, 80, 79, 72, 71, 70, 69, 68, 67, 66, 151, 150, 149, 148, 147, 146, 145, 138, 137, 136, 135, 134, 133, 132, 125, 124, 123, 122, 121, 120, 119, 112, 111, 110, 109, 108, 107, 106, 99, 98, 97, 96, 95, 94, 93, 86, 85, 84, 83, 82, 81, 80, 73, 72, 71, 70, 69, 68, 67, 152, 151, 150, 149, 148, 147, 146, 139, 138, 137, 136, 135, 134, 133, 126, 125, 124, 123, 122, 121, 120, 113, 112, 111, 110, 109, 108, 107, 100, 99, 98, 97, 96, 95, 94, 87, 86, 85, 84, 83, 82, 81, 74, 73, 72, 71, 70, 69, 68, 153, 152, 151, 150, 149, 148, 147, 140, 139, 138, 137, 136, 135, 134, 127, 126, 125, 124, 123, 122, 121, 114, 113, 112, 111, 110, 109, 108, 101, 100, 99, 98, 97, 96, 95, 88, 87, 86, 85, 84, 83, 82, 75, 74, 73, 72, 71, 70, 69, 154, 153, 152, 151, 150, 149, 148, 141, 140, 139, 138, 137, 136, 135, 128, 127, 126, 125, 124, 123, 122, 115, 114, 113, 112, 111, 110, 109, 102, 101, 100, 99, 98, 97, 96, 89, 88, 87, 86, 85, 84, 83, 76, 75, 74, 73, 72, 71, 70, 155, 154, 153, 152, 151, 150, 149, 142, 141, 140, 139, 138, 137, 136, 129, 128, 127, 126, 125, 124, 123, 116, 115, 114, 113, 112, 111, 110, 103, 102, 101, 100, 99, 98, 97, 90, 89, 88, 87, 86, 85, 84, 77, 76, 75, 74, 73, 72, 71, 162, 161, 160, 159, 158, 157, 156, 149, 148, 147, 146, 145, 144, 143, 136, 135, 134, 133, 132, 131, 130, 123, 122, 121, 120, 119, 118, 117, 110, 109, 108, 107, 106, 105, 104, 97, 96, 95, 94, 93, 92, 91, 84, 83, 82, 81, 80, 79, 78, 163, 162, 161, 160, 159, 158, 157, 150, 149, 148, 147, 146, 145, 144, 137, 136, 135, 134, 133, 132, 131, 124, 123, 122, 121, 120, 119, 118, 111, 110, 109, 108, 107, 106, 105, 98, 97, 96, 95, 94, 93, 92, 85, 84, 83, 82, 81, 80, 79, 164, 163, 162, 161, 160, 159, 158, 151, 150, 149, 148, 147, 146, 145, 138, 137, 136, 135, 134, 133, 132, 125, 124, 123, 122, 121, 120, 119, 112, 111, 110, 109, 108, 107, 106, 99, 98, 97, 96, 95, 94, 93, 86, 85, 84, 83, 82, 81, 80, 165, 164, 163, 162, 161, 160, 159, 152, 151, 150, 149, 148, 147, 146, 139, 138, 137, 136, 135, 134, 133, 126, 125, 124, 123, 122, 121, 120, 113, 112, 111, 110, 109, 108, 107, 100, 99, 98, 97, 96, 95, 94, 87, 86, 85, 84, 83, 82, 81, 166, 165, 164, 163, 162, 161, 160, 153, 152, 151, 150, 149, 148, 147, 140, 139, 138, 137, 136, 135, 134, 127, 126, 125, 124, 123, 122, 121, 114, 113, 112, 111, 110, 109, 108, 101, 100, 99, 98, 97, 96, 95, 88, 87, 86, 85, 84, 83, 82, 167, 166, 165, 164, 163, 162, 161, 154, 153, 152, 151, 150, 149, 148, 141, 140, 139, 138, 137, 136, 135, 128, 127, 126, 125, 124, 123, 122, 115, 114, 113, 112, 111, 110, 109, 102, 101, 100, 99, 98, 97, 96, 89, 88, 87, 86, 85, 84, 83, 168, 167, 166, 165, 164, 163, 162, 155, 154, 153, 152, 151, 150, 149, 142, 141, 140, 139, 138, 137, 136, 129, 128, 127, 126, 125, 124, 123, 116, 115, 114, 113, 112, 111, 110, 103, 102, 101, 100, 99, 98, 97, 90, 89, 88, 87, 86, 85, 84], requires_grad=false}:(tensor<2401xf32>) -> tensor<2401xf32>
	%42="ufront.slice"(%40, %41){output_shape=[2401, 2]}:(tensor<169x2xf32>, tensor<2401xf32>) -> tensor<2401x2xf32>
	%43="ufront.reshape"(%42){shape=[49, 49, 2]}:(tensor<2401x2xf32>) -> tensor<49x49x2xf32>
	%44="ufront.transpose"(%43){perms=[2, 0, 1]}:(tensor<49x49x2xf32>) -> tensor<2x49x49xf32>
	%45="ufront.reshape"(%44){shape=[1, 2, 49, 49]}:(tensor<2x49x49xf32>) -> tensor<1x2x49x49xf32>
	%46="ufront.add"(%39, %45):(tensor<1x64x2x49x49xf32>, tensor<1x2x49x49xf32>) -> tensor<1x64x2x49x49xf32>
	%47="ufront.softmax"(%46):(tensor<1x64x2x49x49xf32>) -> tensor<1x64x2x49x49xf32>
	%48="ufront.call"(%47, %37){addargs=[('arg1', 'B G H I J, B G H J D -> B G H I D')], func=einsum}:(tensor<1x64x2x49x49xf32>, tensor<1x64x2x49x32xf32>) -> tensor<1x64x2x49x32xf32>
	%49="ufront.transpose"(%48){perms=[0, 1, 3, 2, 4]}:(tensor<1x64x2x49x32xf32>) -> tensor<1x64x49x2x32xf32>
	%50="ufront.reshape"(%49){shape=[1, 64, 49, 64]}:(tensor<1x64x49x2x32xf32>) -> tensor<1x64x49x64xf32>
	%51="ufront.linear"(%50):(tensor<1x64x49x64xf32>) -> tensor<1x64x49x64xf32>
	%52="ufront.dropout"(%51){rate=0.0, seed=0}:(tensor<1x64x49x64xf32>) -> tensor<1x64x49x64xf32>
	%53="ufront.call"(%52){addargs=[('p', 0.0), ('mode', 'row'), ('training', False)], func=stochastic_depth}:(tensor<1x64x49x64xf32>) -> tensor<1x64x49x64xf32>
	%54="ufront.add"(%26, %53):(tensor<1x64x49x64xf32>, tensor<1x64x49x64xf32>) -> tensor<1x64x49x64xf32>
	%55="ufront.layer_norm"(%54){elementwise_affine=true, eps=0.00001, normalized_shape=[64]}:(tensor<1x64x49x64xf32>) -> tensor<1x64x49x64xf32>
	%56="ufront.linear"(%55):(tensor<1x64x49x64xf32>) -> tensor<1x64x49x256xf32>
	%57="ufront.gelu"(%56):(tensor<1x64x49x256xf32>) -> tensor<1x64x49x256xf32>
	%58="ufront.linear"(%57):(tensor<1x64x49x256xf32>) -> tensor<1x64x49x64xf32>
	%59="ufront.dropout"(%58){rate=0.0, seed=0}:(tensor<1x64x49x64xf32>) -> tensor<1x64x49x64xf32>
	%60="ufront.call"(%59){addargs=[('p', 0.0), ('mode', 'row'), ('training', False)], func=stochastic_depth}:(tensor<1x64x49x64xf32>) -> tensor<1x64x49x64xf32>
	%61="ufront.add"(%54, %60):(tensor<1x64x49x64xf32>, tensor<1x64x49x64xf32>) -> tensor<1x64x49x64xf32>
	%62="ufront.identity"(%61):(tensor<1x64x49x64xf32>) -> tensor<1x64x49x64xf32>
	%63="ufront.reshape"(%62){shape=[1, 8, 8, 7, 7, 64]}:(tensor<1x64x49x64xf32>) -> tensor<1x8x8x7x7x64xf32>
	%64="ufront.transpose"(%63){perms=[0, 5, 1, 3, 2, 4]}:(tensor<1x8x8x7x7x64xf32>) -> tensor<1x64x8x7x8x7xf32>
	%65="ufront.reshape"(%64){shape=[1, 64, 56, 56]}:(tensor<1x64x8x7x8x7xf32>) -> tensor<1x64x56x56xf32>
	%66="ufront.reshape"(%65){shape=[1, 64, 7, 8, 7, 8]}:(tensor<1x64x56x56xf32>) -> tensor<1x64x7x8x7x8xf32>
	%67="ufront.transpose"(%66){perms=[0, 2, 4, 3, 5, 1]}:(tensor<1x64x7x8x7x8xf32>) -> tensor<1x7x7x8x8x64xf32>
	%68="ufront.reshape"(%67){shape=[1, 49, 64, 64]}:(tensor<1x7x7x8x8x64xf32>) -> tensor<1x49x64x64xf32>
	%69="ufront.call"(%68){addargs=[('arg2', -2), ('arg3', -3)], func=swapaxes}:(tensor<1x49x64x64xf32>) -> tensor<1x64x49x64xf32>
	%70="ufront.layer_norm"(%69){elementwise_affine=true, eps=0.00001, normalized_shape=[64]}:(tensor<1x64x49x64xf32>) -> tensor<1x64x49x64xf32>
	%71="ufront.linear"(%70):(tensor<1x64x49x64xf32>) -> tensor<1x64x49x192xf32>
	%30, %72, %73="ufront.chunk"(%71){axis=-1, sizes=3}:(tensor<1x64x49x192xf32>) -> tensor<1x64x49x64xf32>, tensor<1x64x49x64xf32>, tensor<1x64x49x64xf32>
	%74="ufront.reshape"(%30){shape=[1, 64, 49, 2, 32]}:(tensor<1x64x49x64xf32>) -> tensor<1x64x49x2x32xf32>
	%75="ufront.transpose"(%74){perms=[0, 1, 3, 2, 4]}:(tensor<1x64x49x2x32xf32>) -> tensor<1x64x2x49x32xf32>
	%76="ufront.reshape"(%72){shape=[1, 64, 49, 2, 32]}:(tensor<1x64x49x64xf32>) -> tensor<1x64x49x2x32xf32>
	%77="ufront.transpose"(%76){perms=[0, 1, 3, 2, 4]}:(tensor<1x64x49x2x32xf32>) -> tensor<1x64x2x49x32xf32>
	%78="ufront.reshape"(%73){shape=[1, 64, 49, 2, 32]}:(tensor<1x64x49x64xf32>) -> tensor<1x64x49x2x32xf32>
	%79="ufront.transpose"(%78){perms=[0, 1, 3, 2, 4]}:(tensor<1x64x49x2x32xf32>) -> tensor<1x64x2x49x32xf32>
	%80="ufront.smultiply"(%77){scalar=0.125}:(tensor<1x64x2x49x32xf32>) -> tensor<1x64x2x49x32xf32>
	%81="ufront.call"(%75, %80){addargs=[('arg1', 'B G H I D, B G H J D -> B G H I J')], func=einsum}:(tensor<1x64x2x49x32xf32>, tensor<1x64x2x49x32xf32>) -> tensor<1x64x2x49x49xf32>
	%82="ufront.parameter"(%82){dtype=DataType.Float, initializer=[[… requires_grad=true}:(tensor<169x2xf32>) -> tensor<169x2xf32>
	%83="ufront.tensor"(%83){dtype=DataType.Int64, initializer=[84, 83, 82, 81, 80, 79, 78, 71, 70, 69, 68, 67, 66, 65, 58, 57, 56, 55, 54, 53, 52, 45, 44, 43, 42, 41, 40, 39, 32, 31, 30, 29, 28, 27, 26, 19, 18, 17, 16, 15, 14, 13, 6, 5, 4, 3, 2, 1, 0, 85, 84, 83, 82, 81, 80, 79, 72, 71, 70, 69, 68, 67, 66, 59, 58, 57, 56, 55, 54, 53, 46, 45, 44, 43, 42, 41, 40, 33, 32, 31, 30, 29, 28, 27, 20, 19, 18, 17, 16, 15, 14, 7, 6, 5, 4, 3, 2, 1, 86, 85, 84, 83, 82, 81, 80, 73, 72, 71, 70, 69, 68, 67, 60, 59, 58, 57, 56, 55, 54, 47, 46, 45, 44, 43, 42, 41, 34, 33, 32, 31, 30, 29, 28, 21, 20, 19, 18, 17, 16, 15, 8, 7, 6, 5, 4, 3, 2, 87, 86, 85, 84, 83, 82, 81, 74, 73, 72, 71, 70, 69, 68, 61, 60, 59, 58, 57, 56, 55, 48, 47, 46, 45, 44, 43, 42, 35, 34, 33, 32, 31, 30, 29, 22, 21, 20, 19, 18, 17, 16, 9, 8, 7, 6, 5, 4, 3, 88, 87, 86, 85, 84, 83, 82, 75, 74, 73, 72, 71, 70, 69, 62, 61, 60, 59, 58, 57, 56, 49, 48, 47, 46, 45, 44, 43, 36, 35, 34, 33, 32, 31, 30, 23, 22, 21, 20, 19, 18, 17, 10, 9, 8, 7, 6, 5, 4, 89, 88, 87, 86, 85, 84, 83, 76, 75, 74, 73, 72, 71, 70, 63, 62, 61, 60, 59, 58, 57, 50, 49, 48, 47, 46, 45, 44, 37, 36, 35, 34, 33, 32, 31, 24, 23, 22, 21, 20, 19, 18, 11, 10, 9, 8, 7, 6, 5, 90, 89, 88, 87, 86, 85, 84, 77, 76, 75, 74, 73, 72, 71, 64, 63, 62, 61, 60, 59, 58, 51, 50, 49, 48, 47, 46, 45, 38, 37, 36, 35, 34, 33, 32, 25, 24, 23, 22, 21, 20, 19, 12, 11, 10, 9, 8, 7, 6, 97, 96, 95, 94, 93, 92, 91, 84, 83, 82, 81, 80, 79, 78, 71, 70, 69, 68, 67, 66, 65, 58, 57, 56, 55, 54, 53, 52, 45, 44, 43, 42, 41, 40, 39, 32, 31, 30, 29, 28, 27, 26, 19, 18, 17, 16, 15, 14, 13, 98, 97, 96, 95, 94, 93, 92, 85, 84, 83, 82, 81, 80, 79, 72, 71, 70, 69, 68, 67, 66, 59, 58, 57, 56, 55, 54, 53, 46, 45, 44, 43, 42, 41, 40, 33, 32, 31, 30, 29, 28, 27, 20, 19, 18, 17, 16, 15, 14, 99, 98, 97, 96, 95, 94, 93, 86, 85, 84, 83, 82, 81, 80, 73, 72, 71, 70, 69, 68, 67, 60, 59, 58, 57, 56, 55, 54, 47, 46, 45, 44, 43, 42, 41, 34, 33, 32, 31, 30, 29, 28, 21, 20, 19, 18, 17, 16, 15, 100, 99, 98, 97, 96, 95, 94, 87, 86, 85, 84, 83, 82, 81, 74, 73, 72, 71, 70, 69, 68, 61, 60, 59, 58, 57, 56, 55, 48, 47, 46, 45, 44, 43, 42, 35, 34, 33, 32, 31, 30, 29, 22, 21, 20, 19, 18, 17, 16, 101, 100, 99, 98, 97, 96, 95, 88, 87, 86, 85, 84, 83, 82, 75, 74, 73, 72, 71, 70, 69, 62, 61, 60, 59, 58, 57, 56, 49, 48, 47, 46, 45, 44, 43, 36, 35, 34, 33, 32, 31, 30, 23, 22, 21, 20, 19, 18, 17, 102, 101, 100, 99, 98, 97, 96, 89, 88, 87, 86, 85, 84, 83, 76, 75, 74, 73, 72, 71, 70, 63, 62, 61, 60, 59, 58, 57, 50, 49, 48, 47, 46, 45, 44, 37, 36, 35, 34, 33, 32, 31, 24, 23, 22, 21, 20, 19, 18, 103, 102, 101, 100, 99, 98, 97, 90, 89, 88, 87, 86, 85, 84, 77, 76, 75, 74, 73, 72, 71, 64, 63, 62, 61, 60, 59, 58, 51, 50, 49, 48, 47, 46, 45, 38, 37, 36, 35, 34, 33, 32, 25, 24, 23, 22, 21, 20, 19, 110, 109, 108, 107, 106, 105, 104, 97, 96, 95, 94, 93, 92, 91, 84, 83, 82, 81, 80, 79, 78, 71, 70, 69, 68, 67, 66, 65, 58, 57, 56, 55, 54, 53, 52, 45, 44, 43, 42, 41, 40, 39, 32, 31, 30, 29, 28, 27, 26, 111, 110, 109, 108, 107, 106, 105, 98, 97, 96, 95, 94, 93, 92, 85, 84, 83, 82, 81, 80, 79, 72, 71, 70, 69, 68, 67, 66, 59, 58, 57, 56, 55, 54, 53, 46, 45, 44, 43, 42, 41, 40, 33, 32, 31, 30, 29, 28, 27, 112, 111, 110, 109, 108, 107, 106, 99, 98, 97, 96, 95, 94, 93, 86, 85, 84, 83, 82, 81, 80, 73, 72, 71, 70, 69, 68, 67, 60, 59, 58, 57, 56, 55, 54, 47, 46, 45, 44, 43, 42, 41, 34, 33, 32, 31, 30, 29, 28, 113, 112, 111, 110, 109, 108, 107, 100, 99, 98, 97, 96, 95, 94, 87, 86, 85, 84, 83, 82, 81, 74, 73, 72, 71, 70, 69, 68, 61, 60, 59, 58, 57, 56, 55, 48, 47, 46, 45, 44, 43, 42, 35, 34, 33, 32, 31, 30, 29, 114, 113, 112, 111, 110, 109, 108, 101, 100, 99, 98, 97, 96, 95, 88, 87, 86, 85, 84, 83, 82, 75, 74, 73, 72, 71, 70, 69, 62, 61, 60, 59, 58, 57, 56, 49, 48, 47, 46, 45, 44, 43, 36, 35, 34, 33, 32, 31, 30, 115, 114, 113, 112, 111, 110, 109, 102, 101, 100, 99, 98, 97, 96, 89, 88, 87, 86, 85, 84, 83, 76, 75, 74, 73, 72, 71, 70, 63, 62, 61, 60, 59, 58, 57, 50, 49, 48, 47, 46, 45, 44, 37, 36, 35, 34, 33, 32, 31, 116, 115, 114, 113, 112, 111, 110, 103, 102, 101, 100, 99, 98, 97, 90, 89, 88, 87, 86, 85, 84, 77, 76, 75, 74, 73, 72, 71, 64, 63, 62, 61, 60, 59, 58, 51, 50, 49, 48, 47, 46, 45, 38, 37, 36, 35, 34, 33, 32, 123, 122, 121, 120, 119, 118, 117, 110, 109, 108, 107, 106, 105, 104, 97, 96, 95, 94, 93, 92, 91, 84, 83, 82, 81, 80, 79, 78, 71, 70, 69, 68, 67, 66, 65, 58, 57, 56, 55, 54, 53, 52, 45, 44, 43, 42, 41, 40, 39, 124, 123, 122, 121, 120, 119, 118, 111, 110, 109, 108, 107, 106, 105, 98, 97, 96, 95, 94, 93, 92, 85, 84, 83, 82, 81, 80, 79, 72, 71, 70, 69, 68, 67, 66, 59, 58, 57, 56, 55, 54, 53, 46, 45, 44, 43, 42, 41, 40, 125, 124, 123, 122, 121, 120, 119, 112, 111, 110, 109, 108, 107, 106, 99, 98, 97, 96, 95, 94, 93, 86, 85, 84, 83, 82, 81, 80, 73, 72, 71, 70, 69, 68, 67, 60, 59, 58, 57, 56, 55, 54, 47, 46, 45, 44, 43, 42, 41, 126, 125, 124, 123, 122, 121, 120, 113, 112, 111, 110, 109, 108, 107, 100, 99, 98, 97, 96, 95, 94, 87, 86, 85, 84, 83, 82, 81, 74, 73, 72, 71, 70, 69, 68, 61, 60, 59, 58, 57, 56, 55, 48, 47, 46, 45, 44, 43, 42, 127, 126, 125, 124, 123, 122, 121, 114, 113, 112, 111, 110, 109, 108, 101, 100, 99, 98, 97, 96, 95, 88, 87, 86, 85, 84, 83, 82, 75, 74, 73, 72, 71, 70, 69, 62, 61, 60, 59, 58, 57, 56, 49, 48, 47, 46, 45, 44, 43, 128, 127, 126, 125, 124, 123, 122, 115, 114, 113, 112, 111, 110, 109, 102, 101, 100, 99, 98, 97, 96, 89, 88, 87, 86, 85, 84, 83, 76, 75, 74, 73, 72, 71, 70, 63, 62, 61, 60, 59, 58, 57, 50, 49, 48, 47, 46, 45, 44, 129, 128, 127, 126, 125, 124, 123, 116, 115, 114, 113, 112, 111, 110, 103, 102, 101, 100, 99, 98, 97, 90, 89, 88, 87, 86, 85, 84, 77, 76, 75, 74, 73, 72, 71, 64, 63, 62, 61, 60, 59, 58, 51, 50, 49, 48, 47, 46, 45, 136, 135, 134, 133, 132, 131, 130, 123, 122, 121, 120, 119, 118, 117, 110, 109, 108, 107, 106, 105, 104, 97, 96, 95, 94, 93, 92, 91, 84, 83, 82, 81, 80, 79, 78, 71, 70, 69, 68, 67, 66, 65, 58, 57, 56, 55, 54, 53, 52, 137, 136, 135, 134, 133, 132, 131, 124, 123, 122, 121, 120, 119, 118, 111, 110, 109, 108, 107, 106, 105, 98, 97, 96, 95, 94, 93, 92, 85, 84, 83, 82, 81, 80, 79, 72, 71, 70, 69, 68, 67, 66, 59, 58, 57, 56, 55, 54, 53, 138, 137, 136, 135, 134, 133, 132, 125, 124, 123, 122, 121, 120, 119, 112, 111, 110, 109, 108, 107, 106, 99, 98, 97, 96, 95, 94, 93, 86, 85, 84, 83, 82, 81, 80, 73, 72, 71, 70, 69, 68, 67, 60, 59, 58, 57, 56, 55, 54, 139, 138, 137, 136, 135, 134, 133, 126, 125, 124, 123, 122, 121, 120, 113, 112, 111, 110, 109, 108, 107, 100, 99, 98, 97, 96, 95, 94, 87, 86, 85, 84, 83, 82, 81, 74, 73, 72, 71, 70, 69, 68, 61, 60, 59, 58, 57, 56, 55, 140, 139, 138, 137, 136, 135, 134, 127, 126, 125, 124, 123, 122, 121, 114, 113, 112, 111, 110, 109, 108, 101, 100, 99, 98, 97, 96, 95, 88, 87, 86, 85, 84, 83, 82, 75, 74, 73, 72, 71, 70, 69, 62, 61, 60, 59, 58, 57, 56, 141, 140, 139, 138, 137, 136, 135, 128, 127, 126, 125, 124, 123, 122, 115, 114, 113, 112, 111, 110, 109, 102, 101, 100, 99, 98, 97, 96, 89, 88, 87, 86, 85, 84, 83, 76, 75, 74, 73, 72, 71, 70, 63, 62, 61, 60, 59, 58, 57, 142, 141, 140, 139, 138, 137, 136, 129, 128, 127, 126, 125, 124, 123, 116, 115, 114, 113, 112, 111, 110, 103, 102, 101, 100, 99, 98, 97, 90, 89, 88, 87, 86, 85, 84, 77, 76, 75, 74, 73, 72, 71, 64, 63, 62, 61, 60, 59, 58, 149, 148, 147, 146, 145, 144, 143, 136, 135, 134, 133, 132, 131, 130, 123, 122, 121, 120, 119, 118, 117, 110, 109, 108, 107, 106, 105, 104, 97, 96, 95, 94, 93, 92, 91, 84, 83, 82, 81, 80, 79, 78, 71, 70, 69, 68, 67, 66, 65, 150, 149, 148, 147, 146, 145, 144, 137, 136, 135, 134, 133, 132, 131, 124, 123, 122, 121, 120, 119, 118, 111, 110, 109, 108, 107, 106, 105, 98, 97, 96, 95, 94, 93, 92, 85, 84, 83, 82, 81, 80, 79, 72, 71, 70, 69, 68, 67, 66, 151, 150, 149, 148, 147, 146, 145, 138, 137, 136, 135, 134, 133, 132, 125, 124, 123, 122, 121, 120, 119, 112, 111, 110, 109, 108, 107, 106, 99, 98, 97, 96, 95, 94, 93, 86, 85, 84, 83, 82, 81, 80, 73, 72, 71, 70, 69, 68, 67, 152, 151, 150, 149, 148, 147, 146, 139, 138, 137, 136, 135, 134, 133, 126, 125, 124, 123, 122, 121, 120, 113, 112, 111, 110, 109, 108, 107, 100, 99, 98, 97, 96, 95, 94, 87, 86, 85, 84, 83, 82, 81, 74, 73, 72, 71, 70, 69, 68, 153, 152, 151, 150, 149, 148, 147, 140, 139, 138, 137, 136, 135, 134, 127, 126, 125, 124, 123, 122, 121, 114, 113, 112, 111, 110, 109, 108, 101, 100, 99, 98, 97, 96, 95, 88, 87, 86, 85, 84, 83, 82, 75, 74, 73, 72, 71, 70, 69, 154, 153, 152, 151, 150, 149, 148, 141, 140, 139, 138, 137, 136, 135, 128, 127, 126, 125, 124, 123, 122, 115, 114, 113, 112, 111, 110, 109, 102, 101, 100, 99, 98, 97, 96, 89, 88, 87, 86, 85, 84, 83, 76, 75, 74, 73, 72, 71, 70, 155, 154, 153, 152, 151, 150, 149, 142, 141, 140, 139, 138, 137, 136, 129, 128, 127, 126, 125, 124, 123, 116, 115, 114, 113, 112, 111, 110, 103, 102, 101, 100, 99, 98, 97, 90, 89, 88, 87, 86, 85, 84, 77, 76, 75, 74, 73, 72, 71, 162, 161, 160, 159, 158, 157, 156, 149, 148, 147, 146, 145, 144, 143, 136, 135, 134, 133, 132, 131, 130, 123, 122, 121, 120, 119, 118, 117, 110, 109, 108, 107, 106, 105, 104, 97, 96, 95, 94, 93, 92, 91, 84, 83, 82, 81, 80, 79, 78, 163, 162, 161, 160, 159, 158, 157, 150, 149, 148, 147, 146, 145, 144, 137, 136, 135, 134, 133, 132, 131, 124, 123, 122, 121, 120, 119, 118, 111, 110, 109, 108, 107, 106, 105, 98, 97, 96, 95, 94, 93, 92, 85, 84, 83, 82, 81, 80, 79, 164, 163, 162, 161, 160, 159, 158, 151, 150, 149, 148, 147, 146, 145, 138, 137, 136, 135, 134, 133, 132, 125, 124, 123, 122, 121, 120, 119, 112, 111, 110, 109, 108, 107, 106, 99, 98, 97, 96, 95, 94, 93, 86, 85, 84, 83, 82, 81, 80, 165, 164, 163, 162, 161, 160, 159, 152, 151, 150, 149, 148, 147, 146, 139, 138, 137, 136, 135, 134, 133, 126, 125, 124, 123, 122, 121, 120, 113, 112, 111, 110, 109, 108, 107, 100, 99, 98, 97, 96, 95, 94, 87, 86, 85, 84, 83, 82, 81, 166, 165, 164, 163, 162, 161, 160, 153, 152, 151, 150, 149, 148, 147, 140, 139, 138, 137, 136, 135, 134, 127, 126, 125, 124, 123, 122, 121, 114, 113, 112, 111, 110, 109, 108, 101, 100, 99, 98, 97, 96, 95, 88, 87, 86, 85, 84, 83, 82, 167, 166, 165, 164, 163, 162, 161, 154, 153, 152, 151, 150, 149, 148, 141, 140, 139, 138, 137, 136, 135, 128, 127, 126, 125, 124, 123, 122, 115, 114, 113, 112, 111, 110, 109, 102, 101, 100, 99, 98, 97, 96, 89, 88, 87, 86, 85, 84, 83, 168, 167, 166, 165, 164, 163, 162, 155, 154, 153, 152, 151, 150, 149, 142, 141, 140, 139, 138, 137, 136, 129, 128, 127, 126, 125, 124, 123, 116, 115, 114, 113, 112, 111, 110, 103, 102, 101, 100, 99, 98, 97, 90, 89, 88, 87, 86, 85, 84], requires_grad=false}:(tensor<2401xf32>) -> tensor<2401xf32>
	%84="ufront.slice"(%82, %83){output_shape=[2401, 2]}:(tensor<169x2xf32>, tensor<2401xf32>) -> tensor<2401x2xf32>
	%85="ufront.reshape"(%84){shape=[49, 49, 2]}:(tensor<2401x2xf32>) -> tensor<49x49x2xf32>
	%86="ufront.transpose"(%85){perms=[2, 0, 1]}:(tensor<49x49x2xf32>) -> tensor<2x49x49xf32>
	%87="ufront.reshape"(%86){shape=[1, 2, 49, 49]}:(tensor<2x49x49xf32>) -> tensor<1x2x49x49xf32>
	%88="ufront.add"(%81, %87):(tensor<1x64x2x49x49xf32>, tensor<1x2x49x49xf32>) -> tensor<1x64x2x49x49xf32>
	%89="ufront.softmax"(%88):(tensor<1x64x2x49x49xf32>) -> tensor<1x64x2x49x49xf32>
	%90="ufront.call"(%89, %79){addargs=[('arg1', 'B G H I J, B G H J D -> B G H I D')], func=einsum}:(tensor<1x64x2x49x49xf32>, tensor<1x64x2x49x32xf32>) -> tensor<1x64x2x49x32xf32>
	%91="ufront.transpose"(%90){perms=[0, 1, 3, 2, 4]}:(tensor<1x64x2x49x32xf32>) -> tensor<1x64x49x2x32xf32>
	%92="ufront.reshape"(%91){shape=[1, 64, 49, 64]}:(tensor<1x64x49x2x32xf32>) -> tensor<1x64x49x64xf32>
	%93="ufront.linear"(%92):(tensor<1x64x49x64xf32>) -> tensor<1x64x49x64xf32>
	%94="ufront.dropout"(%93){rate=0.0, seed=0}:(tensor<1x64x49x64xf32>) -> tensor<1x64x49x64xf32>
	%95="ufront.call"(%94){addargs=[('p', 0.0), ('mode', 'row'), ('training', False)], func=stochastic_depth}:(tensor<1x64x49x64xf32>) -> tensor<1x64x49x64xf32>
	%96="ufront.add"(%69, %95):(tensor<1x64x49x64xf32>, tensor<1x64x49x64xf32>) -> tensor<1x64x49x64xf32>
	%97="ufront.layer_norm"(%96){elementwise_affine=true, eps=0.00001, normalized_shape=[64]}:(tensor<1x64x49x64xf32>) -> tensor<1x64x49x64xf32>
	%98="ufront.linear"(%97):(tensor<1x64x49x64xf32>) -> tensor<1x64x49x256xf32>
	%99="ufront.gelu"(%98):(tensor<1x64x49x256xf32>) -> tensor<1x64x49x256xf32>
	%100="ufront.linear"(%99):(tensor<1x64x49x256xf32>) -> tensor<1x64x49x64xf32>
	%101="ufront.dropout"(%100){rate=0.0, seed=0}:(tensor<1x64x49x64xf32>) -> tensor<1x64x49x64xf32>
	%102="ufront.call"(%101){addargs=[('p', 0.0), ('mode', 'row'), ('training', False)], func=stochastic_depth}:(tensor<1x64x49x64xf32>) -> tensor<1x64x49x64xf32>
	%103="ufront.add"(%96, %102):(tensor<1x64x49x64xf32>, tensor<1x64x49x64xf32>) -> tensor<1x64x49x64xf32>
	%104="ufront.call"(%103){addargs=[('arg2', -2), ('arg3', -3)], func=swapaxes}:(tensor<1x64x49x64xf32>) -> tensor<1x49x64x64xf32>
	%105="ufront.reshape"(%104){shape=[1, 7, 7, 8, 8, 64]}:(tensor<1x49x64x64xf32>) -> tensor<1x7x7x8x8x64xf32>
	%106="ufront.transpose"(%105){perms=[0, 5, 1, 3, 2, 4]}:(tensor<1x7x7x8x8x64xf32>) -> tensor<1x64x7x8x7x8xf32>
	%107="ufront.reshape"(%106){shape=[1, 64, 56, 56]}:(tensor<1x64x7x8x7x8xf32>) -> tensor<1x64x56x56xf32>
	%108="ufront.identity"(%107):(tensor<1x64x56x56xf32>) -> tensor<1x64x56x56xf32>
	%109="ufront.batchnorm"(%107){affine=true, eps=0.001, momentum=0.99, track_running_stats=true}:(tensor<1x64x56x56xf32>) -> tensor<1x64x56x56xf32>
	%110="ufront.conv2d"(%109){groups=1, kernel=[1, 1], pad=[0, 0], stride=[1, 1]}:(tensor<1x64x56x56xf32>) -> tensor<1x256x56x56xf32>
	%111="ufront.batchnorm"(%110){affine=true, eps=0.001, momentum=0.99, track_running_stats=true}:(tensor<1x256x56x56xf32>) -> tensor<1x256x56x56xf32>
	%112="ufront.gelu"(%111):(tensor<1x256x56x56xf32>) -> tensor<1x256x56x56xf32>
	%113="ufront.conv2d"(%112){groups=256, kernel=[3, 3], pad=[1, 1], stride=[1, 1]}:(tensor<1x256x56x56xf32>) -> tensor<1x256x56x56xf32>
	%114="ufront.batchnorm"(%113){affine=true, eps=0.001, momentum=0.99, track_running_stats=true}:(tensor<1x256x56x56xf32>) -> tensor<1x256x56x56xf32>
	%115="ufront.gelu"(%114):(tensor<1x256x56x56xf32>) -> tensor<1x256x56x56xf32>
	%116="ufront.pool2d"(%115){output_size=[1, 1], pool_type="POOL_ADAPTIVE"}:(tensor<1x256x56x56xf32>) -> tensor<1x256x1x1xf32>
	%117="ufront.conv2d"(%116){groups=1, kernel=[1, 1], pad=[0, 0], stride=[1, 1]}:(tensor<1x256x1x1xf32>) -> tensor<1x16x1x1xf32>
	%118="ufront.silu"(%117):(tensor<1x16x1x1xf32>) -> tensor<1x16x1x1xf32>
	%119="ufront.conv2d"(%118){groups=1, kernel=[1, 1], pad=[0, 0], stride=[1, 1]}:(tensor<1x16x1x1xf32>) -> tensor<1x256x1x1xf32>
	%120="ufront.sigmoid"(%119):(tensor<1x256x1x1xf32>) -> tensor<1x256x1x1xf32>
	%121="ufront.multiply"(%120, %115):(tensor<1x256x1x1xf32>, tensor<1x256x56x56xf32>) -> tensor<1x256x56x56xf32>
	%122="ufront.conv2d"(%121){groups=1, kernel=[1, 1], pad=[0, 0], stride=[1, 1]}:(tensor<1x256x56x56xf32>) -> tensor<1x64x56x56xf32>
	%123="ufront.call"(%122){addargs=[('p', 0.02), ('mode', 'row'), ('training', False)], func=stochastic_depth}:(tensor<1x64x56x56xf32>) -> tensor<1x64x56x56xf32>
	%124="ufront.add"(%108, %123):(tensor<1x64x56x56xf32>, tensor<1x64x56x56xf32>) -> tensor<1x64x56x56xf32>
	%125="ufront.reshape"(%124){shape=[1, 64, 8, 7, 8, 7]}:(tensor<1x64x56x56xf32>) -> tensor<1x64x8x7x8x7xf32>
	%126="ufront.transpose"(%125){perms=[0, 2, 4, 3, 5, 1]}:(tensor<1x64x8x7x8x7xf32>) -> tensor<1x8x8x7x7x64xf32>
	%127="ufront.reshape"(%126){shape=[1, 64, 49, 64]}:(tensor<1x8x8x7x7x64xf32>) -> tensor<1x64x49x64xf32>
	%128="ufront.identity"(%127):(tensor<1x64x49x64xf32>) -> tensor<1x64x49x64xf32>
	%129="ufront.layer_norm"(%128){elementwise_affine=true, eps=0.00001, normalized_shape=[64]}:(tensor<1x64x49x64xf32>) -> tensor<1x64x49x64xf32>
	%130="ufront.linear"(%129):(tensor<1x64x49x64xf32>) -> tensor<1x64x49x192xf32>
	%31, %131, %132="ufront.chunk"(%130){axis=-1, sizes=3}:(tensor<1x64x49x192xf32>) -> tensor<1x64x49x64xf32>, tensor<1x64x49x64xf32>, tensor<1x64x49x64xf32>
	%133="ufront.reshape"(%31){shape=[1, 64, 49, 2, 32]}:(tensor<1x64x49x64xf32>) -> tensor<1x64x49x2x32xf32>
	%134="ufront.transpose"(%133){perms=[0, 1, 3, 2, 4]}:(tensor<1x64x49x2x32xf32>) -> tensor<1x64x2x49x32xf32>
	%135="ufront.reshape"(%131){shape=[1, 64, 49, 2, 32]}:(tensor<1x64x49x64xf32>) -> tensor<1x64x49x2x32xf32>
	%136="ufront.transpose"(%135){perms=[0, 1, 3, 2, 4]}:(tensor<1x64x49x2x32xf32>) -> tensor<1x64x2x49x32xf32>
	%137="ufront.reshape"(%132){shape=[1, 64, 49, 2, 32]}:(tensor<1x64x49x64xf32>) -> tensor<1x64x49x2x32xf32>
	%138="ufront.transpose"(%137){perms=[0, 1, 3, 2, 4]}:(tensor<1x64x49x2x32xf32>) -> tensor<1x64x2x49x32xf32>
	%139="ufront.smultiply"(%136){scalar=0.125}:(tensor<1x64x2x49x32xf32>) -> tensor<1x64x2x49x32xf32>
	%140="ufront.call"(%134, %139){addargs=[('arg1', 'B G H I D, B G H J D -> B G H I J')], func=einsum}:(tensor<1x64x2x49x32xf32>, tensor<1x64x2x49x32xf32>) -> tensor<1x64x2x49x49xf32>
	%141="ufront.parameter"(%141){dtype=DataType.Float, initializer=[[… requires_grad=true}:(tensor<169x2xf32>) -> tensor<169x2xf32>
	%142="ufront.tensor"(%142){dtype=DataType.Int64, initializer=[84, 83, 82, 81, 80, 79, 78, 71, 70, 69, 68, 67, 66, 65, 58, 57, 56, 55, 54, 53, 52, 45, 44, 43, 42, 41, 40, 39, 32, 31, 30, 29, 28, 27, 26, 19, 18, 17, 16, 15, 14, 13, 6, 5, 4, 3, 2, 1, 0, 85, 84, 83, 82, 81, 80, 79, 72, 71, 70, 69, 68, 67, 66, 59, 58, 57, 56, 55, 54, 53, 46, 45, 44, 43, 42, 41, 40, 33, 32, 31, 30, 29, 28, 27, 20, 19, 18, 17, 16, 15, 14, 7, 6, 5, 4, 3, 2, 1, 86, 85, 84, 83, 82, 81, 80, 73, 72, 71, 70, 69, 68, 67, 60, 59, 58, 57, 56, 55, 54, 47, 46, 45, 44, 43, 42, 41, 34, 33, 32, 31, 30, 29, 28, 21, 20, 19, 18, 17, 16, 15, 8, 7, 6, 5, 4, 3, 2, 87, 86, 85, 84, 83, 82, 81, 74, 73, 72, 71, 70, 69, 68, 61, 60, 59, 58, 57, 56, 55, 48, 47, 46, 45, 44, 43, 42, 35, 34, 33, 32, 31, 30, 29, 22, 21, 20, 19, 18, 17, 16, 9, 8, 7, 6, 5, 4, 3, 88, 87, 86, 85, 84, 83, 82, 75, 74, 73, 72, 71, 70, 69, 62, 61, 60, 59, 58, 57, 56, 49, 48, 47, 46, 45, 44, 43, 36, 35, 34, 33, 32, 31, 30, 23, 22, 21, 20, 19, 18, 17, 10, 9, 8, 7, 6, 5, 4, 89, 88, 87, 86, 85, 84, 83, 76, 75, 74, 73, 72, 71, 70, 63, 62, 61, 60, 59, 58, 57, 50, 49, 48, 47, 46, 45, 44, 37, 36, 35, 34, 33, 32, 31, 24, 23, 22, 21, 20, 19, 18, 11, 10, 9, 8, 7, 6, 5, 90, 89, 88, 87, 86, 85, 84, 77, 76, 75, 74, 73, 72, 71, 64, 63, 62, 61, 60, 59, 58, 51, 50, 49, 48, 47, 46, 45, 38, 37, 36, 35, 34, 33, 32, 25, 24, 23, 22, 21, 20, 19, 12, 11, 10, 9, 8, 7, 6, 97, 96, 95, 94, 93, 92, 91, 84, 83, 82, 81, 80, 79, 78, 71, 70, 69, 68, 67, 66, 65, 58, 57, 56, 55, 54, 53, 52, 45, 44, 43, 42, 41, 40, 39, 32, 31, 30, 29, 28, 27, 26, 19, 18, 17, 16, 15, 14, 13, 98, 97, 96, 95, 94, 93, 92, 85, 84, 83, 82, 81, 80, 79, 72, 71, 70, 69, 68, 67, 66, 59, 58, 57, 56, 55, 54, 53, 46, 45, 44, 43, 42, 41, 40, 33, 32, 31, 30, 29, 28, 27, 20, 19, 18, 17, 16, 15, 14, 99, 98, 97, 96, 95, 94, 93, 86, 85, 84, 83, 82, 81, 80, 73, 72, 71, 70, 69, 68, 67, 60, 59, 58, 57, 56, 55, 54, 47, 46, 45, 44, 43, 42, 41, 34, 33, 32, 31, 30, 29, 28, 21, 20, 19, 18, 17, 16, 15, 100, 99, 98, 97, 96, 95, 94, 87, 86, 85, 84, 83, 82, 81, 74, 73, 72, 71, 70, 69, 68, 61, 60, 59, 58, 57, 56, 55, 48, 47, 46, 45, 44, 43, 42, 35, 34, 33, 32, 31, 30, 29, 22, 21, 20, 19, 18, 17, 16, 101, 100, 99, 98, 97, 96, 95, 88, 87, 86, 85, 84, 83, 82, 75, 74, 73, 72, 71, 70, 69, 62, 61, 60, 59, 58, 57, 56, 49, 48, 47, 46, 45, 44, 43, 36, 35, 34, 33, 32, 31, 30, 23, 22, 21, 20, 19, 18, 17, 102, 101, 100, 99, 98, 97, 96, 89, 88, 87, 86, 85, 84, 83, 76, 75, 74, 73, 72, 71, 70, 63, 62, 61, 60, 59, 58, 57, 50, 49, 48, 47, 46, 45, 44, 37, 36, 35, 34, 33, 32, 31, 24, 23, 22, 21, 20, 19, 18, 103, 102, 101, 100, 99, 98, 97, 90, 89, 88, 87, 86, 85, 84, 77, 76, 75, 74, 73, 72, 71, 64, 63, 62, 61, 60, 59, 58, 51, 50, 49, 48, 47, 46, 45, 38, 37, 36, 35, 34, 33, 32, 25, 24, 23, 22, 21, 20, 19, 110, 109, 108, 107, 106, 105, 104, 97, 96, 95, 94, 93, 92, 91, 84, 83, 82, 81, 80, 79, 78, 71, 70, 69, 68, 67, 66, 65, 58, 57, 56, 55, 54, 53, 52, 45, 44, 43, 42, 41, 40, 39, 32, 31, 30, 29, 28, 27, 26, 111, 110, 109, 108, 107, 106, 105, 98, 97, 96, 95, 94, 93, 92, 85, 84, 83, 82, 81, 80, 79, 72, 71, 70, 69, 68, 67, 66, 59, 58, 57, 56, 55, 54, 53, 46, 45, 44, 43, 42, 41, 40, 33, 32, 31, 30, 29, 28, 27, 112, 111, 110, 109, 108, 107, 106, 99, 98, 97, 96, 95, 94, 93, 86, 85, 84, 83, 82, 81, 80, 73, 72, 71, 70, 69, 68, 67, 60, 59, 58, 57, 56, 55, 54, 47, 46, 45, 44, 43, 42, 41, 34, 33, 32, 31, 30, 29, 28, 113, 112, 111, 110, 109, 108, 107, 100, 99, 98, 97, 96, 95, 94, 87, 86, 85, 84, 83, 82, 81, 74, 73, 72, 71, 70, 69, 68, 61, 60, 59, 58, 57, 56, 55, 48, 47, 46, 45, 44, 43, 42, 35, 34, 33, 32, 31, 30, 29, 114, 113, 112, 111, 110, 109, 108, 101, 100, 99, 98, 97, 96, 95, 88, 87, 86, 85, 84, 83, 82, 75, 74, 73, 72, 71, 70, 69, 62, 61, 60, 59, 58, 57, 56, 49, 48, 47, 46, 45, 44, 43, 36, 35, 34, 33, 32, 31, 30, 115, 114, 113, 112, 111, 110, 109, 102, 101, 100, 99, 98, 97, 96, 89, 88, 87, 86, 85, 84, 83, 76, 75, 74, 73, 72, 71, 70, 63, 62, 61, 60, 59, 58, 57, 50, 49, 48, 47, 46, 45, 44, 37, 36, 35, 34, 33, 32, 31, 116, 115, 114, 113, 112, 111, 110, 103, 102, 101, 100, 99, 98, 97, 90, 89, 88, 87, 86, 85, 84, 77, 76, 75, 74, 73, 72, 71, 64, 63, 62, 61, 60, 59, 58, 51, 50, 49, 48, 47, 46, 45, 38, 37, 36, 35, 34, 33, 32, 123, 122, 121, 120, 119, 118, 117, 110, 109, 108, 107, 106, 105, 104, 97, 96, 95, 94, 93, 92, 91, 84, 83, 82, 81, 80, 79, 78, 71, 70, 69, 68, 67, 66, 65, 58, 57, 56, 55, 54, 53, 52, 45, 44, 43, 42, 41, 40, 39, 124, 123, 122, 121, 120, 119, 118, 111, 110, 109, 108, 107, 106, 105, 98, 97, 96, 95, 94, 93, 92, 85, 84, 83, 82, 81, 80, 79, 72, 71, 70, 69, 68, 67, 66, 59, 58, 57, 56, 55, 54, 53, 46, 45, 44, 43, 42, 41, 40, 125, 124, 123, 122, 121, 120, 119, 112, 111, 110, 109, 108, 107, 106, 99, 98, 97, 96, 95, 94, 93, 86, 85, 84, 83, 82, 81, 80, 73, 72, 71, 70, 69, 68, 67, 60, 59, 58, 57, 56, 55, 54, 47, 46, 45, 44, 43, 42, 41, 126, 125, 124, 123, 122, 121, 120, 113, 112, 111, 110, 109, 108, 107, 100, 99, 98, 97, 96, 95, 94, 87, 86, 85, 84, 83, 82, 81, 74, 73, 72, 71, 70, 69, 68, 61, 60, 59, 58, 57, 56, 55, 48, 47, 46, 45, 44, 43, 42, 127, 126, 125, 124, 123, 122, 121, 114, 113, 112, 111, 110, 109, 108, 101, 100, 99, 98, 97, 96, 95, 88, 87, 86, 85, 84, 83, 82, 75, 74, 73, 72, 71, 70, 69, 62, 61, 60, 59, 58, 57, 56, 49, 48, 47, 46, 45, 44, 43, 128, 127, 126, 125, 124, 123, 122, 115, 114, 113, 112, 111, 110, 109, 102, 101, 100, 99, 98, 97, 96, 89, 88, 87, 86, 85, 84, 83, 76, 75, 74, 73, 72, 71, 70, 63, 62, 61, 60, 59, 58, 57, 50, 49, 48, 47, 46, 45, 44, 129, 128, 127, 126, 125, 124, 123, 116, 115, 114, 113, 112, 111, 110, 103, 102, 101, 100, 99, 98, 97, 90, 89, 88, 87, 86, 85, 84, 77, 76, 75, 74, 73, 72, 71, 64, 63, 62, 61, 60, 59, 58, 51, 50, 49, 48, 47, 46, 45, 136, 135, 134, 133, 132, 131, 130, 123, 122, 121, 120, 119, 118, 117, 110, 109, 108, 107, 106, 105, 104, 97, 96, 95, 94, 93, 92, 91, 84, 83, 82, 81, 80, 79, 78, 71, 70, 69, 68, 67, 66, 65, 58, 57, 56, 55, 54, 53, 52, 137, 136, 135, 134, 133, 132, 131, 124, 123, 122, 121, 120, 119, 118, 111, 110, 109, 108, 107, 106, 105, 98, 97, 96, 95, 94, 93, 92, 85, 84, 83, 82, 81, 80, 79, 72, 71, 70, 69, 68, 67, 66, 59, 58, 57, 56, 55, 54, 53, 138, 137, 136, 135, 134, 133, 132, 125, 124, 123, 122, 121, 120, 119, 112, 111, 110, 109, 108, 107, 106, 99, 98, 97, 96, 95, 94, 93, 86, 85, 84, 83, 82, 81, 80, 73, 72, 71, 70, 69, 68, 67, 60, 59, 58, 57, 56, 55, 54, 139, 138, 137, 136, 135, 134, 133, 126, 125, 124, 123, 122, 121, 120, 113, 112, 111, 110, 109, 108, 107, 100, 99, 98, 97, 96, 95, 94, 87, 86, 85, 84, 83, 82, 81, 74, 73, 72, 71, 70, 69, 68, 61, 60, 59, 58, 57, 56, 55, 140, 139, 138, 137, 136, 135, 134, 127, 126, 125, 124, 123, 122, 121, 114, 113, 112, 111, 110, 109, 108, 101, 100, 99, 98, 97, 96, 95, 88, 87, 86, 85, 84, 83, 82, 75, 74, 73, 72, 71, 70, 69, 62, 61, 60, 59, 58, 57, 56, 141, 140, 139, 138, 137, 136, 135, 128, 127, 126, 125, 124, 123, 122, 115, 114, 113, 112, 111, 110, 109, 102, 101, 100, 99, 98, 97, 96, 89, 88, 87, 86, 85, 84, 83, 76, 75, 74, 73, 72, 71, 70, 63, 62, 61, 60, 59, 58, 57, 142, 141, 140, 139, 138, 137, 136, 129, 128, 127, 126, 125, 124, 123, 116, 115, 114, 113, 112, 111, 110, 103, 102, 101, 100, 99, 98, 97, 90, 89, 88, 87, 86, 85, 84, 77, 76, 75, 74, 73, 72, 71, 64, 63, 62, 61, 60, 59, 58, 149, 148, 147, 146, 145, 144, 143, 136, 135, 134, 133, 132, 131, 130, 123, 122, 121, 120, 119, 118, 117, 110, 109, 108, 107, 106, 105, 104, 97, 96, 95, 94, 93, 92, 91, 84, 83, 82, 81, 80, 79, 78, 71, 70, 69, 68, 67, 66, 65, 150, 149, 148, 147, 146, 145, 144, 137, 136, 135, 134, 133, 132, 131, 124, 123, 122, 121, 120, 119, 118, 111, 110, 109, 108, 107, 106, 105, 98, 97, 96, 95, 94, 93, 92, 85, 84, 83, 82, 81, 80, 79, 72, 71, 70, 69, 68, 67, 66, 151, 150, 149, 148, 147, 146, 145, 138, 137, 136, 135, 134, 133, 132, 125, 124, 123, 122, 121, 120, 119, 112, 111, 110, 109, 108, 107, 106, 99, 98, 97, 96, 95, 94, 93, 86, 85, 84, 83, 82, 81, 80, 73, 72, 71, 70, 69, 68, 67, 152, 151, 150, 149, 148, 147, 146, 139, 138, 137, 136, 135, 134, 133, 126, 125, 124, 123, 122, 121, 120, 113, 112, 111, 110, 109, 108, 107, 100, 99, 98, 97, 96, 95, 94, 87, 86, 85, 84, 83, 82, 81, 74, 73, 72, 71, 70, 69, 68, 153, 152, 151, 150, 149, 148, 147, 140, 139, 138, 137, 136, 135, 134, 127, 126, 125, 124, 123, 122, 121, 114, 113, 112, 111, 110, 109, 108, 101, 100, 99, 98, 97, 96, 95, 88, 87, 86, 85, 84, 83, 82, 75, 74, 73, 72, 71, 70, 69, 154, 153, 152, 151, 150, 149, 148, 141, 140, 139, 138, 137, 136, 135, 128, 127, 126, 125, 124, 123, 122, 115, 114, 113, 112, 111, 110, 109, 102, 101, 100, 99, 98, 97, 96, 89, 88, 87, 86, 85, 84, 83, 76, 75, 74, 73, 72, 71, 70, 155, 154, 153, 152, 151, 150, 149, 142, 141, 140, 139, 138, 137, 136, 129, 128, 127, 126, 125, 124, 123, 116, 115, 114, 113, 112, 111, 110, 103, 102, 101, 100, 99, 98, 97, 90, 89, 88, 87, 86, 85, 84, 77, 76, 75, 74, 73, 72, 71, 162, 161, 160, 159, 158, 157, 156, 149, 148, 147, 146, 145, 144, 143, 136, 135, 134, 133, 132, 131, 130, 123, 122, 121, 120, 119, 118, 117, 110, 109, 108, 107, 106, 105, 104, 97, 96, 95, 94, 93, 92, 91, 84, 83, 82, 81, 80, 79, 78, 163, 162, 161, 160, 159, 158, 157, 150, 149, 148, 147, 146, 145, 144, 137, 136, 135, 134, 133, 132, 131, 124, 123, 122, 121, 120, 119, 118, 111, 110, 109, 108, 107, 106, 105, 98, 97, 96, 95, 94, 93, 92, 85, 84, 83, 82, 81, 80, 79, 164, 163, 162, 161, 160, 159, 158, 151, 150, 149, 148, 147, 146, 145, 138, 137, 136, 135, 134, 133, 132, 125, 124, 123, 122, 121, 120, 119, 112, 111, 110, 109, 108, 107, 106, 99, 98, 97, 96, 95, 94, 93, 86, 85, 84, 83, 82, 81, 80, 165, 164, 163, 162, 161, 160, 159, 152, 151, 150, 149, 148, 147, 146, 139, 138, 137, 136, 135, 134, 133, 126, 125, 124, 123, 122, 121, 120, 113, 112, 111, 110, 109, 108, 107, 100, 99, 98, 97, 96, 95, 94, 87, 86, 85, 84, 83, 82, 81, 166, 165, 164, 163, 162, 161, 160, 153, 152, 151, 150, 149, 148, 147, 140, 139, 138, 137, 136, 135, 134, 127, 126, 125, 124, 123, 122, 121, 114, 113, 112, 111, 110, 109, 108, 101, 100, 99, 98, 97, 96, 95, 88, 87, 86, 85, 84, 83, 82, 167, 166, 165, 164, 163, 162, 161, 154, 153, 152, 151, 150, 149, 148, 141, 140, 139, 138, 137, 136, 135, 128, 127, 126, 125, 124, 123, 122, 115, 114, 113, 112, 111, 110, 109, 102, 101, 100, 99, 98, 97, 96, 89, 88, 87, 86, 85, 84, 83, 168, 167, 166, 165, 164, 163, 162, 155, 154, 153, 152, 151, 150, 149, 142, 141, 140, 139, 138, 137, 136, 129, 128, 127, 126, 125, 124, 123, 116, 115, 114, 113, 112, 111, 110, 103, 102, 101, 100, 99, 98, 97, 90, 89, 88, 87, 86, 85, 84], requires_grad=false}:(tensor<2401xf32>) -> tensor<2401xf32>
	%143="ufront.slice"(%141, %142){output_shape=[2401, 2]}:(tensor<169x2xf32>, tensor<2401xf32>) -> tensor<2401x2xf32>
	%144="ufront.reshape"(%143){shape=[49, 49, 2]}:(tensor<2401x2xf32>) -> tensor<49x49x2xf32>
	%145="ufront.transpose"(%144){perms=[2, 0, 1]}:(tensor<49x49x2xf32>) -> tensor<2x49x49xf32>
	%146="ufront.reshape"(%145){shape=[1, 2, 49, 49]}:(tensor<2x49x49xf32>) -> tensor<1x2x49x49xf32>
	%147="ufront.add"(%140, %146):(tensor<1x64x2x49x49xf32>, tensor<1x2x49x49xf32>) -> tensor<1x64x2x49x49xf32>
	%148="ufront.softmax"(%147):(tensor<1x64x2x49x49xf32>) -> tensor<1x64x2x49x49xf32>
	%149="ufront.call"(%148, %138){addargs=[('arg1', 'B G H I J, B G H J D -> B G H I D')], func=einsum}:(tensor<1x64x2x49x49xf32>, tensor<1x64x2x49x32xf32>) -> tensor<1x64x2x49x32xf32>
	%150="ufront.transpose"(%149){perms=[0, 1, 3, 2, 4]}:(tensor<1x64x2x49x32xf32>) -> tensor<1x64x49x2x32xf32>
	%151="ufront.reshape"(%150){shape=[1, 64, 49, 64]}:(tensor<1x64x49x2x32xf32>) -> tensor<1x64x49x64xf32>
	%152="ufront.linear"(%151):(tensor<1x64x49x64xf32>) -> tensor<1x64x49x64xf32>
	%153="ufront.dropout"(%152){rate=0.0, seed=0}:(tensor<1x64x49x64xf32>) -> tensor<1x64x49x64xf32>
	%154="ufront.call"(%153){addargs=[('p', 0.02), ('mode', 'row'), ('training', False)], func=stochastic_depth}:(tensor<1x64x49x64xf32>) -> tensor<1x64x49x64xf32>
	%155="ufront.add"(%128, %154):(tensor<1x64x49x64xf32>, tensor<1x64x49x64xf32>) -> tensor<1x64x49x64xf32>
	%156="ufront.layer_norm"(%155){elementwise_affine=true, eps=0.00001, normalized_shape=[64]}:(tensor<1x64x49x64xf32>) -> tensor<1x64x49x64xf32>
	%157="ufront.linear"(%156):(tensor<1x64x49x64xf32>) -> tensor<1x64x49x256xf32>
	%158="ufront.gelu"(%157):(tensor<1x64x49x256xf32>) -> tensor<1x64x49x256xf32>
	%159="ufront.linear"(%158):(tensor<1x64x49x256xf32>) -> tensor<1x64x49x64xf32>
	%160="ufront.dropout"(%159){rate=0.0, seed=0}:(tensor<1x64x49x64xf32>) -> tensor<1x64x49x64xf32>
	%161="ufront.call"(%160){addargs=[('p', 0.02), ('mode', 'row'), ('training', False)], func=stochastic_depth}:(tensor<1x64x49x64xf32>) -> tensor<1x64x49x64xf32>
	%162="ufront.add"(%155, %161):(tensor<1x64x49x64xf32>, tensor<1x64x49x64xf32>) -> tensor<1x64x49x64xf32>
	%163="ufront.identity"(%162):(tensor<1x64x49x64xf32>) -> tensor<1x64x49x64xf32>
	%164="ufront.reshape"(%163){shape=[1, 8, 8, 7, 7, 64]}:(tensor<1x64x49x64xf32>) -> tensor<1x8x8x7x7x64xf32>
	%165="ufront.transpose"(%164){perms=[0, 5, 1, 3, 2, 4]}:(tensor<1x8x8x7x7x64xf32>) -> tensor<1x64x8x7x8x7xf32>
	%166="ufront.reshape"(%165){shape=[1, 64, 56, 56]}:(tensor<1x64x8x7x8x7xf32>) -> tensor<1x64x56x56xf32>
	%167="ufront.reshape"(%166){shape=[1, 64, 7, 8, 7, 8]}:(tensor<1x64x56x56xf32>) -> tensor<1x64x7x8x7x8xf32>
	%168="ufront.transpose"(%167){perms=[0, 2, 4, 3, 5, 1]}:(tensor<1x64x7x8x7x8xf32>) -> tensor<1x7x7x8x8x64xf32>
	%169="ufront.reshape"(%168){shape=[1, 49, 64, 64]}:(tensor<1x7x7x8x8x64xf32>) -> tensor<1x49x64x64xf32>
	%170="ufront.call"(%169){addargs=[('arg2', -2), ('arg3', -3)], func=swapaxes}:(tensor<1x49x64x64xf32>) -> tensor<1x64x49x64xf32>
	%171="ufront.layer_norm"(%170){elementwise_affine=true, eps=0.00001, normalized_shape=[64]}:(tensor<1x64x49x64xf32>) -> tensor<1x64x49x64xf32>
	%172="ufront.linear"(%171):(tensor<1x64x49x64xf32>) -> tensor<1x64x49x192xf32>
	%173, %174, %175="ufront.chunk"(%172){axis=-1, sizes=3}:(tensor<1x64x49x192xf32>) -> tensor<1x64x49x64xf32>, tensor<1x64x49x64xf32>, tensor<1x64x49x64xf32>
	%176="ufront.reshape"(%173){shape=[1, 64, 49, 2, 32]}:(tensor<1x64x49x64xf32>) -> tensor<1x64x49x2x32xf32>
	%177="ufront.transpose"(%176){perms=[0, 1, 3, 2, 4]}:(tensor<1x64x49x2x32xf32>) -> tensor<1x64x2x49x32xf32>
	%178="ufront.reshape"(%174){shape=[1, 64, 49, 2, 32]}:(tensor<1x64x49x64xf32>) -> tensor<1x64x49x2x32xf32>
	%179="ufront.transpose"(%178){perms=[0, 1, 3, 2, 4]}:(tensor<1x64x49x2x32xf32>) -> tensor<1x64x2x49x32xf32>
	%180="ufront.reshape"(%175){shape=[1, 64, 49, 2, 32]}:(tensor<1x64x49x64xf32>) -> tensor<1x64x49x2x32xf32>
	%181="ufront.transpose"(%180){perms=[0, 1, 3, 2, 4]}:(tensor<1x64x49x2x32xf32>) -> tensor<1x64x2x49x32xf32>
	%182="ufront.smultiply"(%179){scalar=0.125}:(tensor<1x64x2x49x32xf32>) -> tensor<1x64x2x49x32xf32>
	%183="ufront.call"(%177, %182){addargs=[('arg1', 'B G H I D, B G H J D -> B G H I J')], func=einsum}:(tensor<1x64x2x49x32xf32>, tensor<1x64x2x49x32xf32>) -> tensor<1x64x2x49x49xf32>
	%184="ufront.parameter"(%184){dtype=DataType.Float, initializer=[[… requires_grad=true}:(tensor<169x2xf32>) -> tensor<169x2xf32>
	%185="ufront.tensor"(%185){dtype=DataType.Int64, initializer=[84, 83, 82, 81, 80, 79, 78, 71, 70, 69, 68, 67, 66, 65, 58, 57, 56, 55, 54, 53, 52, 45, 44, 43, 42, 41, 40, 39, 32, 31, 30, 29, 28, 27, 26, 19, 18, 17, 16, 15, 14, 13, 6, 5, 4, 3, 2, 1, 0, 85, 84, 83, 82, 81, 80, 79, 72, 71, 70, 69, 68, 67, 66, 59, 58, 57, 56, 55, 54, 53, 46, 45, 44, 43, 42, 41, 40, 33, 32, 31, 30, 29, 28, 27, 20, 19, 18, 17, 16, 15, 14, 7, 6, 5, 4, 3, 2, 1, 86, 85, 84, 83, 82, 81, 80, 73, 72, 71, 70, 69, 68, 67, 60, 59, 58, 57, 56, 55, 54, 47, 46, 45, 44, 43, 42, 41, 34, 33, 32, 31, 30, 29, 28, 21, 20, 19, 18, 17, 16, 15, 8, 7, 6, 5, 4, 3, 2, 87, 86, 85, 84, 83, 82, 81, 74, 73, 72, 71, 70, 69, 68, 61, 60, 59, 58, 57, 56, 55, 48, 47, 46, 45, 44, 43, 42, 35, 34, 33, 32, 31, 30, 29, 22, 21, 20, 19, 18, 17, 16, 9, 8, 7, 6, 5, 4, 3, 88, 87, 86, 85, 84, 83, 82, 75, 74, 73, 72, 71, 70, 69, 62, 61, 60, 59, 58, 57, 56, 49, 48, 47, 46, 45, 44, 43, 36, 35, 34, 33, 32, 31, 30, 23, 22, 21, 20, 19, 18, 17, 10, 9, 8, 7, 6, 5, 4, 89, 88, 87, 86, 85, 84, 83, 76, 75, 74, 73, 72, 71, 70, 63, 62, 61, 60, 59, 58, 57, 50, 49, 48, 47, 46, 45, 44, 37, 36, 35, 34, 33, 32, 31, 24, 23, 22, 21, 20, 19, 18, 11, 10, 9, 8, 7, 6, 5, 90, 89, 88, 87, 86, 85, 84, 77, 76, 75, 74, 73, 72, 71, 64, 63, 62, 61, 60, 59, 58, 51, 50, 49, 48, 47, 46, 45, 38, 37, 36, 35, 34, 33, 32, 25, 24, 23, 22, 21, 20, 19, 12, 11, 10, 9, 8, 7, 6, 97, 96, 95, 94, 93, 92, 91, 84, 83, 82, 81, 80, 79, 78, 71, 70, 69, 68, 67, 66, 65, 58, 57, 56, 55, 54, 53, 52, 45, 44, 43, 42, 41, 40, 39, 32, 31, 30, 29, 28, 27, 26, 19, 18, 17, 16, 15, 14, 13, 98, 97, 96, 95, 94, 93, 92, 85, 84, 83, 82, 81, 80, 79, 72, 71, 70, 69, 68, 67, 66, 59, 58, 57, 56, 55, 54, 53, 46, 45, 44, 43, 42, 41, 40, 33, 32, 31, 30, 29, 28, 27, 20, 19, 18, 17, 16, 15, 14, 99, 98, 97, 96, 95, 94, 93, 86, 85, 84, 83, 82, 81, 80, 73, 72, 71, 70, 69, 68, 67, 60, 59, 58, 57, 56, 55, 54, 47, 46, 45, 44, 43, 42, 41, 34, 33, 32, 31, 30, 29, 28, 21, 20, 19, 18, 17, 16, 15, 100, 99, 98, 97, 96, 95, 94, 87, 86, 85, 84, 83, 82, 81, 74, 73, 72, 71, 70, 69, 68, 61, 60, 59, 58, 57, 56, 55, 48, 47, 46, 45, 44, 43, 42, 35, 34, 33, 32, 31, 30, 29, 22, 21, 20, 19, 18, 17, 16, 101, 100, 99, 98, 97, 96, 95, 88, 87, 86, 85, 84, 83, 82, 75, 74, 73, 72, 71, 70, 69, 62, 61, 60, 59, 58, 57, 56, 49, 48, 47, 46, 45, 44, 43, 36, 35, 34, 33, 32, 31, 30, 23, 22, 21, 20, 19, 18, 17, 102, 101, 100, 99, 98, 97, 96, 89, 88, 87, 86, 85, 84, 83, 76, 75, 74, 73, 72, 71, 70, 63, 62, 61, 60, 59, 58, 57, 50, 49, 48, 47, 46, 45, 44, 37, 36, 35, 34, 33, 32, 31, 24, 23, 22, 21, 20, 19, 18, 103, 102, 101, 100, 99, 98, 97, 90, 89, 88, 87, 86, 85, 84, 77, 76, 75, 74, 73, 72, 71, 64, 63, 62, 61, 60, 59, 58, 51, 50, 49, 48, 47, 46, 45, 38, 37, 36, 35, 34, 33, 32, 25, 24, 23, 22, 21, 20, 19, 110, 109, 108, 107, 106, 105, 104, 97, 96, 95, 94, 93, 92, 91, 84, 83, 82, 81, 80, 79, 78, 71, 70, 69, 68, 67, 66, 65, 58, 57, 56, 55, 54, 53, 52, 45, 44, 43, 42, 41, 40, 39, 32, 31, 30, 29, 28, 27, 26, 111, 110, 109, 108, 107, 106, 105, 98, 97, 96, 95, 94, 93, 92, 85, 84, 83, 82, 81, 80, 79, 72, 71, 70, 69, 68, 67, 66, 59, 58, 57, 56, 55, 54, 53, 46, 45, 44, 43, 42, 41, 40, 33, 32, 31, 30, 29, 28, 27, 112, 111, 110, 109, 108, 107, 106, 99, 98, 97, 96, 95, 94, 93, 86, 85, 84, 83, 82, 81, 80, 73, 72, 71, 70, 69, 68, 67, 60, 59, 58, 57, 56, 55, 54, 47, 46, 45, 44, 43, 42, 41, 34, 33, 32, 31, 30, 29, 28, 113, 112, 111, 110, 109, 108, 107, 100, 99, 98, 97, 96, 95, 94, 87, 86, 85, 84, 83, 82, 81, 74, 73, 72, 71, 70, 69, 68, 61, 60, 59, 58, 57, 56, 55, 48, 47, 46, 45, 44, 43, 42, 35, 34, 33, 32, 31, 30, 29, 114, 113, 112, 111, 110, 109, 108, 101, 100, 99, 98, 97, 96, 95, 88, 87, 86, 85, 84, 83, 82, 75, 74, 73, 72, 71, 70, 69, 62, 61, 60, 59, 58, 57, 56, 49, 48, 47, 46, 45, 44, 43, 36, 35, 34, 33, 32, 31, 30, 115, 114, 113, 112, 111, 110, 109, 102, 101, 100, 99, 98, 97, 96, 89, 88, 87, 86, 85, 84, 83, 76, 75, 74, 73, 72, 71, 70, 63, 62, 61, 60, 59, 58, 57, 50, 49, 48, 47, 46, 45, 44, 37, 36, 35, 34, 33, 32, 31, 116, 115, 114, 113, 112, 111, 110, 103, 102, 101, 100, 99, 98, 97, 90, 89, 88, 87, 86, 85, 84, 77, 76, 75, 74, 73, 72, 71, 64, 63, 62, 61, 60, 59, 58, 51, 50, 49, 48, 47, 46, 45, 38, 37, 36, 35, 34, 33, 32, 123, 122, 121, 120, 119, 118, 117, 110, 109, 108, 107, 106, 105, 104, 97, 96, 95, 94, 93, 92, 91, 84, 83, 82, 81, 80, 79, 78, 71, 70, 69, 68, 67, 66, 65, 58, 57, 56, 55, 54, 53, 52, 45, 44, 43, 42, 41, 40, 39, 124, 123, 122, 121, 120, 119, 118, 111, 110, 109, 108, 107, 106, 105, 98, 97, 96, 95, 94, 93, 92, 85, 84, 83, 82, 81, 80, 79, 72, 71, 70, 69, 68, 67, 66, 59, 58, 57, 56, 55, 54, 53, 46, 45, 44, 43, 42, 41, 40, 125, 124, 123, 122, 121, 120, 119, 112, 111, 110, 109, 108, 107, 106, 99, 98, 97, 96, 95, 94, 93, 86, 85, 84, 83, 82, 81, 80, 73, 72, 71, 70, 69, 68, 67, 60, 59, 58, 57, 56, 55, 54, 47, 46, 45, 44, 43, 42, 41, 126, 125, 124, 123, 122, 121, 120, 113, 112, 111, 110, 109, 108, 107, 100, 99, 98, 97, 96, 95, 94, 87, 86, 85, 84, 83, 82, 81, 74, 73, 72, 71, 70, 69, 68, 61, 60, 59, 58, 57, 56, 55, 48, 47, 46, 45, 44, 43, 42, 127, 126, 125, 124, 123, 122, 121, 114, 113, 112, 111, 110, 109, 108, 101, 100, 99, 98, 97, 96, 95, 88, 87, 86, 85, 84, 83, 82, 75, 74, 73, 72, 71, 70, 69, 62, 61, 60, 59, 58, 57, 56, 49, 48, 47, 46, 45, 44, 43, 128, 127, 126, 125, 124, 123, 122, 115, 114, 113, 112, 111, 110, 109, 102, 101, 100, 99, 98, 97, 96, 89, 88, 87, 86, 85, 84, 83, 76, 75, 74, 73, 72, 71, 70, 63, 62, 61, 60, 59, 58, 57, 50, 49, 48, 47, 46, 45, 44, 129, 128, 127, 126, 125, 124, 123, 116, 115, 114, 113, 112, 111, 110, 103, 102, 101, 100, 99, 98, 97, 90, 89, 88, 87, 86, 85, 84, 77, 76, 75, 74, 73, 72, 71, 64, 63, 62, 61, 60, 59, 58, 51, 50, 49, 48, 47, 46, 45, 136, 135, 134, 133, 132, 131, 130, 123, 122, 121, 120, 119, 118, 117, 110, 109, 108, 107, 106, 105, 104, 97, 96, 95, 94, 93, 92, 91, 84, 83, 82, 81, 80, 79, 78, 71, 70, 69, 68, 67, 66, 65, 58, 57, 56, 55, 54, 53, 52, 137, 136, 135, 134, 133, 132, 131, 124, 123, 122, 121, 120, 119, 118, 111, 110, 109, 108, 107, 106, 105, 98, 97, 96, 95, 94, 93, 92, 85, 84, 83, 82, 81, 80, 79, 72, 71, 70, 69, 68, 67, 66, 59, 58, 57, 56, 55, 54, 53, 138, 137, 136, 135, 134, 133, 132, 125, 124, 123, 122, 121, 120, 119, 112, 111, 110, 109, 108, 107, 106, 99, 98, 97, 96, 95, 94, 93, 86, 85, 84, 83, 82, 81, 80, 73, 72, 71, 70, 69, 68, 67, 60, 59, 58, 57, 56, 55, 54, 139, 138, 137, 136, 135, 134, 133, 126, 125, 124, 123, 122, 121, 120, 113, 112, 111, 110, 109, 108, 107, 100, 99, 98, 97, 96, 95, 94, 87, 86, 85, 84, 83, 82, 81, 74, 73, 72, 71, 70, 69, 68, 61, 60, 59, 58, 57, 56, 55, 140, 139, 138, 137, 136, 135, 134, 127, 126, 125, 124, 123, 122, 121, 114, 113, 112, 111, 110, 109, 108, 101, 100, 99, 98, 97, 96, 95, 88, 87, 86, 85, 84, 83, 82, 75, 74, 73, 72, 71, 70, 69, 62, 61, 60, 59, 58, 57, 56, 141, 140, 139, 138, 137, 136, 135, 128, 127, 126, 125, 124, 123, 122, 115, 114, 113, 112, 111, 110, 109, 102, 101, 100, 99, 98, 97, 96, 89, 88, 87, 86, 85, 84, 83, 76, 75, 74, 73, 72, 71, 70, 63, 62, 61, 60, 59, 58, 57, 142, 141, 140, 139, 138, 137, 136, 129, 128, 127, 126, 125, 124, 123, 116, 115, 114, 113, 112, 111, 110, 103, 102, 101, 100, 99, 98, 97, 90, 89, 88, 87, 86, 85, 84, 77, 76, 75, 74, 73, 72, 71, 64, 63, 62, 61, 60, 59, 58, 149, 148, 147, 146, 145, 144, 143, 136, 135, 134, 133, 132, 131, 130, 123, 122, 121, 120, 119, 118, 117, 110, 109, 108, 107, 106, 105, 104, 97, 96, 95, 94, 93, 92, 91, 84, 83, 82, 81, 80, 79, 78, 71, 70, 69, 68, 67, 66, 65, 150, 149, 148, 147, 146, 145, 144, 137, 136, 135, 134, 133, 132, 131, 124, 123, 122, 121, 120, 119, 118, 111, 110, 109, 108, 107, 106, 105, 98, 97, 96, 95, 94, 93, 92, 85, 84, 83, 82, 81, 80, 79, 72, 71, 70, 69, 68, 67, 66, 151, 150, 149, 148, 147, 146, 145, 138, 137, 136, 135, 134, 133, 132, 125, 124, 123, 122, 121, 120, 119, 112, 111, 110, 109, 108, 107, 106, 99, 98, 97, 96, 95, 94, 93, 86, 85, 84, 83, 82, 81, 80, 73, 72, 71, 70, 69, 68, 67, 152, 151, 150, 149, 148, 147, 146, 139, 138, 137, 136, 135, 134, 133, 126, 125, 124, 123, 122, 121, 120, 113, 112, 111, 110, 109, 108, 107, 100, 99, 98, 97, 96, 95, 94, 87, 86, 85, 84, 83, 82, 81, 74, 73, 72, 71, 70, 69, 68, 153, 152, 151, 150, 149, 148, 147, 140, 139, 138, 137, 136, 135, 134, 127, 126, 125, 124, 123, 122, 121, 114, 113, 112, 111, 110, 109, 108, 101, 100, 99, 98, 97, 96, 95, 88, 87, 86, 85, 84, 83, 82, 75, 74, 73, 72, 71, 70, 69, 154, 153, 152, 151, 150, 149, 148, 141, 140, 139, 138, 137, 136, 135, 128, 127, 126, 125, 124, 123, 122, 115, 114, 113, 112, 111, 110, 109, 102, 101, 100, 99, 98, 97, 96, 89, 88, 87, 86, 85, 84, 83, 76, 75, 74, 73, 72, 71, 70, 155, 154, 153, 152, 151, 150, 149, 142, 141, 140, 139, 138, 137, 136, 129, 128, 127, 126, 125, 124, 123, 116, 115, 114, 113, 112, 111, 110, 103, 102, 101, 100, 99, 98, 97, 90, 89, 88, 87, 86, 85, 84, 77, 76, 75, 74, 73, 72, 71, 162, 161, 160, 159, 158, 157, 156, 149, 148, 147, 146, 145, 144, 143, 136, 135, 134, 133, 132, 131, 130, 123, 122, 121, 120, 119, 118, 117, 110, 109, 108, 107, 106, 105, 104, 97, 96, 95, 94, 93, 92, 91, 84, 83, 82, 81, 80, 79, 78, 163, 162, 161, 160, 159, 158, 157, 150, 149, 148, 147, 146, 145, 144, 137, 136, 135, 134, 133, 132, 131, 124, 123, 122, 121, 120, 119, 118, 111, 110, 109, 108, 107, 106, 105, 98, 97, 96, 95, 94, 93, 92, 85, 84, 83, 82, 81, 80, 79, 164, 163, 162, 161, 160, 159, 158, 151, 150, 149, 148, 147, 146, 145, 138, 137, 136, 135, 134, 133, 132, 125, 124, 123, 122, 121, 120, 119, 112, 111, 110, 109, 108, 107, 106, 99, 98, 97, 96, 95, 94, 93, 86, 85, 84, 83, 82, 81, 80, 165, 164, 163, 162, 161, 160, 159, 152, 151, 150, 149, 148, 147, 146, 139, 138, 137, 136, 135, 134, 133, 126, 125, 124, 123, 122, 121, 120, 113, 112, 111, 110, 109, 108, 107, 100, 99, 98, 97, 96, 95, 94, 87, 86, 85, 84, 83, 82, 81, 166, 165, 164, 163, 162, 161, 160, 153, 152, 151, 150, 149, 148, 147, 140, 139, 138, 137, 136, 135, 134, 127, 126, 125, 124, 123, 122, 121, 114, 113, 112, 111, 110, 109, 108, 101, 100, 99, 98, 97, 96, 95, 88, 87, 86, 85, 84, 83, 82, 167, 166, 165, 164, 163, 162, 161, 154, 153, 152, 151, 150, 149, 148, 141, 140, 139, 138, 137, 136, 135, 128, 127, 126, 125, 124, 123, 122, 115, 114, 113, 112, 111, 110, 109, 102, 101, 100, 99, 98, 97, 96, 89, 88, 87, 86, 85, 84, 83, 168, 167, 166, 165, 164, 163, 162, 155, 154, 153, 152, 151, 150, 149, 142, 141, 140, 139, 138, 137, 136, 129, 128, 127, 126, 125, 124, 123, 116, 115, 114, 113, 112, 111, 110, 103, 102, 101, 100, 99, 98, 97, 90, 89, 88, 87, 86, 85, 84], requires_grad=false}:(tensor<2401xf32>) -> tensor<2401xf32>
	%186="ufront.slice"(%184, %185){output_shape=[2401, 2]}:(tensor<169x2xf32>, tensor<2401xf32>) -> tensor<2401x2xf32>
	%187="ufront.reshape"(%186){shape=[49, 49, 2]}:(tensor<2401x2xf32>) -> tensor<49x49x2xf32>
	%188="ufront.transpose"(%187){perms=[2, 0, 1]}:(tensor<49x49x2xf32>) -> tensor<2x49x49xf32>
	%189="ufront.reshape"(%188){shape=[1, 2, 49, 49]}:(tensor<2x49x49xf32>) -> tensor<1x2x49x49xf32>
	%190="ufront.add"(%183, %189):(tensor<1x64x2x49x49xf32>, tensor<1x2x49x49xf32>) -> tensor<1x64x2x49x49xf32>
	%191="ufront.softmax"(%190):(tensor<1x64x2x49x49xf32>) -> tensor<1x64x2x49x49xf32>
	%192="ufront.call"(%191, %181){addargs=[('arg1', 'B G H I J, B G H J D -> B G H I D')], func=einsum}:(tensor<1x64x2x49x49xf32>, tensor<1x64x2x49x32xf32>) -> tensor<1x64x2x49x32xf32>
	%193="ufront.transpose"(%192){perms=[0, 1, 3, 2, 4]}:(tensor<1x64x2x49x32xf32>) -> tensor<1x64x49x2x32xf32>
	%194="ufront.reshape"(%193){shape=[1, 64, 49, 64]}:(tensor<1x64x49x2x32xf32>) -> tensor<1x64x49x64xf32>
	%195="ufront.linear"(%194):(tensor<1x64x49x64xf32>) -> tensor<1x64x49x64xf32>
	%196="ufront.dropout"(%195){rate=0.0, seed=0}:(tensor<1x64x49x64xf32>) -> tensor<1x64x49x64xf32>
	%197="ufront.call"(%196){addargs=[('p', 0.02), ('mode', 'row'), ('training', False)], func=stochastic_depth}:(tensor<1x64x49x64xf32>) -> tensor<1x64x49x64xf32>
	%198="ufront.add"(%170, %197):(tensor<1x64x49x64xf32>, tensor<1x64x49x64xf32>) -> tensor<1x64x49x64xf32>
	%199="ufront.layer_norm"(%198){elementwise_affine=true, eps=0.00001, normalized_shape=[64]}:(tensor<1x64x49x64xf32>) -> tensor<1x64x49x64xf32>
	%200="ufront.linear"(%199):(tensor<1x64x49x64xf32>) -> tensor<1x64x49x256xf32>
	%201="ufront.gelu"(%200):(tensor<1x64x49x256xf32>) -> tensor<1x64x49x256xf32>
	%202="ufront.linear"(%201):(tensor<1x64x49x256xf32>) -> tensor<1x64x49x64xf32>
	%203="ufront.dropout"(%202){rate=0.0, seed=0}:(tensor<1x64x49x64xf32>) -> tensor<1x64x49x64xf32>
	%204="ufront.call"(%203){addargs=[('p', 0.02), ('mode', 'row'), ('training', False)], func=stochastic_depth}:(tensor<1x64x49x64xf32>) -> tensor<1x64x49x64xf32>
	%205="ufront.add"(%198, %204):(tensor<1x64x49x64xf32>, tensor<1x64x49x64xf32>) -> tensor<1x64x49x64xf32>
	%206="ufront.call"(%205){addargs=[('arg2', -2), ('arg3', -3)], func=swapaxes}:(tensor<1x64x49x64xf32>) -> tensor<1x49x64x64xf32>
	%207="ufront.reshape"(%206){shape=[1, 7, 7, 8, 8, 64]}:(tensor<1x49x64x64xf32>) -> tensor<1x7x7x8x8x64xf32>
	%208="ufront.transpose"(%207){perms=[0, 5, 1, 3, 2, 4]}:(tensor<1x7x7x8x8x64xf32>) -> tensor<1x64x7x8x7x8xf32>
	%209="ufront.reshape"(%208){shape=[1, 64, 56, 56]}:(tensor<1x64x7x8x7x8xf32>) -> tensor<1x64x56x56xf32>
	%210="ufront.pool2d"(%209){kernel=[3, 3], pad=[1, 1], pool_type="POOL_AVG", stride=[2, 2]}:(tensor<1x64x56x56xf32>) -> tensor<1x64x28x28xf32>
	%211="ufront.conv2d"(%210){groups=1, kernel=[1, 1], pad=[0, 0], stride=[1, 1]}:(tensor<1x64x28x28xf32>) -> tensor<1x128x28x28xf32>
	%212="ufront.batchnorm"(%209){affine=true, eps=0.001, momentum=0.99, track_running_stats=true}:(tensor<1x64x56x56xf32>) -> tensor<1x64x56x56xf32>
	%213="ufront.conv2d"(%212){groups=1, kernel=[1, 1], pad=[0, 0], stride=[1, 1]}:(tensor<1x64x56x56xf32>) -> tensor<1x512x56x56xf32>
	%214="ufront.batchnorm"(%213){affine=true, eps=0.001, momentum=0.99, track_running_stats=true}:(tensor<1x512x56x56xf32>) -> tensor<1x512x56x56xf32>
	%215="ufront.gelu"(%214):(tensor<1x512x56x56xf32>) -> tensor<1x512x56x56xf32>
	%216="ufront.conv2d"(%215){groups=512, kernel=[3, 3], pad=[1, 1], stride=[2, 2]}:(tensor<1x512x56x56xf32>) -> tensor<1x512x28x28xf32>
	%217="ufront.batchnorm"(%216){affine=true, eps=0.001, momentum=0.99, track_running_stats=true}:(tensor<1x512x28x28xf32>) -> tensor<1x512x28x28xf32>
	%218="ufront.gelu"(%217):(tensor<1x512x28x28xf32>) -> tensor<1x512x28x28xf32>
	%219="ufront.pool2d"(%218){output_size=[1, 1], pool_type="POOL_ADAPTIVE"}:(tensor<1x512x28x28xf32>) -> tensor<1x512x1x1xf32>
	%220="ufront.conv2d"(%219){groups=1, kernel=[1, 1], pad=[0, 0], stride=[1, 1]}:(tensor<1x512x1x1xf32>) -> tensor<1x32x1x1xf32>
	%221="ufront.silu"(%220):(tensor<1x32x1x1xf32>) -> tensor<1x32x1x1xf32>
	%222="ufront.conv2d"(%221){groups=1, kernel=[1, 1], pad=[0, 0], stride=[1, 1]}:(tensor<1x32x1x1xf32>) -> tensor<1x512x1x1xf32>
	%223="ufront.sigmoid"(%222):(tensor<1x512x1x1xf32>) -> tensor<1x512x1x1xf32>
	%224="ufront.multiply"(%223, %218):(tensor<1x512x1x1xf32>, tensor<1x512x28x28xf32>) -> tensor<1x512x28x28xf32>
	%225="ufront.conv2d"(%224){groups=1, kernel=[1, 1], pad=[0, 0], stride=[1, 1]}:(tensor<1x512x28x28xf32>) -> tensor<1x128x28x28xf32>
	%226="ufront.call"(%225){addargs=[('p', 0.04), ('mode', 'row'), ('training', False)], func=stochastic_depth}:(tensor<1x128x28x28xf32>) -> tensor<1x128x28x28xf32>
	%227="ufront.add"(%211, %226):(tensor<1x128x28x28xf32>, tensor<1x128x28x28xf32>) -> tensor<1x128x28x28xf32>
	%228="ufront.reshape"(%227){shape=[1, 128, 4, 7, 4, 7]}:(tensor<1x128x28x28xf32>) -> tensor<1x128x4x7x4x7xf32>
	%229="ufront.transpose"(%228){perms=[0, 2, 4, 3, 5, 1]}:(tensor<1x128x4x7x4x7xf32>) -> tensor<1x4x4x7x7x128xf32>
	%230="ufront.reshape"(%229){shape=[1, 16, 49, 128]}:(tensor<1x4x4x7x7x128xf32>) -> tensor<1x16x49x128xf32>
	%231="ufront.identity"(%230):(tensor<1x16x49x128xf32>) -> tensor<1x16x49x128xf32>
	%232="ufront.layer_norm"(%231){elementwise_affine=true, eps=0.00001, normalized_shape=[128]}:(tensor<1x16x49x128xf32>) -> tensor<1x16x49x128xf32>
	%233="ufront.linear"(%232):(tensor<1x16x49x128xf32>) -> tensor<1x16x49x384xf32>
	%234, %235, %236="ufront.chunk"(%233){axis=-1, sizes=3}:(tensor<1x16x49x384xf32>) -> tensor<1x16x49x128xf32>, tensor<1x16x49x128xf32>, tensor<1x16x49x128xf32>
	%237="ufront.reshape"(%234){shape=[1, 16, 49, 4, 32]}:(tensor<1x16x49x128xf32>) -> tensor<1x16x49x4x32xf32>
	%238="ufront.transpose"(%237){perms=[0, 1, 3, 2, 4]}:(tensor<1x16x49x4x32xf32>) -> tensor<1x16x4x49x32xf32>
	%239="ufront.reshape"(%235){shape=[1, 16, 49, 4, 32]}:(tensor<1x16x49x128xf32>) -> tensor<1x16x49x4x32xf32>
	%240="ufront.transpose"(%239){perms=[0, 1, 3, 2, 4]}:(tensor<1x16x49x4x32xf32>) -> tensor<1x16x4x49x32xf32>
	%241="ufront.reshape"(%236){shape=[1, 16, 49, 4, 32]}:(tensor<1x16x49x128xf32>) -> tensor<1x16x49x4x32xf32>
	%242="ufront.transpose"(%241){perms=[0, 1, 3, 2, 4]}:(tensor<1x16x49x4x32xf32>) -> tensor<1x16x4x49x32xf32>
	%243="ufront.smultiply"(%240){scalar=0.08838834764831845}:(tensor<1x16x4x49x32xf32>) -> tensor<1x16x4x49x32xf32>
	%244="ufront.call"(%238, %243){addargs=[('arg1', 'B G H I D, B G H J D -> B G H I J')], func=einsum}:(tensor<1x16x4x49x32xf32>, tensor<1x16x4x49x32xf32>) -> tensor<1x16x4x49x49xf32>
	%245="ufront.parameter"(%245){dtype=DataType.Float, initializer=[[… requires_grad=true}:(tensor<169x4xf32>) -> tensor<169x4xf32>
	%246="ufront.tensor"(%246){dtype=DataType.Int64, initializer=[84, 83, 82, 81, 80, 79, 78, 71, 70, 69, 68, 67, 66, 65, 58, 57, 56, 55, 54, 53, 52, 45, 44, 43, 42, 41, 40, 39, 32, 31, 30, 29, 28, 27, 26, 19, 18, 17, 16, 15, 14, 13, 6, 5, 4, 3, 2, 1, 0, 85, 84, 83, 82, 81, 80, 79, 72, 71, 70, 69, 68, 67, 66, 59, 58, 57, 56, 55, 54, 53, 46, 45, 44, 43, 42, 41, 40, 33, 32, 31, 30, 29, 28, 27, 20, 19, 18, 17, 16, 15, 14, 7, 6, 5, 4, 3, 2, 1, 86, 85, 84, 83, 82, 81, 80, 73, 72, 71, 70, 69, 68, 67, 60, 59, 58, 57, 56, 55, 54, 47, 46, 45, 44, 43, 42, 41, 34, 33, 32, 31, 30, 29, 28, 21, 20, 19, 18, 17, 16, 15, 8, 7, 6, 5, 4, 3, 2, 87, 86, 85, 84, 83, 82, 81, 74, 73, 72, 71, 70, 69, 68, 61, 60, 59, 58, 57, 56, 55, 48, 47, 46, 45, 44, 43, 42, 35, 34, 33, 32, 31, 30, 29, 22, 21, 20, 19, 18, 17, 16, 9, 8, 7, 6, 5, 4, 3, 88, 87, 86, 85, 84, 83, 82, 75, 74, 73, 72, 71, 70, 69, 62, 61, 60, 59, 58, 57, 56, 49, 48, 47, 46, 45, 44, 43, 36, 35, 34, 33, 32, 31, 30, 23, 22, 21, 20, 19, 18, 17, 10, 9, 8, 7, 6, 5, 4, 89, 88, 87, 86, 85, 84, 83, 76, 75, 74, 73, 72, 71, 70, 63, 62, 61, 60, 59, 58, 57, 50, 49, 48, 47, 46, 45, 44, 37, 36, 35, 34, 33, 32, 31, 24, 23, 22, 21, 20, 19, 18, 11, 10, 9, 8, 7, 6, 5, 90, 89, 88, 87, 86, 85, 84, 77, 76, 75, 74, 73, 72, 71, 64, 63, 62, 61, 60, 59, 58, 51, 50, 49, 48, 47, 46, 45, 38, 37, 36, 35, 34, 33, 32, 25, 24, 23, 22, 21, 20, 19, 12, 11, 10, 9, 8, 7, 6, 97, 96, 95, 94, 93, 92, 91, 84, 83, 82, 81, 80, 79, 78, 71, 70, 69, 68, 67, 66, 65, 58, 57, 56, 55, 54, 53, 52, 45, 44, 43, 42, 41, 40, 39, 32, 31, 30, 29, 28, 27, 26, 19, 18, 17, 16, 15, 14, 13, 98, 97, 96, 95, 94, 93, 92, 85, 84, 83, 82, 81, 80, 79, 72, 71, 70, 69, 68, 67, 66, 59, 58, 57, 56, 55, 54, 53, 46, 45, 44, 43, 42, 41, 40, 33, 32, 31, 30, 29, 28, 27, 20, 19, 18, 17, 16, 15, 14, 99, 98, 97, 96, 95, 94, 93, 86, 85, 84, 83, 82, 81, 80, 73, 72, 71, 70, 69, 68, 67, 60, 59, 58, 57, 56, 55, 54, 47, 46, 45, 44, 43, 42, 41, 34, 33, 32, 31, 30, 29, 28, 21, 20, 19, 18, 17, 16, 15, 100, 99, 98, 97, 96, 95, 94, 87, 86, 85, 84, 83, 82, 81, 74, 73, 72, 71, 70, 69, 68, 61, 60, 59, 58, 57, 56, 55, 48, 47, 46, 45, 44, 43, 42, 35, 34, 33, 32, 31, 30, 29, 22, 21, 20, 19, 18, 17, 16, 101, 100, 99, 98, 97, 96, 95, 88, 87, 86, 85, 84, 83, 82, 75, 74, 73, 72, 71, 70, 69, 62, 61, 60, 59, 58, 57, 56, 49, 48, 47, 46, 45, 44, 43, 36, 35, 34, 33, 32, 31, 30, 23, 22, 21, 20, 19, 18, 17, 102, 101, 100, 99, 98, 97, 96, 89, 88, 87, 86, 85, 84, 83, 76, 75, 74, 73, 72, 71, 70, 63, 62, 61, 60, 59, 58, 57, 50, 49, 48, 47, 46, 45, 44, 37, 36, 35, 34, 33, 32, 31, 24, 23, 22, 21, 20, 19, 18, 103, 102, 101, 100, 99, 98, 97, 90, 89, 88, 87, 86, 85, 84, 77, 76, 75, 74, 73, 72, 71, 64, 63, 62, 61, 60, 59, 58, 51, 50, 49, 48, 47, 46, 45, 38, 37, 36, 35, 34, 33, 32, 25, 24, 23, 22, 21, 20, 19, 110, 109, 108, 107, 106, 105, 104, 97, 96, 95, 94, 93, 92, 91, 84, 83, 82, 81, 80, 79, 78, 71, 70, 69, 68, 67, 66, 65, 58, 57, 56, 55, 54, 53, 52, 45, 44, 43, 42, 41, 40, 39, 32, 31, 30, 29, 28, 27, 26, 111, 110, 109, 108, 107, 106, 105, 98, 97, 96, 95, 94, 93, 92, 85, 84, 83, 82, 81, 80, 79, 72, 71, 70, 69, 68, 67, 66, 59, 58, 57, 56, 55, 54, 53, 46, 45, 44, 43, 42, 41, 40, 33, 32, 31, 30, 29, 28, 27, 112, 111, 110, 109, 108, 107, 106, 99, 98, 97, 96, 95, 94, 93, 86, 85, 84, 83, 82, 81, 80, 73, 72, 71, 70, 69, 68, 67, 60, 59, 58, 57, 56, 55, 54, 47, 46, 45, 44, 43, 42, 41, 34, 33, 32, 31, 30, 29, 28, 113, 112, 111, 110, 109, 108, 107, 100, 99, 98, 97, 96, 95, 94, 87, 86, 85, 84, 83, 82, 81, 74, 73, 72, 71, 70, 69, 68, 61, 60, 59, 58, 57, 56, 55, 48, 47, 46, 45, 44, 43, 42, 35, 34, 33, 32, 31, 30, 29, 114, 113, 112, 111, 110, 109, 108, 101, 100, 99, 98, 97, 96, 95, 88, 87, 86, 85, 84, 83, 82, 75, 74, 73, 72, 71, 70, 69, 62, 61, 60, 59, 58, 57, 56, 49, 48, 47, 46, 45, 44, 43, 36, 35, 34, 33, 32, 31, 30, 115, 114, 113, 112, 111, 110, 109, 102, 101, 100, 99, 98, 97, 96, 89, 88, 87, 86, 85, 84, 83, 76, 75, 74, 73, 72, 71, 70, 63, 62, 61, 60, 59, 58, 57, 50, 49, 48, 47, 46, 45, 44, 37, 36, 35, 34, 33, 32, 31, 116, 115, 114, 113, 112, 111, 110, 103, 102, 101, 100, 99, 98, 97, 90, 89, 88, 87, 86, 85, 84, 77, 76, 75, 74, 73, 72, 71, 64, 63, 62, 61, 60, 59, 58, 51, 50, 49, 48, 47, 46, 45, 38, 37, 36, 35, 34, 33, 32, 123, 122, 121, 120, 119, 118, 117, 110, 109, 108, 107, 106, 105, 104, 97, 96, 95, 94, 93, 92, 91, 84, 83, 82, 81, 80, 79, 78, 71, 70, 69, 68, 67, 66, 65, 58, 57, 56, 55, 54, 53, 52, 45, 44, 43, 42, 41, 40, 39, 124, 123, 122, 121, 120, 119, 118, 111, 110, 109, 108, 107, 106, 105, 98, 97, 96, 95, 94, 93, 92, 85, 84, 83, 82, 81, 80, 79, 72, 71, 70, 69, 68, 67, 66, 59, 58, 57, 56, 55, 54, 53, 46, 45, 44, 43, 42, 41, 40, 125, 124, 123, 122, 121, 120, 119, 112, 111, 110, 109, 108, 107, 106, 99, 98, 97, 96, 95, 94, 93, 86, 85, 84, 83, 82, 81, 80, 73, 72, 71, 70, 69, 68, 67, 60, 59, 58, 57, 56, 55, 54, 47, 46, 45, 44, 43, 42, 41, 126, 125, 124, 123, 122, 121, 120, 113, 112, 111, 110, 109, 108, 107, 100, 99, 98, 97, 96, 95, 94, 87, 86, 85, 84, 83, 82, 81, 74, 73, 72, 71, 70, 69, 68, 61, 60, 59, 58, 57, 56, 55, 48, 47, 46, 45, 44, 43, 42, 127, 126, 125, 124, 123, 122, 121, 114, 113, 112, 111, 110, 109, 108, 101, 100, 99, 98, 97, 96, 95, 88, 87, 86, 85, 84, 83, 82, 75, 74, 73, 72, 71, 70, 69, 62, 61, 60, 59, 58, 57, 56, 49, 48, 47, 46, 45, 44, 43, 128, 127, 126, 125, 124, 123, 122, 115, 114, 113, 112, 111, 110, 109, 102, 101, 100, 99, 98, 97, 96, 89, 88, 87, 86, 85, 84, 83, 76, 75, 74, 73, 72, 71, 70, 63, 62, 61, 60, 59, 58, 57, 50, 49, 48, 47, 46, 45, 44, 129, 128, 127, 126, 125, 124, 123, 116, 115, 114, 113, 112, 111, 110, 103, 102, 101, 100, 99, 98, 97, 90, 89, 88, 87, 86, 85, 84, 77, 76, 75, 74, 73, 72, 71, 64, 63, 62, 61, 60, 59, 58, 51, 50, 49, 48, 47, 46, 45, 136, 135, 134, 133, 132, 131, 130, 123, 122, 121, 120, 119, 118, 117, 110, 109, 108, 107, 106, 105, 104, 97, 96, 95, 94, 93, 92, 91, 84, 83, 82, 81, 80, 79, 78, 71, 70, 69, 68, 67, 66, 65, 58, 57, 56, 55, 54, 53, 52, 137, 136, 135, 134, 133, 132, 131, 124, 123, 122, 121, 120, 119, 118, 111, 110, 109, 108, 107, 106, 105, 98, 97, 96, 95, 94, 93, 92, 85, 84, 83, 82, 81, 80, 79, 72, 71, 70, 69, 68, 67, 66, 59, 58, 57, 56, 55, 54, 53, 138, 137, 136, 135, 134, 133, 132, 125, 124, 123, 122, 121, 120, 119, 112, 111, 110, 109, 108, 107, 106, 99, 98, 97, 96, 95, 94, 93, 86, 85, 84, 83, 82, 81, 80, 73, 72, 71, 70, 69, 68, 67, 60, 59, 58, 57, 56, 55, 54, 139, 138, 137, 136, 135, 134, 133, 126, 125, 124, 123, 122, 121, 120, 113, 112, 111, 110, 109, 108, 107, 100, 99, 98, 97, 96, 95, 94, 87, 86, 85, 84, 83, 82, 81, 74, 73, 72, 71, 70, 69, 68, 61, 60, 59, 58, 57, 56, 55, 140, 139, 138, 137, 136, 135, 134, 127, 126, 125, 124, 123, 122, 121, 114, 113, 112, 111, 110, 109, 108, 101, 100, 99, 98, 97, 96, 95, 88, 87, 86, 85, 84, 83, 82, 75, 74, 73, 72, 71, 70, 69, 62, 61, 60, 59, 58, 57, 56, 141, 140, 139, 138, 137, 136, 135, 128, 127, 126, 125, 124, 123, 122, 115, 114, 113, 112, 111, 110, 109, 102, 101, 100, 99, 98, 97, 96, 89, 88, 87, 86, 85, 84, 83, 76, 75, 74, 73, 72, 71, 70, 63, 62, 61, 60, 59, 58, 57, 142, 141, 140, 139, 138, 137, 136, 129, 128, 127, 126, 125, 124, 123, 116, 115, 114, 113, 112, 111, 110, 103, 102, 101, 100, 99, 98, 97, 90, 89, 88, 87, 86, 85, 84, 77, 76, 75, 74, 73, 72, 71, 64, 63, 62, 61, 60, 59, 58, 149, 148, 147, 146, 145, 144, 143, 136, 135, 134, 133, 132, 131, 130, 123, 122, 121, 120, 119, 118, 117, 110, 109, 108, 107, 106, 105, 104, 97, 96, 95, 94, 93, 92, 91, 84, 83, 82, 81, 80, 79, 78, 71, 70, 69, 68, 67, 66, 65, 150, 149, 148, 147, 146, 145, 144, 137, 136, 135, 134, 133, 132, 131, 124, 123, 122, 121, 120, 119, 118, 111, 110, 109, 108, 107, 106, 105, 98, 97, 96, 95, 94, 93, 92, 85, 84, 83, 82, 81, 80, 79, 72, 71, 70, 69, 68, 67, 66, 151, 150, 149, 148, 147, 146, 145, 138, 137, 136, 135, 134, 133, 132, 125, 124, 123, 122, 121, 120, 119, 112, 111, 110, 109, 108, 107, 106, 99, 98, 97, 96, 95, 94, 93, 86, 85, 84, 83, 82, 81, 80, 73, 72, 71, 70, 69, 68, 67, 152, 151, 150, 149, 148, 147, 146, 139, 138, 137, 136, 135, 134, 133, 126, 125, 124, 123, 122, 121, 120, 113, 112, 111, 110, 109, 108, 107, 100, 99, 98, 97, 96, 95, 94, 87, 86, 85, 84, 83, 82, 81, 74, 73, 72, 71, 70, 69, 68, 153, 152, 151, 150, 149, 148, 147, 140, 139, 138, 137, 136, 135, 134, 127, 126, 125, 124, 123, 122, 121, 114, 113, 112, 111, 110, 109, 108, 101, 100, 99, 98, 97, 96, 95, 88, 87, 86, 85, 84, 83, 82, 75, 74, 73, 72, 71, 70, 69, 154, 153, 152, 151, 150, 149, 148, 141, 140, 139, 138, 137, 136, 135, 128, 127, 126, 125, 124, 123, 122, 115, 114, 113, 112, 111, 110, 109, 102, 101, 100, 99, 98, 97, 96, 89, 88, 87, 86, 85, 84, 83, 76, 75, 74, 73, 72, 71, 70, 155, 154, 153, 152, 151, 150, 149, 142, 141, 140, 139, 138, 137, 136, 129, 128, 127, 126, 125, 124, 123, 116, 115, 114, 113, 112, 111, 110, 103, 102, 101, 100, 99, 98, 97, 90, 89, 88, 87, 86, 85, 84, 77, 76, 75, 74, 73, 72, 71, 162, 161, 160, 159, 158, 157, 156, 149, 148, 147, 146, 145, 144, 143, 136, 135, 134, 133, 132, 131, 130, 123, 122, 121, 120, 119, 118, 117, 110, 109, 108, 107, 106, 105, 104, 97, 96, 95, 94, 93, 92, 91, 84, 83, 82, 81, 80, 79, 78, 163, 162, 161, 160, 159, 158, 157, 150, 149, 148, 147, 146, 145, 144, 137, 136, 135, 134, 133, 132, 131, 124, 123, 122, 121, 120, 119, 118, 111, 110, 109, 108, 107, 106, 105, 98, 97, 96, 95, 94, 93, 92, 85, 84, 83, 82, 81, 80, 79, 164, 163, 162, 161, 160, 159, 158, 151, 150, 149, 148, 147, 146, 145, 138, 137, 136, 135, 134, 133, 132, 125, 124, 123, 122, 121, 120, 119, 112, 111, 110, 109, 108, 107, 106, 99, 98, 97, 96, 95, 94, 93, 86, 85, 84, 83, 82, 81, 80, 165, 164, 163, 162, 161, 160, 159, 152, 151, 150, 149, 148, 147, 146, 139, 138, 137, 136, 135, 134, 133, 126, 125, 124, 123, 122, 121, 120, 113, 112, 111, 110, 109, 108, 107, 100, 99, 98, 97, 96, 95, 94, 87, 86, 85, 84, 83, 82, 81, 166, 165, 164, 163, 162, 161, 160, 153, 152, 151, 150, 149, 148, 147, 140, 139, 138, 137, 136, 135, 134, 127, 126, 125, 124, 123, 122, 121, 114, 113, 112, 111, 110, 109, 108, 101, 100, 99, 98, 97, 96, 95, 88, 87, 86, 85, 84, 83, 82, 167, 166, 165, 164, 163, 162, 161, 154, 153, 152, 151, 150, 149, 148, 141, 140, 139, 138, 137, 136, 135, 128, 127, 126, 125, 124, 123, 122, 115, 114, 113, 112, 111, 110, 109, 102, 101, 100, 99, 98, 97, 96, 89, 88, 87, 86, 85, 84, 83, 168, 167, 166, 165, 164, 163, 162, 155, 154, 153, 152, 151, 150, 149, 142, 141, 140, 139, 138, 137, 136, 129, 128, 127, 126, 125, 124, 123, 116, 115, 114, 113, 112, 111, 110, 103, 102, 101, 100, 99, 98, 97, 90, 89, 88, 87, 86, 85, 84], requires_grad=false}:(tensor<2401xf32>) -> tensor<2401xf32>
	%247="ufront.slice"(%245, %246){output_shape=[2401, 4]}:(tensor<169x4xf32>, tensor<2401xf32>) -> tensor<2401x4xf32>
	%248="ufront.reshape"(%247){shape=[49, 49, 4]}:(tensor<2401x4xf32>) -> tensor<49x49x4xf32>
	%249="ufront.transpose"(%248){perms=[2, 0, 1]}:(tensor<49x49x4xf32>) -> tensor<4x49x49xf32>
	%250="ufront.reshape"(%249){shape=[1, 4, 49, 49]}:(tensor<4x49x49xf32>) -> tensor<1x4x49x49xf32>
	%251="ufront.add"(%244, %250):(tensor<1x16x4x49x49xf32>, tensor<1x4x49x49xf32>) -> tensor<1x16x4x49x49xf32>
	%252="ufront.softmax"(%251):(tensor<1x16x4x49x49xf32>) -> tensor<1x16x4x49x49xf32>
	%253="ufront.call"(%252, %242){addargs=[('arg1', 'B G H I J, B G H J D -> B G H I D')], func=einsum}:(tensor<1x16x4x49x49xf32>, tensor<1x16x4x49x32xf32>) -> tensor<1x16x4x49x32xf32>
	%254="ufront.transpose"(%253){perms=[0, 1, 3, 2, 4]}:(tensor<1x16x4x49x32xf32>) -> tensor<1x16x49x4x32xf32>
	%255="ufront.reshape"(%254){shape=[1, 16, 49, 128]}:(tensor<1x16x49x4x32xf32>) -> tensor<1x16x49x128xf32>
	%256="ufront.linear"(%255):(tensor<1x16x49x128xf32>) -> tensor<1x16x49x128xf32>
	%257="ufront.dropout"(%256){rate=0.0, seed=0}:(tensor<1x16x49x128xf32>) -> tensor<1x16x49x128xf32>
	%258="ufront.call"(%257){addargs=[('p', 0.04), ('mode', 'row'), ('training', False)], func=stochastic_depth}:(tensor<1x16x49x128xf32>) -> tensor<1x16x49x128xf32>
	%259="ufront.add"(%231, %258):(tensor<1x16x49x128xf32>, tensor<1x16x49x128xf32>) -> tensor<1x16x49x128xf32>
	%260="ufront.layer_norm"(%259){elementwise_affine=true, eps=0.00001, normalized_shape=[128]}:(tensor<1x16x49x128xf32>) -> tensor<1x16x49x128xf32>
	%261="ufront.linear"(%260):(tensor<1x16x49x128xf32>) -> tensor<1x16x49x512xf32>
	%262="ufront.gelu"(%261):(tensor<1x16x49x512xf32>) -> tensor<1x16x49x512xf32>
	%263="ufront.linear"(%262):(tensor<1x16x49x512xf32>) -> tensor<1x16x49x128xf32>
	%264="ufront.dropout"(%263){rate=0.0, seed=0}:(tensor<1x16x49x128xf32>) -> tensor<1x16x49x128xf32>
	%265="ufront.call"(%264){addargs=[('p', 0.04), ('mode', 'row'), ('training', False)], func=stochastic_depth}:(tensor<1x16x49x128xf32>) -> tensor<1x16x49x128xf32>
	%266="ufront.add"(%259, %265):(tensor<1x16x49x128xf32>, tensor<1x16x49x128xf32>) -> tensor<1x16x49x128xf32>
	%267="ufront.identity"(%266):(tensor<1x16x49x128xf32>) -> tensor<1x16x49x128xf32>
	%268="ufront.reshape"(%267){shape=[1, 4, 4, 7, 7, 128]}:(tensor<1x16x49x128xf32>) -> tensor<1x4x4x7x7x128xf32>
	%269="ufront.transpose"(%268){perms=[0, 5, 1, 3, 2, 4]}:(tensor<1x4x4x7x7x128xf32>) -> tensor<1x128x4x7x4x7xf32>
	%270="ufront.reshape"(%269){shape=[1, 128, 28, 28]}:(tensor<1x128x4x7x4x7xf32>) -> tensor<1x128x28x28xf32>
	%271="ufront.reshape"(%270){shape=[1, 128, 7, 4, 7, 4]}:(tensor<1x128x28x28xf32>) -> tensor<1x128x7x4x7x4xf32>
	%272="ufront.transpose"(%271){perms=[0, 2, 4, 3, 5, 1]}:(tensor<1x128x7x4x7x4xf32>) -> tensor<1x7x7x4x4x128xf32>
	%273="ufront.reshape"(%272){shape=[1, 49, 16, 128]}:(tensor<1x7x7x4x4x128xf32>) -> tensor<1x49x16x128xf32>
	%274="ufront.call"(%273){addargs=[('arg2', -2), ('arg3', -3)], func=swapaxes}:(tensor<1x49x16x128xf32>) -> tensor<1x16x49x128xf32>
	%275="ufront.layer_norm"(%274){elementwise_affine=true, eps=0.00001, normalized_shape=[128]}:(tensor<1x16x49x128xf32>) -> tensor<1x16x49x128xf32>
	%276="ufront.linear"(%275):(tensor<1x16x49x128xf32>) -> tensor<1x16x49x384xf32>
	%277, %278, %279="ufront.chunk"(%276){axis=-1, sizes=3}:(tensor<1x16x49x384xf32>) -> tensor<1x16x49x128xf32>, tensor<1x16x49x128xf32>, tensor<1x16x49x128xf32>
	%280="ufront.reshape"(%277){shape=[1, 16, 49, 4, 32]}:(tensor<1x16x49x128xf32>) -> tensor<1x16x49x4x32xf32>
	%281="ufront.transpose"(%280){perms=[0, 1, 3, 2, 4]}:(tensor<1x16x49x4x32xf32>) -> tensor<1x16x4x49x32xf32>
	%282="ufront.reshape"(%278){shape=[1, 16, 49, 4, 32]}:(tensor<1x16x49x128xf32>) -> tensor<1x16x49x4x32xf32>
	%283="ufront.transpose"(%282){perms=[0, 1, 3, 2, 4]}:(tensor<1x16x49x4x32xf32>) -> tensor<1x16x4x49x32xf32>
	%284="ufront.reshape"(%279){shape=[1, 16, 49, 4, 32]}:(tensor<1x16x49x128xf32>) -> tensor<1x16x49x4x32xf32>
	%285="ufront.transpose"(%284){perms=[0, 1, 3, 2, 4]}:(tensor<1x16x49x4x32xf32>) -> tensor<1x16x4x49x32xf32>
	%286="ufront.smultiply"(%283){scalar=0.08838834764831845}:(tensor<1x16x4x49x32xf32>) -> tensor<1x16x4x49x32xf32>
	%287="ufront.call"(%281, %286){addargs=[('arg1', 'B G H I D, B G H J D -> B G H I J')], func=einsum}:(tensor<1x16x4x49x32xf32>, tensor<1x16x4x49x32xf32>) -> tensor<1x16x4x49x49xf32>
	%288="ufront.parameter"(%288){dtype=DataType.Float, initializer=[[… requires_grad=true}:(tensor<169x4xf32>) -> tensor<169x4xf32>
	%289="ufront.tensor"(%289){dtype=DataType.Int64, initializer=[84, 83, 82, 81, 80, 79, 78, 71, 70, 69, 68, 67, 66, 65, 58, 57, 56, 55, 54, 53, 52, 45, 44, 43, 42, 41, 40, 39, 32, 31, 30, 29, 28, 27, 26, 19, 18, 17, 16, 15, 14, 13, 6, 5, 4, 3, 2, 1, 0, 85, 84, 83, 82, 81, 80, 79, 72, 71, 70, 69, 68, 67, 66, 59, 58, 57, 56, 55, 54, 53, 46, 45, 44, 43, 42, 41, 40, 33, 32, 31, 30, 29, 28, 27, 20, 19, 18, 17, 16, 15, 14, 7, 6, 5, 4, 3, 2, 1, 86, 85, 84, 83, 82, 81, 80, 73, 72, 71, 70, 69, 68, 67, 60, 59, 58, 57, 56, 55, 54, 47, 46, 45, 44, 43, 42, 41, 34, 33, 32, 31, 30, 29, 28, 21, 20, 19, 18, 17, 16, 15, 8, 7, 6, 5, 4, 3, 2, 87, 86, 85, 84, 83, 82, 81, 74, 73, 72, 71, 70, 69, 68, 61, 60, 59, 58, 57, 56, 55, 48, 47, 46, 45, 44, 43, 42, 35, 34, 33, 32, 31, 30, 29, 22, 21, 20, 19, 18, 17, 16, 9, 8, 7, 6, 5, 4, 3, 88, 87, 86, 85, 84, 83, 82, 75, 74, 73, 72, 71, 70, 69, 62, 61, 60, 59, 58, 57, 56, 49, 48, 47, 46, 45, 44, 43, 36, 35, 34, 33, 32, 31, 30, 23, 22, 21, 20, 19, 18, 17, 10, 9, 8, 7, 6, 5, 4, 89, 88, 87, 86, 85, 84, 83, 76, 75, 74, 73, 72, 71, 70, 63, 62, 61, 60, 59, 58, 57, 50, 49, 48, 47, 46, 45, 44, 37, 36, 35, 34, 33, 32, 31, 24, 23, 22, 21, 20, 19, 18, 11, 10, 9, 8, 7, 6, 5, 90, 89, 88, 87, 86, 85, 84, 77, 76, 75, 74, 73, 72, 71, 64, 63, 62, 61, 60, 59, 58, 51, 50, 49, 48, 47, 46, 45, 38, 37, 36, 35, 34, 33, 32, 25, 24, 23, 22, 21, 20, 19, 12, 11, 10, 9, 8, 7, 6, 97, 96, 95, 94, 93, 92, 91, 84, 83, 82, 81, 80, 79, 78, 71, 70, 69, 68, 67, 66, 65, 58, 57, 56, 55, 54, 53, 52, 45, 44, 43, 42, 41, 40, 39, 32, 31, 30, 29, 28, 27, 26, 19, 18, 17, 16, 15, 14, 13, 98, 97, 96, 95, 94, 93, 92, 85, 84, 83, 82, 81, 80, 79, 72, 71, 70, 69, 68, 67, 66, 59, 58, 57, 56, 55, 54, 53, 46, 45, 44, 43, 42, 41, 40, 33, 32, 31, 30, 29, 28, 27, 20, 19, 18, 17, 16, 15, 14, 99, 98, 97, 96, 95, 94, 93, 86, 85, 84, 83, 82, 81, 80, 73, 72, 71, 70, 69, 68, 67, 60, 59, 58, 57, 56, 55, 54, 47, 46, 45, 44, 43, 42, 41, 34, 33, 32, 31, 30, 29, 28, 21, 20, 19, 18, 17, 16, 15, 100, 99, 98, 97, 96, 95, 94, 87, 86, 85, 84, 83, 82, 81, 74, 73, 72, 71, 70, 69, 68, 61, 60, 59, 58, 57, 56, 55, 48, 47, 46, 45, 44, 43, 42, 35, 34, 33, 32, 31, 30, 29, 22, 21, 20, 19, 18, 17, 16, 101, 100, 99, 98, 97, 96, 95, 88, 87, 86, 85, 84, 83, 82, 75, 74, 73, 72, 71, 70, 69, 62, 61, 60, 59, 58, 57, 56, 49, 48, 47, 46, 45, 44, 43, 36, 35, 34, 33, 32, 31, 30, 23, 22, 21, 20, 19, 18, 17, 102, 101, 100, 99, 98, 97, 96, 89, 88, 87, 86, 85, 84, 83, 76, 75, 74, 73, 72, 71, 70, 63, 62, 61, 60, 59, 58, 57, 50, 49, 48, 47, 46, 45, 44, 37, 36, 35, 34, 33, 32, 31, 24, 23, 22, 21, 20, 19, 18, 103, 102, 101, 100, 99, 98, 97, 90, 89, 88, 87, 86, 85, 84, 77, 76, 75, 74, 73, 72, 71, 64, 63, 62, 61, 60, 59, 58, 51, 50, 49, 48, 47, 46, 45, 38, 37, 36, 35, 34, 33, 32, 25, 24, 23, 22, 21, 20, 19, 110, 109, 108, 107, 106, 105, 104, 97, 96, 95, 94, 93, 92, 91, 84, 83, 82, 81, 80, 79, 78, 71, 70, 69, 68, 67, 66, 65, 58, 57, 56, 55, 54, 53, 52, 45, 44, 43, 42, 41, 40, 39, 32, 31, 30, 29, 28, 27, 26, 111, 110, 109, 108, 107, 106, 105, 98, 97, 96, 95, 94, 93, 92, 85, 84, 83, 82, 81, 80, 79, 72, 71, 70, 69, 68, 67, 66, 59, 58, 57, 56, 55, 54, 53, 46, 45, 44, 43, 42, 41, 40, 33, 32, 31, 30, 29, 28, 27, 112, 111, 110, 109, 108, 107, 106, 99, 98, 97, 96, 95, 94, 93, 86, 85, 84, 83, 82, 81, 80, 73, 72, 71, 70, 69, 68, 67, 60, 59, 58, 57, 56, 55, 54, 47, 46, 45, 44, 43, 42, 41, 34, 33, 32, 31, 30, 29, 28, 113, 112, 111, 110, 109, 108, 107, 100, 99, 98, 97, 96, 95, 94, 87, 86, 85, 84, 83, 82, 81, 74, 73, 72, 71, 70, 69, 68, 61, 60, 59, 58, 57, 56, 55, 48, 47, 46, 45, 44, 43, 42, 35, 34, 33, 32, 31, 30, 29, 114, 113, 112, 111, 110, 109, 108, 101, 100, 99, 98, 97, 96, 95, 88, 87, 86, 85, 84, 83, 82, 75, 74, 73, 72, 71, 70, 69, 62, 61, 60, 59, 58, 57, 56, 49, 48, 47, 46, 45, 44, 43, 36, 35, 34, 33, 32, 31, 30, 115, 114, 113, 112, 111, 110, 109, 102, 101, 100, 99, 98, 97, 96, 89, 88, 87, 86, 85, 84, 83, 76, 75, 74, 73, 72, 71, 70, 63, 62, 61, 60, 59, 58, 57, 50, 49, 48, 47, 46, 45, 44, 37, 36, 35, 34, 33, 32, 31, 116, 115, 114, 113, 112, 111, 110, 103, 102, 101, 100, 99, 98, 97, 90, 89, 88, 87, 86, 85, 84, 77, 76, 75, 74, 73, 72, 71, 64, 63, 62, 61, 60, 59, 58, 51, 50, 49, 48, 47, 46, 45, 38, 37, 36, 35, 34, 33, 32, 123, 122, 121, 120, 119, 118, 117, 110, 109, 108, 107, 106, 105, 104, 97, 96, 95, 94, 93, 92, 91, 84, 83, 82, 81, 80, 79, 78, 71, 70, 69, 68, 67, 66, 65, 58, 57, 56, 55, 54, 53, 52, 45, 44, 43, 42, 41, 40, 39, 124, 123, 122, 121, 120, 119, 118, 111, 110, 109, 108, 107, 106, 105, 98, 97, 96, 95, 94, 93, 92, 85, 84, 83, 82, 81, 80, 79, 72, 71, 70, 69, 68, 67, 66, 59, 58, 57, 56, 55, 54, 53, 46, 45, 44, 43, 42, 41, 40, 125, 124, 123, 122, 121, 120, 119, 112, 111, 110, 109, 108, 107, 106, 99, 98, 97, 96, 95, 94, 93, 86, 85, 84, 83, 82, 81, 80, 73, 72, 71, 70, 69, 68, 67, 60, 59, 58, 57, 56, 55, 54, 47, 46, 45, 44, 43, 42, 41, 126, 125, 124, 123, 122, 121, 120, 113, 112, 111, 110, 109, 108, 107, 100, 99, 98, 97, 96, 95, 94, 87, 86, 85, 84, 83, 82, 81, 74, 73, 72, 71, 70, 69, 68, 61, 60, 59, 58, 57, 56, 55, 48, 47, 46, 45, 44, 43, 42, 127, 126, 125, 124, 123, 122, 121, 114, 113, 112, 111, 110, 109, 108, 101, 100, 99, 98, 97, 96, 95, 88, 87, 86, 85, 84, 83, 82, 75, 74, 73, 72, 71, 70, 69, 62, 61, 60, 59, 58, 57, 56, 49, 48, 47, 46, 45, 44, 43, 128, 127, 126, 125, 124, 123, 122, 115, 114, 113, 112, 111, 110, 109, 102, 101, 100, 99, 98, 97, 96, 89, 88, 87, 86, 85, 84, 83, 76, 75, 74, 73, 72, 71, 70, 63, 62, 61, 60, 59, 58, 57, 50, 49, 48, 47, 46, 45, 44, 129, 128, 127, 126, 125, 124, 123, 116, 115, 114, 113, 112, 111, 110, 103, 102, 101, 100, 99, 98, 97, 90, 89, 88, 87, 86, 85, 84, 77, 76, 75, 74, 73, 72, 71, 64, 63, 62, 61, 60, 59, 58, 51, 50, 49, 48, 47, 46, 45, 136, 135, 134, 133, 132, 131, 130, 123, 122, 121, 120, 119, 118, 117, 110, 109, 108, 107, 106, 105, 104, 97, 96, 95, 94, 93, 92, 91, 84, 83, 82, 81, 80, 79, 78, 71, 70, 69, 68, 67, 66, 65, 58, 57, 56, 55, 54, 53, 52, 137, 136, 135, 134, 133, 132, 131, 124, 123, 122, 121, 120, 119, 118, 111, 110, 109, 108, 107, 106, 105, 98, 97, 96, 95, 94, 93, 92, 85, 84, 83, 82, 81, 80, 79, 72, 71, 70, 69, 68, 67, 66, 59, 58, 57, 56, 55, 54, 53, 138, 137, 136, 135, 134, 133, 132, 125, 124, 123, 122, 121, 120, 119, 112, 111, 110, 109, 108, 107, 106, 99, 98, 97, 96, 95, 94, 93, 86, 85, 84, 83, 82, 81, 80, 73, 72, 71, 70, 69, 68, 67, 60, 59, 58, 57, 56, 55, 54, 139, 138, 137, 136, 135, 134, 133, 126, 125, 124, 123, 122, 121, 120, 113, 112, 111, 110, 109, 108, 107, 100, 99, 98, 97, 96, 95, 94, 87, 86, 85, 84, 83, 82, 81, 74, 73, 72, 71, 70, 69, 68, 61, 60, 59, 58, 57, 56, 55, 140, 139, 138, 137, 136, 135, 134, 127, 126, 125, 124, 123, 122, 121, 114, 113, 112, 111, 110, 109, 108, 101, 100, 99, 98, 97, 96, 95, 88, 87, 86, 85, 84, 83, 82, 75, 74, 73, 72, 71, 70, 69, 62, 61, 60, 59, 58, 57, 56, 141, 140, 139, 138, 137, 136, 135, 128, 127, 126, 125, 124, 123, 122, 115, 114, 113, 112, 111, 110, 109, 102, 101, 100, 99, 98, 97, 96, 89, 88, 87, 86, 85, 84, 83, 76, 75, 74, 73, 72, 71, 70, 63, 62, 61, 60, 59, 58, 57, 142, 141, 140, 139, 138, 137, 136, 129, 128, 127, 126, 125, 124, 123, 116, 115, 114, 113, 112, 111, 110, 103, 102, 101, 100, 99, 98, 97, 90, 89, 88, 87, 86, 85, 84, 77, 76, 75, 74, 73, 72, 71, 64, 63, 62, 61, 60, 59, 58, 149, 148, 147, 146, 145, 144, 143, 136, 135, 134, 133, 132, 131, 130, 123, 122, 121, 120, 119, 118, 117, 110, 109, 108, 107, 106, 105, 104, 97, 96, 95, 94, 93, 92, 91, 84, 83, 82, 81, 80, 79, 78, 71, 70, 69, 68, 67, 66, 65, 150, 149, 148, 147, 146, 145, 144, 137, 136, 135, 134, 133, 132, 131, 124, 123, 122, 121, 120, 119, 118, 111, 110, 109, 108, 107, 106, 105, 98, 97, 96, 95, 94, 93, 92, 85, 84, 83, 82, 81, 80, 79, 72, 71, 70, 69, 68, 67, 66, 151, 150, 149, 148, 147, 146, 145, 138, 137, 136, 135, 134, 133, 132, 125, 124, 123, 122, 121, 120, 119, 112, 111, 110, 109, 108, 107, 106, 99, 98, 97, 96, 95, 94, 93, 86, 85, 84, 83, 82, 81, 80, 73, 72, 71, 70, 69, 68, 67, 152, 151, 150, 149, 148, 147, 146, 139, 138, 137, 136, 135, 134, 133, 126, 125, 124, 123, 122, 121, 120, 113, 112, 111, 110, 109, 108, 107, 100, 99, 98, 97, 96, 95, 94, 87, 86, 85, 84, 83, 82, 81, 74, 73, 72, 71, 70, 69, 68, 153, 152, 151, 150, 149, 148, 147, 140, 139, 138, 137, 136, 135, 134, 127, 126, 125, 124, 123, 122, 121, 114, 113, 112, 111, 110, 109, 108, 101, 100, 99, 98, 97, 96, 95, 88, 87, 86, 85, 84, 83, 82, 75, 74, 73, 72, 71, 70, 69, 154, 153, 152, 151, 150, 149, 148, 141, 140, 139, 138, 137, 136, 135, 128, 127, 126, 125, 124, 123, 122, 115, 114, 113, 112, 111, 110, 109, 102, 101, 100, 99, 98, 97, 96, 89, 88, 87, 86, 85, 84, 83, 76, 75, 74, 73, 72, 71, 70, 155, 154, 153, 152, 151, 150, 149, 142, 141, 140, 139, 138, 137, 136, 129, 128, 127, 126, 125, 124, 123, 116, 115, 114, 113, 112, 111, 110, 103, 102, 101, 100, 99, 98, 97, 90, 89, 88, 87, 86, 85, 84, 77, 76, 75, 74, 73, 72, 71, 162, 161, 160, 159, 158, 157, 156, 149, 148, 147, 146, 145, 144, 143, 136, 135, 134, 133, 132, 131, 130, 123, 122, 121, 120, 119, 118, 117, 110, 109, 108, 107, 106, 105, 104, 97, 96, 95, 94, 93, 92, 91, 84, 83, 82, 81, 80, 79, 78, 163, 162, 161, 160, 159, 158, 157, 150, 149, 148, 147, 146, 145, 144, 137, 136, 135, 134, 133, 132, 131, 124, 123, 122, 121, 120, 119, 118, 111, 110, 109, 108, 107, 106, 105, 98, 97, 96, 95, 94, 93, 92, 85, 84, 83, 82, 81, 80, 79, 164, 163, 162, 161, 160, 159, 158, 151, 150, 149, 148, 147, 146, 145, 138, 137, 136, 135, 134, 133, 132, 125, 124, 123, 122, 121, 120, 119, 112, 111, 110, 109, 108, 107, 106, 99, 98, 97, 96, 95, 94, 93, 86, 85, 84, 83, 82, 81, 80, 165, 164, 163, 162, 161, 160, 159, 152, 151, 150, 149, 148, 147, 146, 139, 138, 137, 136, 135, 134, 133, 126, 125, 124, 123, 122, 121, 120, 113, 112, 111, 110, 109, 108, 107, 100, 99, 98, 97, 96, 95, 94, 87, 86, 85, 84, 83, 82, 81, 166, 165, 164, 163, 162, 161, 160, 153, 152, 151, 150, 149, 148, 147, 140, 139, 138, 137, 136, 135, 134, 127, 126, 125, 124, 123, 122, 121, 114, 113, 112, 111, 110, 109, 108, 101, 100, 99, 98, 97, 96, 95, 88, 87, 86, 85, 84, 83, 82, 167, 166, 165, 164, 163, 162, 161, 154, 153, 152, 151, 150, 149, 148, 141, 140, 139, 138, 137, 136, 135, 128, 127, 126, 125, 124, 123, 122, 115, 114, 113, 112, 111, 110, 109, 102, 101, 100, 99, 98, 97, 96, 89, 88, 87, 86, 85, 84, 83, 168, 167, 166, 165, 164, 163, 162, 155, 154, 153, 152, 151, 150, 149, 142, 141, 140, 139, 138, 137, 136, 129, 128, 127, 126, 125, 124, 123, 116, 115, 114, 113, 112, 111, 110, 103, 102, 101, 100, 99, 98, 97, 90, 89, 88, 87, 86, 85, 84], requires_grad=false}:(tensor<2401xf32>) -> tensor<2401xf32>
	%290="ufront.slice"(%288, %289){output_shape=[2401, 4]}:(tensor<169x4xf32>, tensor<2401xf32>) -> tensor<2401x4xf32>
	%291="ufront.reshape"(%290){shape=[49, 49, 4]}:(tensor<2401x4xf32>) -> tensor<49x49x4xf32>
	%292="ufront.transpose"(%291){perms=[2, 0, 1]}:(tensor<49x49x4xf32>) -> tensor<4x49x49xf32>
	%293="ufront.reshape"(%292){shape=[1, 4, 49, 49]}:(tensor<4x49x49xf32>) -> tensor<1x4x49x49xf32>
	%294="ufront.add"(%287, %293):(tensor<1x16x4x49x49xf32>, tensor<1x4x49x49xf32>) -> tensor<1x16x4x49x49xf32>
	%295="ufront.softmax"(%294):(tensor<1x16x4x49x49xf32>) -> tensor<1x16x4x49x49xf32>
	%296="ufront.call"(%295, %285){addargs=[('arg1', 'B G H I J, B G H J D -> B G H I D')], func=einsum}:(tensor<1x16x4x49x49xf32>, tensor<1x16x4x49x32xf32>) -> tensor<1x16x4x49x32xf32>
	%297="ufront.transpose"(%296){perms=[0, 1, 3, 2, 4]}:(tensor<1x16x4x49x32xf32>) -> tensor<1x16x49x4x32xf32>
	%298="ufront.reshape"(%297){shape=[1, 16, 49, 128]}:(tensor<1x16x49x4x32xf32>) -> tensor<1x16x49x128xf32>
	%299="ufront.linear"(%298):(tensor<1x16x49x128xf32>) -> tensor<1x16x49x128xf32>
	%300="ufront.dropout"(%299){rate=0.0, seed=0}:(tensor<1x16x49x128xf32>) -> tensor<1x16x49x128xf32>
	%301="ufront.call"(%300){addargs=[('p', 0.04), ('mode', 'row'), ('training', False)], func=stochastic_depth}:(tensor<1x16x49x128xf32>) -> tensor<1x16x49x128xf32>
	%302="ufront.add"(%274, %301):(tensor<1x16x49x128xf32>, tensor<1x16x49x128xf32>) -> tensor<1x16x49x128xf32>
	%303="ufront.layer_norm"(%302){elementwise_affine=true, eps=0.00001, normalized_shape=[128]}:(tensor<1x16x49x128xf32>) -> tensor<1x16x49x128xf32>
	%304="ufront.linear"(%303):(tensor<1x16x49x128xf32>) -> tensor<1x16x49x512xf32>
	%305="ufront.gelu"(%304):(tensor<1x16x49x512xf32>) -> tensor<1x16x49x512xf32>
	%306="ufront.linear"(%305):(tensor<1x16x49x512xf32>) -> tensor<1x16x49x128xf32>
	%307="ufront.dropout"(%306){rate=0.0, seed=0}:(tensor<1x16x49x128xf32>) -> tensor<1x16x49x128xf32>
	%308="ufront.call"(%307){addargs=[('p', 0.04), ('mode', 'row'), ('training', False)], func=stochastic_depth}:(tensor<1x16x49x128xf32>) -> tensor<1x16x49x128xf32>
	%309="ufront.add"(%302, %308):(tensor<1x16x49x128xf32>, tensor<1x16x49x128xf32>) -> tensor<1x16x49x128xf32>
	%310="ufront.call"(%309){addargs=[('arg2', -2), ('arg3', -3)], func=swapaxes}:(tensor<1x16x49x128xf32>) -> tensor<1x49x16x128xf32>
	%311="ufront.reshape"(%310){shape=[1, 7, 7, 4, 4, 128]}:(tensor<1x49x16x128xf32>) -> tensor<1x7x7x4x4x128xf32>
	%312="ufront.transpose"(%311){perms=[0, 5, 1, 3, 2, 4]}:(tensor<1x7x7x4x4x128xf32>) -> tensor<1x128x7x4x7x4xf32>
	%313="ufront.reshape"(%312){shape=[1, 128, 28, 28]}:(tensor<1x128x7x4x7x4xf32>) -> tensor<1x128x28x28xf32>
	%314="ufront.identity"(%313):(tensor<1x128x28x28xf32>) -> tensor<1x128x28x28xf32>
	%315="ufront.batchnorm"(%313){affine=true, eps=0.001, momentum=0.99, track_running_stats=true}:(tensor<1x128x28x28xf32>) -> tensor<1x128x28x28xf32>
	%316="ufront.conv2d"(%315){groups=1, kernel=[1, 1], pad=[0, 0], stride=[1, 1]}:(tensor<1x128x28x28xf32>) -> tensor<1x512x28x28xf32>
	%317="ufront.batchnorm"(%316){affine=true, eps=0.001, momentum=0.99, track_running_stats=true}:(tensor<1x512x28x28xf32>) -> tensor<1x512x28x28xf32>
	%318="ufront.gelu"(%317):(tensor<1x512x28x28xf32>) -> tensor<1x512x28x28xf32>
	%319="ufront.conv2d"(%318){groups=512, kernel=[3, 3], pad=[1, 1], stride=[1, 1]}:(tensor<1x512x28x28xf32>) -> tensor<1x512x28x28xf32>
	%320="ufront.batchnorm"(%319){affine=true, eps=0.001, momentum=0.99, track_running_stats=true}:(tensor<1x512x28x28xf32>) -> tensor<1x512x28x28xf32>
	%321="ufront.gelu"(%320):(tensor<1x512x28x28xf32>) -> tensor<1x512x28x28xf32>
	%322="ufront.pool2d"(%321){output_size=[1, 1], pool_type="POOL_ADAPTIVE"}:(tensor<1x512x28x28xf32>) -> tensor<1x512x1x1xf32>
	%323="ufront.conv2d"(%322){groups=1, kernel=[1, 1], pad=[0, 0], stride=[1, 1]}:(tensor<1x512x1x1xf32>) -> tensor<1x32x1x1xf32>
	%324="ufront.silu"(%323):(tensor<1x32x1x1xf32>) -> tensor<1x32x1x1xf32>
	%325="ufront.conv2d"(%324){groups=1, kernel=[1, 1], pad=[0, 0], stride=[1, 1]}:(tensor<1x32x1x1xf32>) -> tensor<1x512x1x1xf32>
	%326="ufront.sigmoid"(%325):(tensor<1x512x1x1xf32>) -> tensor<1x512x1x1xf32>
	%327="ufront.multiply"(%326, %321):(tensor<1x512x1x1xf32>, tensor<1x512x28x28xf32>) -> tensor<1x512x28x28xf32>
	%328="ufront.conv2d"(%327){groups=1, kernel=[1, 1], pad=[0, 0], stride=[1, 1]}:(tensor<1x512x28x28xf32>) -> tensor<1x128x28x28xf32>
	%329="ufront.call"(%328){addargs=[('p', 0.06), ('mode', 'row'), ('training', False)], func=stochastic_depth}:(tensor<1x128x28x28xf32>) -> tensor<1x128x28x28xf32>
	%330="ufront.add"(%314, %329):(tensor<1x128x28x28xf32>, tensor<1x128x28x28xf32>) -> tensor<1x128x28x28xf32>
	%331="ufront.reshape"(%330){shape=[1, 128, 4, 7, 4, 7]}:(tensor<1x128x28x28xf32>) -> tensor<1x128x4x7x4x7xf32>
	%332="ufront.transpose"(%331){perms=[0, 2, 4, 3, 5, 1]}:(tensor<1x128x4x7x4x7xf32>) -> tensor<1x4x4x7x7x128xf32>
	%333="ufront.reshape"(%332){shape=[1, 16, 49, 128]}:(tensor<1x4x4x7x7x128xf32>) -> tensor<1x16x49x128xf32>
	%334="ufront.identity"(%333):(tensor<1x16x49x128xf32>) -> tensor<1x16x49x128xf32>
	%335="ufront.layer_norm"(%334){elementwise_affine=true, eps=0.00001, normalized_shape=[128]}:(tensor<1x16x49x128xf32>) -> tensor<1x16x49x128xf32>
	%336="ufront.linear"(%335):(tensor<1x16x49x128xf32>) -> tensor<1x16x49x384xf32>
	%337, %338, %339="ufront.chunk"(%336){axis=-1, sizes=3}:(tensor<1x16x49x384xf32>) -> tensor<1x16x49x128xf32>, tensor<1x16x49x128xf32>, tensor<1x16x49x128xf32>
	%340="ufront.reshape"(%337){shape=[1, 16, 49, 4, 32]}:(tensor<1x16x49x128xf32>) -> tensor<1x16x49x4x32xf32>
	%341="ufront.transpose"(%340){perms=[0, 1, 3, 2, 4]}:(tensor<1x16x49x4x32xf32>) -> tensor<1x16x4x49x32xf32>
	%342="ufront.reshape"(%338){shape=[1, 16, 49, 4, 32]}:(tensor<1x16x49x128xf32>) -> tensor<1x16x49x4x32xf32>
	%343="ufront.transpose"(%342){perms=[0, 1, 3, 2, 4]}:(tensor<1x16x49x4x32xf32>) -> tensor<1x16x4x49x32xf32>
	%344="ufront.reshape"(%339){shape=[1, 16, 49, 4, 32]}:(tensor<1x16x49x128xf32>) -> tensor<1x16x49x4x32xf32>
	%345="ufront.transpose"(%344){perms=[0, 1, 3, 2, 4]}:(tensor<1x16x49x4x32xf32>) -> tensor<1x16x4x49x32xf32>
	%346="ufront.smultiply"(%343){scalar=0.08838834764831845}:(tensor<1x16x4x49x32xf32>) -> tensor<1x16x4x49x32xf32>
	%347="ufront.call"(%341, %346){addargs=[('arg1', 'B G H I D, B G H J D -> B G H I J')], func=einsum}:(tensor<1x16x4x49x32xf32>, tensor<1x16x4x49x32xf32>) -> tensor<1x16x4x49x49xf32>
	%348="ufront.parameter"(%348){dtype=DataType.Float, initializer=[[… requires_grad=true}:(tensor<169x4xf32>) -> tensor<169x4xf32>
	%349="ufront.tensor"(%349){dtype=DataType.Int64, initializer=[84, 83, 82, 81, 80, 79, 78, 71, 70, 69, 68, 67, 66, 65, 58, 57, 56, 55, 54, 53, 52, 45, 44, 43, 42, 41, 40, 39, 32, 31, 30, 29, 28, 27, 26, 19, 18, 17, 16, 15, 14, 13, 6, 5, 4, 3, 2, 1, 0, 85, 84, 83, 82, 81, 80, 79, 72, 71, 70, 69, 68, 67, 66, 59, 58, 57, 56, 55, 54, 53, 46, 45, 44, 43, 42, 41, 40, 33, 32, 31, 30, 29, 28, 27, 20, 19, 18, 17, 16, 15, 14, 7, 6, 5, 4, 3, 2, 1, 86, 85, 84, 83, 82, 81, 80, 73, 72, 71, 70, 69, 68, 67, 60, 59, 58, 57, 56, 55, 54, 47, 46, 45, 44, 43, 42, 41, 34, 33, 32, 31, 30, 29, 28, 21, 20, 19, 18, 17, 16, 15, 8, 7, 6, 5, 4, 3, 2, 87, 86, 85, 84, 83, 82, 81, 74, 73, 72, 71, 70, 69, 68, 61, 60, 59, 58, 57, 56, 55, 48, 47, 46, 45, 44, 43, 42, 35, 34, 33, 32, 31, 30, 29, 22, 21, 20, 19, 18, 17, 16, 9, 8, 7, 6, 5, 4, 3, 88, 87, 86, 85, 84, 83, 82, 75, 74, 73, 72, 71, 70, 69, 62, 61, 60, 59, 58, 57, 56, 49, 48, 47, 46, 45, 44, 43, 36, 35, 34, 33, 32, 31, 30, 23, 22, 21, 20, 19, 18, 17, 10, 9, 8, 7, 6, 5, 4, 89, 88, 87, 86, 85, 84, 83, 76, 75, 74, 73, 72, 71, 70, 63, 62, 61, 60, 59, 58, 57, 50, 49, 48, 47, 46, 45, 44, 37, 36, 35, 34, 33, 32, 31, 24, 23, 22, 21, 20, 19, 18, 11, 10, 9, 8, 7, 6, 5, 90, 89, 88, 87, 86, 85, 84, 77, 76, 75, 74, 73, 72, 71, 64, 63, 62, 61, 60, 59, 58, 51, 50, 49, 48, 47, 46, 45, 38, 37, 36, 35, 34, 33, 32, 25, 24, 23, 22, 21, 20, 19, 12, 11, 10, 9, 8, 7, 6, 97, 96, 95, 94, 93, 92, 91, 84, 83, 82, 81, 80, 79, 78, 71, 70, 69, 68, 67, 66, 65, 58, 57, 56, 55, 54, 53, 52, 45, 44, 43, 42, 41, 40, 39, 32, 31, 30, 29, 28, 27, 26, 19, 18, 17, 16, 15, 14, 13, 98, 97, 96, 95, 94, 93, 92, 85, 84, 83, 82, 81, 80, 79, 72, 71, 70, 69, 68, 67, 66, 59, 58, 57, 56, 55, 54, 53, 46, 45, 44, 43, 42, 41, 40, 33, 32, 31, 30, 29, 28, 27, 20, 19, 18, 17, 16, 15, 14, 99, 98, 97, 96, 95, 94, 93, 86, 85, 84, 83, 82, 81, 80, 73, 72, 71, 70, 69, 68, 67, 60, 59, 58, 57, 56, 55, 54, 47, 46, 45, 44, 43, 42, 41, 34, 33, 32, 31, 30, 29, 28, 21, 20, 19, 18, 17, 16, 15, 100, 99, 98, 97, 96, 95, 94, 87, 86, 85, 84, 83, 82, 81, 74, 73, 72, 71, 70, 69, 68, 61, 60, 59, 58, 57, 56, 55, 48, 47, 46, 45, 44, 43, 42, 35, 34, 33, 32, 31, 30, 29, 22, 21, 20, 19, 18, 17, 16, 101, 100, 99, 98, 97, 96, 95, 88, 87, 86, 85, 84, 83, 82, 75, 74, 73, 72, 71, 70, 69, 62, 61, 60, 59, 58, 57, 56, 49, 48, 47, 46, 45, 44, 43, 36, 35, 34, 33, 32, 31, 30, 23, 22, 21, 20, 19, 18, 17, 102, 101, 100, 99, 98, 97, 96, 89, 88, 87, 86, 85, 84, 83, 76, 75, 74, 73, 72, 71, 70, 63, 62, 61, 60, 59, 58, 57, 50, 49, 48, 47, 46, 45, 44, 37, 36, 35, 34, 33, 32, 31, 24, 23, 22, 21, 20, 19, 18, 103, 102, 101, 100, 99, 98, 97, 90, 89, 88, 87, 86, 85, 84, 77, 76, 75, 74, 73, 72, 71, 64, 63, 62, 61, 60, 59, 58, 51, 50, 49, 48, 47, 46, 45, 38, 37, 36, 35, 34, 33, 32, 25, 24, 23, 22, 21, 20, 19, 110, 109, 108, 107, 106, 105, 104, 97, 96, 95, 94, 93, 92, 91, 84, 83, 82, 81, 80, 79, 78, 71, 70, 69, 68, 67, 66, 65, 58, 57, 56, 55, 54, 53, 52, 45, 44, 43, 42, 41, 40, 39, 32, 31, 30, 29, 28, 27, 26, 111, 110, 109, 108, 107, 106, 105, 98, 97, 96, 95, 94, 93, 92, 85, 84, 83, 82, 81, 80, 79, 72, 71, 70, 69, 68, 67, 66, 59, 58, 57, 56, 55, 54, 53, 46, 45, 44, 43, 42, 41, 40, 33, 32, 31, 30, 29, 28, 27, 112, 111, 110, 109, 108, 107, 106, 99, 98, 97, 96, 95, 94, 93, 86, 85, 84, 83, 82, 81, 80, 73, 72, 71, 70, 69, 68, 67, 60, 59, 58, 57, 56, 55, 54, 47, 46, 45, 44, 43, 42, 41, 34, 33, 32, 31, 30, 29, 28, 113, 112, 111, 110, 109, 108, 107, 100, 99, 98, 97, 96, 95, 94, 87, 86, 85, 84, 83, 82, 81, 74, 73, 72, 71, 70, 69, 68, 61, 60, 59, 58, 57, 56, 55, 48, 47, 46, 45, 44, 43, 42, 35, 34, 33, 32, 31, 30, 29, 114, 113, 112, 111, 110, 109, 108, 101, 100, 99, 98, 97, 96, 95, 88, 87, 86, 85, 84, 83, 82, 75, 74, 73, 72, 71, 70, 69, 62, 61, 60, 59, 58, 57, 56, 49, 48, 47, 46, 45, 44, 43, 36, 35, 34, 33, 32, 31, 30, 115, 114, 113, 112, 111, 110, 109, 102, 101, 100, 99, 98, 97, 96, 89, 88, 87, 86, 85, 84, 83, 76, 75, 74, 73, 72, 71, 70, 63, 62, 61, 60, 59, 58, 57, 50, 49, 48, 47, 46, 45, 44, 37, 36, 35, 34, 33, 32, 31, 116, 115, 114, 113, 112, 111, 110, 103, 102, 101, 100, 99, 98, 97, 90, 89, 88, 87, 86, 85, 84, 77, 76, 75, 74, 73, 72, 71, 64, 63, 62, 61, 60, 59, 58, 51, 50, 49, 48, 47, 46, 45, 38, 37, 36, 35, 34, 33, 32, 123, 122, 121, 120, 119, 118, 117, 110, 109, 108, 107, 106, 105, 104, 97, 96, 95, 94, 93, 92, 91, 84, 83, 82, 81, 80, 79, 78, 71, 70, 69, 68, 67, 66, 65, 58, 57, 56, 55, 54, 53, 52, 45, 44, 43, 42, 41, 40, 39, 124, 123, 122, 121, 120, 119, 118, 111, 110, 109, 108, 107, 106, 105, 98, 97, 96, 95, 94, 93, 92, 85, 84, 83, 82, 81, 80, 79, 72, 71, 70, 69, 68, 67, 66, 59, 58, 57, 56, 55, 54, 53, 46, 45, 44, 43, 42, 41, 40, 125, 124, 123, 122, 121, 120, 119, 112, 111, 110, 109, 108, 107, 106, 99, 98, 97, 96, 95, 94, 93, 86, 85, 84, 83, 82, 81, 80, 73, 72, 71, 70, 69, 68, 67, 60, 59, 58, 57, 56, 55, 54, 47, 46, 45, 44, 43, 42, 41, 126, 125, 124, 123, 122, 121, 120, 113, 112, 111, 110, 109, 108, 107, 100, 99, 98, 97, 96, 95, 94, 87, 86, 85, 84, 83, 82, 81, 74, 73, 72, 71, 70, 69, 68, 61, 60, 59, 58, 57, 56, 55, 48, 47, 46, 45, 44, 43, 42, 127, 126, 125, 124, 123, 122, 121, 114, 113, 112, 111, 110, 109, 108, 101, 100, 99, 98, 97, 96, 95, 88, 87, 86, 85, 84, 83, 82, 75, 74, 73, 72, 71, 70, 69, 62, 61, 60, 59, 58, 57, 56, 49, 48, 47, 46, 45, 44, 43, 128, 127, 126, 125, 124, 123, 122, 115, 114, 113, 112, 111, 110, 109, 102, 101, 100, 99, 98, 97, 96, 89, 88, 87, 86, 85, 84, 83, 76, 75, 74, 73, 72, 71, 70, 63, 62, 61, 60, 59, 58, 57, 50, 49, 48, 47, 46, 45, 44, 129, 128, 127, 126, 125, 124, 123, 116, 115, 114, 113, 112, 111, 110, 103, 102, 101, 100, 99, 98, 97, 90, 89, 88, 87, 86, 85, 84, 77, 76, 75, 74, 73, 72, 71, 64, 63, 62, 61, 60, 59, 58, 51, 50, 49, 48, 47, 46, 45, 136, 135, 134, 133, 132, 131, 130, 123, 122, 121, 120, 119, 118, 117, 110, 109, 108, 107, 106, 105, 104, 97, 96, 95, 94, 93, 92, 91, 84, 83, 82, 81, 80, 79, 78, 71, 70, 69, 68, 67, 66, 65, 58, 57, 56, 55, 54, 53, 52, 137, 136, 135, 134, 133, 132, 131, 124, 123, 122, 121, 120, 119, 118, 111, 110, 109, 108, 107, 106, 105, 98, 97, 96, 95, 94, 93, 92, 85, 84, 83, 82, 81, 80, 79, 72, 71, 70, 69, 68, 67, 66, 59, 58, 57, 56, 55, 54, 53, 138, 137, 136, 135, 134, 133, 132, 125, 124, 123, 122, 121, 120, 119, 112, 111, 110, 109, 108, 107, 106, 99, 98, 97, 96, 95, 94, 93, 86, 85, 84, 83, 82, 81, 80, 73, 72, 71, 70, 69, 68, 67, 60, 59, 58, 57, 56, 55, 54, 139, 138, 137, 136, 135, 134, 133, 126, 125, 124, 123, 122, 121, 120, 113, 112, 111, 110, 109, 108, 107, 100, 99, 98, 97, 96, 95, 94, 87, 86, 85, 84, 83, 82, 81, 74, 73, 72, 71, 70, 69, 68, 61, 60, 59, 58, 57, 56, 55, 140, 139, 138, 137, 136, 135, 134, 127, 126, 125, 124, 123, 122, 121, 114, 113, 112, 111, 110, 109, 108, 101, 100, 99, 98, 97, 96, 95, 88, 87, 86, 85, 84, 83, 82, 75, 74, 73, 72, 71, 70, 69, 62, 61, 60, 59, 58, 57, 56, 141, 140, 139, 138, 137, 136, 135, 128, 127, 126, 125, 124, 123, 122, 115, 114, 113, 112, 111, 110, 109, 102, 101, 100, 99, 98, 97, 96, 89, 88, 87, 86, 85, 84, 83, 76, 75, 74, 73, 72, 71, 70, 63, 62, 61, 60, 59, 58, 57, 142, 141, 140, 139, 138, 137, 136, 129, 128, 127, 126, 125, 124, 123, 116, 115, 114, 113, 112, 111, 110, 103, 102, 101, 100, 99, 98, 97, 90, 89, 88, 87, 86, 85, 84, 77, 76, 75, 74, 73, 72, 71, 64, 63, 62, 61, 60, 59, 58, 149, 148, 147, 146, 145, 144, 143, 136, 135, 134, 133, 132, 131, 130, 123, 122, 121, 120, 119, 118, 117, 110, 109, 108, 107, 106, 105, 104, 97, 96, 95, 94, 93, 92, 91, 84, 83, 82, 81, 80, 79, 78, 71, 70, 69, 68, 67, 66, 65, 150, 149, 148, 147, 146, 145, 144, 137, 136, 135, 134, 133, 132, 131, 124, 123, 122, 121, 120, 119, 118, 111, 110, 109, 108, 107, 106, 105, 98, 97, 96, 95, 94, 93, 92, 85, 84, 83, 82, 81, 80, 79, 72, 71, 70, 69, 68, 67, 66, 151, 150, 149, 148, 147, 146, 145, 138, 137, 136, 135, 134, 133, 132, 125, 124, 123, 122, 121, 120, 119, 112, 111, 110, 109, 108, 107, 106, 99, 98, 97, 96, 95, 94, 93, 86, 85, 84, 83, 82, 81, 80, 73, 72, 71, 70, 69, 68, 67, 152, 151, 150, 149, 148, 147, 146, 139, 138, 137, 136, 135, 134, 133, 126, 125, 124, 123, 122, 121, 120, 113, 112, 111, 110, 109, 108, 107, 100, 99, 98, 97, 96, 95, 94, 87, 86, 85, 84, 83, 82, 81, 74, 73, 72, 71, 70, 69, 68, 153, 152, 151, 150, 149, 148, 147, 140, 139, 138, 137, 136, 135, 134, 127, 126, 125, 124, 123, 122, 121, 114, 113, 112, 111, 110, 109, 108, 101, 100, 99, 98, 97, 96, 95, 88, 87, 86, 85, 84, 83, 82, 75, 74, 73, 72, 71, 70, 69, 154, 153, 152, 151, 150, 149, 148, 141, 140, 139, 138, 137, 136, 135, 128, 127, 126, 125, 124, 123, 122, 115, 114, 113, 112, 111, 110, 109, 102, 101, 100, 99, 98, 97, 96, 89, 88, 87, 86, 85, 84, 83, 76, 75, 74, 73, 72, 71, 70, 155, 154, 153, 152, 151, 150, 149, 142, 141, 140, 139, 138, 137, 136, 129, 128, 127, 126, 125, 124, 123, 116, 115, 114, 113, 112, 111, 110, 103, 102, 101, 100, 99, 98, 97, 90, 89, 88, 87, 86, 85, 84, 77, 76, 75, 74, 73, 72, 71, 162, 161, 160, 159, 158, 157, 156, 149, 148, 147, 146, 145, 144, 143, 136, 135, 134, 133, 132, 131, 130, 123, 122, 121, 120, 119, 118, 117, 110, 109, 108, 107, 106, 105, 104, 97, 96, 95, 94, 93, 92, 91, 84, 83, 82, 81, 80, 79, 78, 163, 162, 161, 160, 159, 158, 157, 150, 149, 148, 147, 146, 145, 144, 137, 136, 135, 134, 133, 132, 131, 124, 123, 122, 121, 120, 119, 118, 111, 110, 109, 108, 107, 106, 105, 98, 97, 96, 95, 94, 93, 92, 85, 84, 83, 82, 81, 80, 79, 164, 163, 162, 161, 160, 159, 158, 151, 150, 149, 148, 147, 146, 145, 138, 137, 136, 135, 134, 133, 132, 125, 124, 123, 122, 121, 120, 119, 112, 111, 110, 109, 108, 107, 106, 99, 98, 97, 96, 95, 94, 93, 86, 85, 84, 83, 82, 81, 80, 165, 164, 163, 162, 161, 160, 159, 152, 151, 150, 149, 148, 147, 146, 139, 138, 137, 136, 135, 134, 133, 126, 125, 124, 123, 122, 121, 120, 113, 112, 111, 110, 109, 108, 107, 100, 99, 98, 97, 96, 95, 94, 87, 86, 85, 84, 83, 82, 81, 166, 165, 164, 163, 162, 161, 160, 153, 152, 151, 150, 149, 148, 147, 140, 139, 138, 137, 136, 135, 134, 127, 126, 125, 124, 123, 122, 121, 114, 113, 112, 111, 110, 109, 108, 101, 100, 99, 98, 97, 96, 95, 88, 87, 86, 85, 84, 83, 82, 167, 166, 165, 164, 163, 162, 161, 154, 153, 152, 151, 150, 149, 148, 141, 140, 139, 138, 137, 136, 135, 128, 127, 126, 125, 124, 123, 122, 115, 114, 113, 112, 111, 110, 109, 102, 101, 100, 99, 98, 97, 96, 89, 88, 87, 86, 85, 84, 83, 168, 167, 166, 165, 164, 163, 162, 155, 154, 153, 152, 151, 150, 149, 142, 141, 140, 139, 138, 137, 136, 129, 128, 127, 126, 125, 124, 123, 116, 115, 114, 113, 112, 111, 110, 103, 102, 101, 100, 99, 98, 97, 90, 89, 88, 87, 86, 85, 84], requires_grad=false}:(tensor<2401xf32>) -> tensor<2401xf32>
	%350="ufront.slice"(%348, %349){output_shape=[2401, 4]}:(tensor<169x4xf32>, tensor<2401xf32>) -> tensor<2401x4xf32>
	%351="ufront.reshape"(%350){shape=[49, 49, 4]}:(tensor<2401x4xf32>) -> tensor<49x49x4xf32>
	%352="ufront.transpose"(%351){perms=[2, 0, 1]}:(tensor<49x49x4xf32>) -> tensor<4x49x49xf32>
	%353="ufront.reshape"(%352){shape=[1, 4, 49, 49]}:(tensor<4x49x49xf32>) -> tensor<1x4x49x49xf32>
	%354="ufront.add"(%347, %353):(tensor<1x16x4x49x49xf32>, tensor<1x4x49x49xf32>) -> tensor<1x16x4x49x49xf32>
	%355="ufront.softmax"(%354):(tensor<1x16x4x49x49xf32>) -> tensor<1x16x4x49x49xf32>
	%356="ufront.call"(%355, %345){addargs=[('arg1', 'B G H I J, B G H J D -> B G H I D')], func=einsum}:(tensor<1x16x4x49x49xf32>, tensor<1x16x4x49x32xf32>) -> tensor<1x16x4x49x32xf32>
	%357="ufront.transpose"(%356){perms=[0, 1, 3, 2, 4]}:(tensor<1x16x4x49x32xf32>) -> tensor<1x16x49x4x32xf32>
	%358="ufront.reshape"(%357){shape=[1, 16, 49, 128]}:(tensor<1x16x49x4x32xf32>) -> tensor<1x16x49x128xf32>
	%359="ufront.linear"(%358):(tensor<1x16x49x128xf32>) -> tensor<1x16x49x128xf32>
	%360="ufront.dropout"(%359){rate=0.0, seed=0}:(tensor<1x16x49x128xf32>) -> tensor<1x16x49x128xf32>
	%361="ufront.call"(%360){addargs=[('p', 0.06), ('mode', 'row'), ('training', False)], func=stochastic_depth}:(tensor<1x16x49x128xf32>) -> tensor<1x16x49x128xf32>
	%362="ufront.add"(%334, %361):(tensor<1x16x49x128xf32>, tensor<1x16x49x128xf32>) -> tensor<1x16x49x128xf32>
	%363="ufront.layer_norm"(%362){elementwise_affine=true, eps=0.00001, normalized_shape=[128]}:(tensor<1x16x49x128xf32>) -> tensor<1x16x49x128xf32>
	%364="ufront.linear"(%363):(tensor<1x16x49x128xf32>) -> tensor<1x16x49x512xf32>
	%365="ufront.gelu"(%364):(tensor<1x16x49x512xf32>) -> tensor<1x16x49x512xf32>
	%366="ufront.linear"(%365):(tensor<1x16x49x512xf32>) -> tensor<1x16x49x128xf32>
	%367="ufront.dropout"(%366){rate=0.0, seed=0}:(tensor<1x16x49x128xf32>) -> tensor<1x16x49x128xf32>
	%368="ufront.call"(%367){addargs=[('p', 0.06), ('mode', 'row'), ('training', False)], func=stochastic_depth}:(tensor<1x16x49x128xf32>) -> tensor<1x16x49x128xf32>
	%369="ufront.add"(%362, %368):(tensor<1x16x49x128xf32>, tensor<1x16x49x128xf32>) -> tensor<1x16x49x128xf32>
	%370="ufront.identity"(%369):(tensor<1x16x49x128xf32>) -> tensor<1x16x49x128xf32>
	%371="ufront.reshape"(%370){shape=[1, 4, 4, 7, 7, 128]}:(tensor<1x16x49x128xf32>) -> tensor<1x4x4x7x7x128xf32>
	%372="ufront.transpose"(%371){perms=[0, 5, 1, 3, 2, 4]}:(tensor<1x4x4x7x7x128xf32>) -> tensor<1x128x4x7x4x7xf32>
	%373="ufront.reshape"(%372){shape=[1, 128, 28, 28]}:(tensor<1x128x4x7x4x7xf32>) -> tensor<1x128x28x28xf32>
	%374="ufront.reshape"(%373){shape=[1, 128, 7, 4, 7, 4]}:(tensor<1x128x28x28xf32>) -> tensor<1x128x7x4x7x4xf32>
	%375="ufront.transpose"(%374){perms=[0, 2, 4, 3, 5, 1]}:(tensor<1x128x7x4x7x4xf32>) -> tensor<1x7x7x4x4x128xf32>
	%376="ufront.reshape"(%375){shape=[1, 49, 16, 128]}:(tensor<1x7x7x4x4x128xf32>) -> tensor<1x49x16x128xf32>
	%377="ufront.call"(%376){addargs=[('arg2', -2), ('arg3', -3)], func=swapaxes}:(tensor<1x49x16x128xf32>) -> tensor<1x16x49x128xf32>
	%378="ufront.layer_norm"(%377){elementwise_affine=true, eps=0.00001, normalized_shape=[128]}:(tensor<1x16x49x128xf32>) -> tensor<1x16x49x128xf32>
	%379="ufront.linear"(%378):(tensor<1x16x49x128xf32>) -> tensor<1x16x49x384xf32>
	%380, %381, %382="ufront.chunk"(%379){axis=-1, sizes=3}:(tensor<1x16x49x384xf32>) -> tensor<1x16x49x128xf32>, tensor<1x16x49x128xf32>, tensor<1x16x49x128xf32>
	%383="ufront.reshape"(%380){shape=[1, 16, 49, 4, 32]}:(tensor<1x16x49x128xf32>) -> tensor<1x16x49x4x32xf32>
	%384="ufront.transpose"(%383){perms=[0, 1, 3, 2, 4]}:(tensor<1x16x49x4x32xf32>) -> tensor<1x16x4x49x32xf32>
	%385="ufront.reshape"(%381){shape=[1, 16, 49, 4, 32]}:(tensor<1x16x49x128xf32>) -> tensor<1x16x49x4x32xf32>
	%386="ufront.transpose"(%385){perms=[0, 1, 3, 2, 4]}:(tensor<1x16x49x4x32xf32>) -> tensor<1x16x4x49x32xf32>
	%387="ufront.reshape"(%382){shape=[1, 16, 49, 4, 32]}:(tensor<1x16x49x128xf32>) -> tensor<1x16x49x4x32xf32>
	%388="ufront.transpose"(%387){perms=[0, 1, 3, 2, 4]}:(tensor<1x16x49x4x32xf32>) -> tensor<1x16x4x49x32xf32>
	%389="ufront.smultiply"(%386){scalar=0.08838834764831845}:(tensor<1x16x4x49x32xf32>) -> tensor<1x16x4x49x32xf32>
	%390="ufront.call"(%384, %389){addargs=[('arg1', 'B G H I D, B G H J D -> B G H I J')], func=einsum}:(tensor<1x16x4x49x32xf32>, tensor<1x16x4x49x32xf32>) -> tensor<1x16x4x49x49xf32>
	%391="ufront.parameter"(%391){dtype=DataType.Float, initializer=[[… requires_grad=true}:(tensor<169x4xf32>) -> tensor<169x4xf32>
	%392="ufront.tensor"(%392){dtype=DataType.Int64, initializer=[84, 83, 82, 81, 80, 79, 78, 71, 70, 69, 68, 67, 66, 65, 58, 57, 56, 55, 54, 53, 52, 45, 44, 43, 42, 41, 40, 39, 32, 31, 30, 29, 28, 27, 26, 19, 18, 17, 16, 15, 14, 13, 6, 5, 4, 3, 2, 1, 0, 85, 84, 83, 82, 81, 80, 79, 72, 71, 70, 69, 68, 67, 66, 59, 58, 57, 56, 55, 54, 53, 46, 45, 44, 43, 42, 41, 40, 33, 32, 31, 30, 29, 28, 27, 20, 19, 18, 17, 16, 15, 14, 7, 6, 5, 4, 3, 2, 1, 86, 85, 84, 83, 82, 81, 80, 73, 72, 71, 70, 69, 68, 67, 60, 59, 58, 57, 56, 55, 54, 47, 46, 45, 44, 43, 42, 41, 34, 33, 32, 31, 30, 29, 28, 21, 20, 19, 18, 17, 16, 15, 8, 7, 6, 5, 4, 3, 2, 87, 86, 85, 84, 83, 82, 81, 74, 73, 72, 71, 70, 69, 68, 61, 60, 59, 58, 57, 56, 55, 48, 47, 46, 45, 44, 43, 42, 35, 34, 33, 32, 31, 30, 29, 22, 21, 20, 19, 18, 17, 16, 9, 8, 7, 6, 5, 4, 3, 88, 87, 86, 85, 84, 83, 82, 75, 74, 73, 72, 71, 70, 69, 62, 61, 60, 59, 58, 57, 56, 49, 48, 47, 46, 45, 44, 43, 36, 35, 34, 33, 32, 31, 30, 23, 22, 21, 20, 19, 18, 17, 10, 9, 8, 7, 6, 5, 4, 89, 88, 87, 86, 85, 84, 83, 76, 75, 74, 73, 72, 71, 70, 63, 62, 61, 60, 59, 58, 57, 50, 49, 48, 47, 46, 45, 44, 37, 36, 35, 34, 33, 32, 31, 24, 23, 22, 21, 20, 19, 18, 11, 10, 9, 8, 7, 6, 5, 90, 89, 88, 87, 86, 85, 84, 77, 76, 75, 74, 73, 72, 71, 64, 63, 62, 61, 60, 59, 58, 51, 50, 49, 48, 47, 46, 45, 38, 37, 36, 35, 34, 33, 32, 25, 24, 23, 22, 21, 20, 19, 12, 11, 10, 9, 8, 7, 6, 97, 96, 95, 94, 93, 92, 91, 84, 83, 82, 81, 80, 79, 78, 71, 70, 69, 68, 67, 66, 65, 58, 57, 56, 55, 54, 53, 52, 45, 44, 43, 42, 41, 40, 39, 32, 31, 30, 29, 28, 27, 26, 19, 18, 17, 16, 15, 14, 13, 98, 97, 96, 95, 94, 93, 92, 85, 84, 83, 82, 81, 80, 79, 72, 71, 70, 69, 68, 67, 66, 59, 58, 57, 56, 55, 54, 53, 46, 45, 44, 43, 42, 41, 40, 33, 32, 31, 30, 29, 28, 27, 20, 19, 18, 17, 16, 15, 14, 99, 98, 97, 96, 95, 94, 93, 86, 85, 84, 83, 82, 81, 80, 73, 72, 71, 70, 69, 68, 67, 60, 59, 58, 57, 56, 55, 54, 47, 46, 45, 44, 43, 42, 41, 34, 33, 32, 31, 30, 29, 28, 21, 20, 19, 18, 17, 16, 15, 100, 99, 98, 97, 96, 95, 94, 87, 86, 85, 84, 83, 82, 81, 74, 73, 72, 71, 70, 69, 68, 61, 60, 59, 58, 57, 56, 55, 48, 47, 46, 45, 44, 43, 42, 35, 34, 33, 32, 31, 30, 29, 22, 21, 20, 19, 18, 17, 16, 101, 100, 99, 98, 97, 96, 95, 88, 87, 86, 85, 84, 83, 82, 75, 74, 73, 72, 71, 70, 69, 62, 61, 60, 59, 58, 57, 56, 49, 48, 47, 46, 45, 44, 43, 36, 35, 34, 33, 32, 31, 30, 23, 22, 21, 20, 19, 18, 17, 102, 101, 100, 99, 98, 97, 96, 89, 88, 87, 86, 85, 84, 83, 76, 75, 74, 73, 72, 71, 70, 63, 62, 61, 60, 59, 58, 57, 50, 49, 48, 47, 46, 45, 44, 37, 36, 35, 34, 33, 32, 31, 24, 23, 22, 21, 20, 19, 18, 103, 102, 101, 100, 99, 98, 97, 90, 89, 88, 87, 86, 85, 84, 77, 76, 75, 74, 73, 72, 71, 64, 63, 62, 61, 60, 59, 58, 51, 50, 49, 48, 47, 46, 45, 38, 37, 36, 35, 34, 33, 32, 25, 24, 23, 22, 21, 20, 19, 110, 109, 108, 107, 106, 105, 104, 97, 96, 95, 94, 93, 92, 91, 84, 83, 82, 81, 80, 79, 78, 71, 70, 69, 68, 67, 66, 65, 58, 57, 56, 55, 54, 53, 52, 45, 44, 43, 42, 41, 40, 39, 32, 31, 30, 29, 28, 27, 26, 111, 110, 109, 108, 107, 106, 105, 98, 97, 96, 95, 94, 93, 92, 85, 84, 83, 82, 81, 80, 79, 72, 71, 70, 69, 68, 67, 66, 59, 58, 57, 56, 55, 54, 53, 46, 45, 44, 43, 42, 41, 40, 33, 32, 31, 30, 29, 28, 27, 112, 111, 110, 109, 108, 107, 106, 99, 98, 97, 96, 95, 94, 93, 86, 85, 84, 83, 82, 81, 80, 73, 72, 71, 70, 69, 68, 67, 60, 59, 58, 57, 56, 55, 54, 47, 46, 45, 44, 43, 42, 41, 34, 33, 32, 31, 30, 29, 28, 113, 112, 111, 110, 109, 108, 107, 100, 99, 98, 97, 96, 95, 94, 87, 86, 85, 84, 83, 82, 81, 74, 73, 72, 71, 70, 69, 68, 61, 60, 59, 58, 57, 56, 55, 48, 47, 46, 45, 44, 43, 42, 35, 34, 33, 32, 31, 30, 29, 114, 113, 112, 111, 110, 109, 108, 101, 100, 99, 98, 97, 96, 95, 88, 87, 86, 85, 84, 83, 82, 75, 74, 73, 72, 71, 70, 69, 62, 61, 60, 59, 58, 57, 56, 49, 48, 47, 46, 45, 44, 43, 36, 35, 34, 33, 32, 31, 30, 115, 114, 113, 112, 111, 110, 109, 102, 101, 100, 99, 98, 97, 96, 89, 88, 87, 86, 85, 84, 83, 76, 75, 74, 73, 72, 71, 70, 63, 62, 61, 60, 59, 58, 57, 50, 49, 48, 47, 46, 45, 44, 37, 36, 35, 34, 33, 32, 31, 116, 115, 114, 113, 112, 111, 110, 103, 102, 101, 100, 99, 98, 97, 90, 89, 88, 87, 86, 85, 84, 77, 76, 75, 74, 73, 72, 71, 64, 63, 62, 61, 60, 59, 58, 51, 50, 49, 48, 47, 46, 45, 38, 37, 36, 35, 34, 33, 32, 123, 122, 121, 120, 119, 118, 117, 110, 109, 108, 107, 106, 105, 104, 97, 96, 95, 94, 93, 92, 91, 84, 83, 82, 81, 80, 79, 78, 71, 70, 69, 68, 67, 66, 65, 58, 57, 56, 55, 54, 53, 52, 45, 44, 43, 42, 41, 40, 39, 124, 123, 122, 121, 120, 119, 118, 111, 110, 109, 108, 107, 106, 105, 98, 97, 96, 95, 94, 93, 92, 85, 84, 83, 82, 81, 80, 79, 72, 71, 70, 69, 68, 67, 66, 59, 58, 57, 56, 55, 54, 53, 46, 45, 44, 43, 42, 41, 40, 125, 124, 123, 122, 121, 120, 119, 112, 111, 110, 109, 108, 107, 106, 99, 98, 97, 96, 95, 94, 93, 86, 85, 84, 83, 82, 81, 80, 73, 72, 71, 70, 69, 68, 67, 60, 59, 58, 57, 56, 55, 54, 47, 46, 45, 44, 43, 42, 41, 126, 125, 124, 123, 122, 121, 120, 113, 112, 111, 110, 109, 108, 107, 100, 99, 98, 97, 96, 95, 94, 87, 86, 85, 84, 83, 82, 81, 74, 73, 72, 71, 70, 69, 68, 61, 60, 59, 58, 57, 56, 55, 48, 47, 46, 45, 44, 43, 42, 127, 126, 125, 124, 123, 122, 121, 114, 113, 112, 111, 110, 109, 108, 101, 100, 99, 98, 97, 96, 95, 88, 87, 86, 85, 84, 83, 82, 75, 74, 73, 72, 71, 70, 69, 62, 61, 60, 59, 58, 57, 56, 49, 48, 47, 46, 45, 44, 43, 128, 127, 126, 125, 124, 123, 122, 115, 114, 113, 112, 111, 110, 109, 102, 101, 100, 99, 98, 97, 96, 89, 88, 87, 86, 85, 84, 83, 76, 75, 74, 73, 72, 71, 70, 63, 62, 61, 60, 59, 58, 57, 50, 49, 48, 47, 46, 45, 44, 129, 128, 127, 126, 125, 124, 123, 116, 115, 114, 113, 112, 111, 110, 103, 102, 101, 100, 99, 98, 97, 90, 89, 88, 87, 86, 85, 84, 77, 76, 75, 74, 73, 72, 71, 64, 63, 62, 61, 60, 59, 58, 51, 50, 49, 48, 47, 46, 45, 136, 135, 134, 133, 132, 131, 130, 123, 122, 121, 120, 119, 118, 117, 110, 109, 108, 107, 106, 105, 104, 97, 96, 95, 94, 93, 92, 91, 84, 83, 82, 81, 80, 79, 78, 71, 70, 69, 68, 67, 66, 65, 58, 57, 56, 55, 54, 53, 52, 137, 136, 135, 134, 133, 132, 131, 124, 123, 122, 121, 120, 119, 118, 111, 110, 109, 108, 107, 106, 105, 98, 97, 96, 95, 94, 93, 92, 85, 84, 83, 82, 81, 80, 79, 72, 71, 70, 69, 68, 67, 66, 59, 58, 57, 56, 55, 54, 53, 138, 137, 136, 135, 134, 133, 132, 125, 124, 123, 122, 121, 120, 119, 112, 111, 110, 109, 108, 107, 106, 99, 98, 97, 96, 95, 94, 93, 86, 85, 84, 83, 82, 81, 80, 73, 72, 71, 70, 69, 68, 67, 60, 59, 58, 57, 56, 55, 54, 139, 138, 137, 136, 135, 134, 133, 126, 125, 124, 123, 122, 121, 120, 113, 112, 111, 110, 109, 108, 107, 100, 99, 98, 97, 96, 95, 94, 87, 86, 85, 84, 83, 82, 81, 74, 73, 72, 71, 70, 69, 68, 61, 60, 59, 58, 57, 56, 55, 140, 139, 138, 137, 136, 135, 134, 127, 126, 125, 124, 123, 122, 121, 114, 113, 112, 111, 110, 109, 108, 101, 100, 99, 98, 97, 96, 95, 88, 87, 86, 85, 84, 83, 82, 75, 74, 73, 72, 71, 70, 69, 62, 61, 60, 59, 58, 57, 56, 141, 140, 139, 138, 137, 136, 135, 128, 127, 126, 125, 124, 123, 122, 115, 114, 113, 112, 111, 110, 109, 102, 101, 100, 99, 98, 97, 96, 89, 88, 87, 86, 85, 84, 83, 76, 75, 74, 73, 72, 71, 70, 63, 62, 61, 60, 59, 58, 57, 142, 141, 140, 139, 138, 137, 136, 129, 128, 127, 126, 125, 124, 123, 116, 115, 114, 113, 112, 111, 110, 103, 102, 101, 100, 99, 98, 97, 90, 89, 88, 87, 86, 85, 84, 77, 76, 75, 74, 73, 72, 71, 64, 63, 62, 61, 60, 59, 58, 149, 148, 147, 146, 145, 144, 143, 136, 135, 134, 133, 132, 131, 130, 123, 122, 121, 120, 119, 118, 117, 110, 109, 108, 107, 106, 105, 104, 97, 96, 95, 94, 93, 92, 91, 84, 83, 82, 81, 80, 79, 78, 71, 70, 69, 68, 67, 66, 65, 150, 149, 148, 147, 146, 145, 144, 137, 136, 135, 134, 133, 132, 131, 124, 123, 122, 121, 120, 119, 118, 111, 110, 109, 108, 107, 106, 105, 98, 97, 96, 95, 94, 93, 92, 85, 84, 83, 82, 81, 80, 79, 72, 71, 70, 69, 68, 67, 66, 151, 150, 149, 148, 147, 146, 145, 138, 137, 136, 135, 134, 133, 132, 125, 124, 123, 122, 121, 120, 119, 112, 111, 110, 109, 108, 107, 106, 99, 98, 97, 96, 95, 94, 93, 86, 85, 84, 83, 82, 81, 80, 73, 72, 71, 70, 69, 68, 67, 152, 151, 150, 149, 148, 147, 146, 139, 138, 137, 136, 135, 134, 133, 126, 125, 124, 123, 122, 121, 120, 113, 112, 111, 110, 109, 108, 107, 100, 99, 98, 97, 96, 95, 94, 87, 86, 85, 84, 83, 82, 81, 74, 73, 72, 71, 70, 69, 68, 153, 152, 151, 150, 149, 148, 147, 140, 139, 138, 137, 136, 135, 134, 127, 126, 125, 124, 123, 122, 121, 114, 113, 112, 111, 110, 109, 108, 101, 100, 99, 98, 97, 96, 95, 88, 87, 86, 85, 84, 83, 82, 75, 74, 73, 72, 71, 70, 69, 154, 153, 152, 151, 150, 149, 148, 141, 140, 139, 138, 137, 136, 135, 128, 127, 126, 125, 124, 123, 122, 115, 114, 113, 112, 111, 110, 109, 102, 101, 100, 99, 98, 97, 96, 89, 88, 87, 86, 85, 84, 83, 76, 75, 74, 73, 72, 71, 70, 155, 154, 153, 152, 151, 150, 149, 142, 141, 140, 139, 138, 137, 136, 129, 128, 127, 126, 125, 124, 123, 116, 115, 114, 113, 112, 111, 110, 103, 102, 101, 100, 99, 98, 97, 90, 89, 88, 87, 86, 85, 84, 77, 76, 75, 74, 73, 72, 71, 162, 161, 160, 159, 158, 157, 156, 149, 148, 147, 146, 145, 144, 143, 136, 135, 134, 133, 132, 131, 130, 123, 122, 121, 120, 119, 118, 117, 110, 109, 108, 107, 106, 105, 104, 97, 96, 95, 94, 93, 92, 91, 84, 83, 82, 81, 80, 79, 78, 163, 162, 161, 160, 159, 158, 157, 150, 149, 148, 147, 146, 145, 144, 137, 136, 135, 134, 133, 132, 131, 124, 123, 122, 121, 120, 119, 118, 111, 110, 109, 108, 107, 106, 105, 98, 97, 96, 95, 94, 93, 92, 85, 84, 83, 82, 81, 80, 79, 164, 163, 162, 161, 160, 159, 158, 151, 150, 149, 148, 147, 146, 145, 138, 137, 136, 135, 134, 133, 132, 125, 124, 123, 122, 121, 120, 119, 112, 111, 110, 109, 108, 107, 106, 99, 98, 97, 96, 95, 94, 93, 86, 85, 84, 83, 82, 81, 80, 165, 164, 163, 162, 161, 160, 159, 152, 151, 150, 149, 148, 147, 146, 139, 138, 137, 136, 135, 134, 133, 126, 125, 124, 123, 122, 121, 120, 113, 112, 111, 110, 109, 108, 107, 100, 99, 98, 97, 96, 95, 94, 87, 86, 85, 84, 83, 82, 81, 166, 165, 164, 163, 162, 161, 160, 153, 152, 151, 150, 149, 148, 147, 140, 139, 138, 137, 136, 135, 134, 127, 126, 125, 124, 123, 122, 121, 114, 113, 112, 111, 110, 109, 108, 101, 100, 99, 98, 97, 96, 95, 88, 87, 86, 85, 84, 83, 82, 167, 166, 165, 164, 163, 162, 161, 154, 153, 152, 151, 150, 149, 148, 141, 140, 139, 138, 137, 136, 135, 128, 127, 126, 125, 124, 123, 122, 115, 114, 113, 112, 111, 110, 109, 102, 101, 100, 99, 98, 97, 96, 89, 88, 87, 86, 85, 84, 83, 168, 167, 166, 165, 164, 163, 162, 155, 154, 153, 152, 151, 150, 149, 142, 141, 140, 139, 138, 137, 136, 129, 128, 127, 126, 125, 124, 123, 116, 115, 114, 113, 112, 111, 110, 103, 102, 101, 100, 99, 98, 97, 90, 89, 88, 87, 86, 85, 84], requires_grad=false}:(tensor<2401xf32>) -> tensor<2401xf32>
	%393="ufront.slice"(%391, %392){output_shape=[2401, 4]}:(tensor<169x4xf32>, tensor<2401xf32>) -> tensor<2401x4xf32>
	%394="ufront.reshape"(%393){shape=[49, 49, 4]}:(tensor<2401x4xf32>) -> tensor<49x49x4xf32>
	%395="ufront.transpose"(%394){perms=[2, 0, 1]}:(tensor<49x49x4xf32>) -> tensor<4x49x49xf32>
	%396="ufront.reshape"(%395){shape=[1, 4, 49, 49]}:(tensor<4x49x49xf32>) -> tensor<1x4x49x49xf32>
	%397="ufront.add"(%390, %396):(tensor<1x16x4x49x49xf32>, tensor<1x4x49x49xf32>) -> tensor<1x16x4x49x49xf32>
	%398="ufront.softmax"(%397):(tensor<1x16x4x49x49xf32>) -> tensor<1x16x4x49x49xf32>
	%399="ufront.call"(%398, %388){addargs=[('arg1', 'B G H I J, B G H J D -> B G H I D')], func=einsum}:(tensor<1x16x4x49x49xf32>, tensor<1x16x4x49x32xf32>) -> tensor<1x16x4x49x32xf32>
	%400="ufront.transpose"(%399){perms=[0, 1, 3, 2, 4]}:(tensor<1x16x4x49x32xf32>) -> tensor<1x16x49x4x32xf32>
	%401="ufront.reshape"(%400){shape=[1, 16, 49, 128]}:(tensor<1x16x49x4x32xf32>) -> tensor<1x16x49x128xf32>
	%402="ufront.linear"(%401):(tensor<1x16x49x128xf32>) -> tensor<1x16x49x128xf32>
	%403="ufront.dropout"(%402){rate=0.0, seed=0}:(tensor<1x16x49x128xf32>) -> tensor<1x16x49x128xf32>
	%404="ufront.call"(%403){addargs=[('p', 0.06), ('mode', 'row'), ('training', False)], func=stochastic_depth}:(tensor<1x16x49x128xf32>) -> tensor<1x16x49x128xf32>
	%405="ufront.add"(%377, %404):(tensor<1x16x49x128xf32>, tensor<1x16x49x128xf32>) -> tensor<1x16x49x128xf32>
	%406="ufront.layer_norm"(%405){elementwise_affine=true, eps=0.00001, normalized_shape=[128]}:(tensor<1x16x49x128xf32>) -> tensor<1x16x49x128xf32>
	%407="ufront.linear"(%406):(tensor<1x16x49x128xf32>) -> tensor<1x16x49x512xf32>
	%408="ufront.gelu"(%407):(tensor<1x16x49x512xf32>) -> tensor<1x16x49x512xf32>
	%409="ufront.linear"(%408):(tensor<1x16x49x512xf32>) -> tensor<1x16x49x128xf32>
	%410="ufront.dropout"(%409){rate=0.0, seed=0}:(tensor<1x16x49x128xf32>) -> tensor<1x16x49x128xf32>
	%411="ufront.call"(%410){addargs=[('p', 0.06), ('mode', 'row'), ('training', False)], func=stochastic_depth}:(tensor<1x16x49x128xf32>) -> tensor<1x16x49x128xf32>
	%412="ufront.add"(%405, %411):(tensor<1x16x49x128xf32>, tensor<1x16x49x128xf32>) -> tensor<1x16x49x128xf32>
	%413="ufront.call"(%412){addargs=[('arg2', -2), ('arg3', -3)], func=swapaxes}:(tensor<1x16x49x128xf32>) -> tensor<1x49x16x128xf32>
	%414="ufront.reshape"(%413){shape=[1, 7, 7, 4, 4, 128]}:(tensor<1x49x16x128xf32>) -> tensor<1x7x7x4x4x128xf32>
	%415="ufront.transpose"(%414){perms=[0, 5, 1, 3, 2, 4]}:(tensor<1x7x7x4x4x128xf32>) -> tensor<1x128x7x4x7x4xf32>
	%416="ufront.reshape"(%415){shape=[1, 128, 28, 28]}:(tensor<1x128x7x4x7x4xf32>) -> tensor<1x128x28x28xf32>
	%417="ufront.pool2d"(%416){kernel=[3, 3], pad=[1, 1], pool_type="POOL_AVG", stride=[2, 2]}:(tensor<1x128x28x28xf32>) -> tensor<1x128x14x14xf32>
	%418="ufront.conv2d"(%417){groups=1, kernel=[1, 1], pad=[0, 0], stride=[1, 1]}:(tensor<1x128x14x14xf32>) -> tensor<1x256x14x14xf32>
	%419="ufront.batchnorm"(%416){affine=true, eps=0.001, momentum=0.99, track_running_stats=true}:(tensor<1x128x28x28xf32>) -> tensor<1x128x28x28xf32>
	%420="ufront.conv2d"(%419){groups=1, kernel=[1, 1], pad=[0, 0], stride=[1, 1]}:(tensor<1x128x28x28xf32>) -> tensor<1x1024x28x28xf32>
	%421="ufront.batchnorm"(%420){affine=true, eps=0.001, momentum=0.99, track_running_stats=true}:(tensor<1x1024x28x28xf32>) -> tensor<1x1024x28x28xf32>
	%422="ufront.gelu"(%421):(tensor<1x1024x28x28xf32>) -> tensor<1x1024x28x28xf32>
	%423="ufront.conv2d"(%422){groups=1024, kernel=[3, 3], pad=[1, 1], stride=[2, 2]}:(tensor<1x1024x28x28xf32>) -> tensor<1x1024x14x14xf32>
	%424="ufront.batchnorm"(%423){affine=true, eps=0.001, momentum=0.99, track_running_stats=true}:(tensor<1x1024x14x14xf32>) -> tensor<1x1024x14x14xf32>
	%425="ufront.gelu"(%424):(tensor<1x1024x14x14xf32>) -> tensor<1x1024x14x14xf32>
	%426="ufront.pool2d"(%425){output_size=[1, 1], pool_type="POOL_ADAPTIVE"}:(tensor<1x1024x14x14xf32>) -> tensor<1x1024x1x1xf32>
	%427="ufront.conv2d"(%426){groups=1, kernel=[1, 1], pad=[0, 0], stride=[1, 1]}:(tensor<1x1024x1x1xf32>) -> tensor<1x64x1x1xf32>
	%428="ufront.silu"(%427):(tensor<1x64x1x1xf32>) -> tensor<1x64x1x1xf32>
	%429="ufront.conv2d"(%428){groups=1, kernel=[1, 1], pad=[0, 0], stride=[1, 1]}:(tensor<1x64x1x1xf32>) -> tensor<1x1024x1x1xf32>
	%430="ufront.sigmoid"(%429):(tensor<1x1024x1x1xf32>) -> tensor<1x1024x1x1xf32>
	%431="ufront.multiply"(%430, %425):(tensor<1x1024x1x1xf32>, tensor<1x1024x14x14xf32>) -> tensor<1x1024x14x14xf32>
	%432="ufront.conv2d"(%431){groups=1, kernel=[1, 1], pad=[0, 0], stride=[1, 1]}:(tensor<1x1024x14x14xf32>) -> tensor<1x256x14x14xf32>
	%433="ufront.call"(%432){addargs=[('p', 0.08), ('mode', 'row'), ('training', False)], func=stochastic_depth}:(tensor<1x256x14x14xf32>) -> tensor<1x256x14x14xf32>
	%434="ufront.add"(%418, %433):(tensor<1x256x14x14xf32>, tensor<1x256x14x14xf32>) -> tensor<1x256x14x14xf32>
	%435="ufront.reshape"(%434){shape=[1, 256, 2, 7, 2, 7]}:(tensor<1x256x14x14xf32>) -> tensor<1x256x2x7x2x7xf32>
	%436="ufront.transpose"(%435){perms=[0, 2, 4, 3, 5, 1]}:(tensor<1x256x2x7x2x7xf32>) -> tensor<1x2x2x7x7x256xf32>
	%437="ufront.reshape"(%436){shape=[1, 4, 49, 256]}:(tensor<1x2x2x7x7x256xf32>) -> tensor<1x4x49x256xf32>
	%438="ufront.identity"(%437):(tensor<1x4x49x256xf32>) -> tensor<1x4x49x256xf32>
	%439="ufront.layer_norm"(%438){elementwise_affine=true, eps=0.00001, normalized_shape=[256]}:(tensor<1x4x49x256xf32>) -> tensor<1x4x49x256xf32>
	%440="ufront.linear"(%439):(tensor<1x4x49x256xf32>) -> tensor<1x4x49x768xf32>
	%441, %442, %443="ufront.chunk"(%440){axis=-1, sizes=3}:(tensor<1x4x49x768xf32>) -> tensor<1x4x49x256xf32>, tensor<1x4x49x256xf32>, tensor<1x4x49x256xf32>
	%444="ufront.reshape"(%441){shape=[1, 4, 49, 8, 32]}:(tensor<1x4x49x256xf32>) -> tensor<1x4x49x8x32xf32>
	%445="ufront.transpose"(%444){perms=[0, 1, 3, 2, 4]}:(tensor<1x4x49x8x32xf32>) -> tensor<1x4x8x49x32xf32>
	%446="ufront.reshape"(%442){shape=[1, 4, 49, 8, 32]}:(tensor<1x4x49x256xf32>) -> tensor<1x4x49x8x32xf32>
	%447="ufront.transpose"(%446){perms=[0, 1, 3, 2, 4]}:(tensor<1x4x49x8x32xf32>) -> tensor<1x4x8x49x32xf32>
	%448="ufront.reshape"(%443){shape=[1, 4, 49, 8, 32]}:(tensor<1x4x49x256xf32>) -> tensor<1x4x49x8x32xf32>
	%449="ufront.transpose"(%448){perms=[0, 1, 3, 2, 4]}:(tensor<1x4x49x8x32xf32>) -> tensor<1x4x8x49x32xf32>
	%450="ufront.smultiply"(%447){scalar=0.0625}:(tensor<1x4x8x49x32xf32>) -> tensor<1x4x8x49x32xf32>
	%451="ufront.call"(%445, %450){addargs=[('arg1', 'B G H I D, B G H J D -> B G H I J')], func=einsum}:(tensor<1x4x8x49x32xf32>, tensor<1x4x8x49x32xf32>) -> tensor<1x4x8x49x49xf32>
	%452="ufront.parameter"(%452){dtype=DataType.Float, initializer=[[… requires_grad=true}:(tensor<169x8xf32>) -> tensor<169x8xf32>
	%453="ufront.tensor"(%453){dtype=DataType.Int64, initializer=[84, 83, 82, 81, 80, 79, 78, 71, 70, 69, 68, 67, 66, 65, 58, 57, 56, 55, 54, 53, 52, 45, 44, 43, 42, 41, 40, 39, 32, 31, 30, 29, 28, 27, 26, 19, 18, 17, 16, 15, 14, 13, 6, 5, 4, 3, 2, 1, 0, 85, 84, 83, 82, 81, 80, 79, 72, 71, 70, 69, 68, 67, 66, 59, 58, 57, 56, 55, 54, 53, 46, 45, 44, 43, 42, 41, 40, 33, 32, 31, 30, 29, 28, 27, 20, 19, 18, 17, 16, 15, 14, 7, 6, 5, 4, 3, 2, 1, 86, 85, 84, 83, 82, 81, 80, 73, 72, 71, 70, 69, 68, 67, 60, 59, 58, 57, 56, 55, 54, 47, 46, 45, 44, 43, 42, 41, 34, 33, 32, 31, 30, 29, 28, 21, 20, 19, 18, 17, 16, 15, 8, 7, 6, 5, 4, 3, 2, 87, 86, 85, 84, 83, 82, 81, 74, 73, 72, 71, 70, 69, 68, 61, 60, 59, 58, 57, 56, 55, 48, 47, 46, 45, 44, 43, 42, 35, 34, 33, 32, 31, 30, 29, 22, 21, 20, 19, 18, 17, 16, 9, 8, 7, 6, 5, 4, 3, 88, 87, 86, 85, 84, 83, 82, 75, 74, 73, 72, 71, 70, 69, 62, 61, 60, 59, 58, 57, 56, 49, 48, 47, 46, 45, 44, 43, 36, 35, 34, 33, 32, 31, 30, 23, 22, 21, 20, 19, 18, 17, 10, 9, 8, 7, 6, 5, 4, 89, 88, 87, 86, 85, 84, 83, 76, 75, 74, 73, 72, 71, 70, 63, 62, 61, 60, 59, 58, 57, 50, 49, 48, 47, 46, 45, 44, 37, 36, 35, 34, 33, 32, 31, 24, 23, 22, 21, 20, 19, 18, 11, 10, 9, 8, 7, 6, 5, 90, 89, 88, 87, 86, 85, 84, 77, 76, 75, 74, 73, 72, 71, 64, 63, 62, 61, 60, 59, 58, 51, 50, 49, 48, 47, 46, 45, 38, 37, 36, 35, 34, 33, 32, 25, 24, 23, 22, 21, 20, 19, 12, 11, 10, 9, 8, 7, 6, 97, 96, 95, 94, 93, 92, 91, 84, 83, 82, 81, 80, 79, 78, 71, 70, 69, 68, 67, 66, 65, 58, 57, 56, 55, 54, 53, 52, 45, 44, 43, 42, 41, 40, 39, 32, 31, 30, 29, 28, 27, 26, 19, 18, 17, 16, 15, 14, 13, 98, 97, 96, 95, 94, 93, 92, 85, 84, 83, 82, 81, 80, 79, 72, 71, 70, 69, 68, 67, 66, 59, 58, 57, 56, 55, 54, 53, 46, 45, 44, 43, 42, 41, 40, 33, 32, 31, 30, 29, 28, 27, 20, 19, 18, 17, 16, 15, 14, 99, 98, 97, 96, 95, 94, 93, 86, 85, 84, 83, 82, 81, 80, 73, 72, 71, 70, 69, 68, 67, 60, 59, 58, 57, 56, 55, 54, 47, 46, 45, 44, 43, 42, 41, 34, 33, 32, 31, 30, 29, 28, 21, 20, 19, 18, 17, 16, 15, 100, 99, 98, 97, 96, 95, 94, 87, 86, 85, 84, 83, 82, 81, 74, 73, 72, 71, 70, 69, 68, 61, 60, 59, 58, 57, 56, 55, 48, 47, 46, 45, 44, 43, 42, 35, 34, 33, 32, 31, 30, 29, 22, 21, 20, 19, 18, 17, 16, 101, 100, 99, 98, 97, 96, 95, 88, 87, 86, 85, 84, 83, 82, 75, 74, 73, 72, 71, 70, 69, 62, 61, 60, 59, 58, 57, 56, 49, 48, 47, 46, 45, 44, 43, 36, 35, 34, 33, 32, 31, 30, 23, 22, 21, 20, 19, 18, 17, 102, 101, 100, 99, 98, 97, 96, 89, 88, 87, 86, 85, 84, 83, 76, 75, 74, 73, 72, 71, 70, 63, 62, 61, 60, 59, 58, 57, 50, 49, 48, 47, 46, 45, 44, 37, 36, 35, 34, 33, 32, 31, 24, 23, 22, 21, 20, 19, 18, 103, 102, 101, 100, 99, 98, 97, 90, 89, 88, 87, 86, 85, 84, 77, 76, 75, 74, 73, 72, 71, 64, 63, 62, 61, 60, 59, 58, 51, 50, 49, 48, 47, 46, 45, 38, 37, 36, 35, 34, 33, 32, 25, 24, 23, 22, 21, 20, 19, 110, 109, 108, 107, 106, 105, 104, 97, 96, 95, 94, 93, 92, 91, 84, 83, 82, 81, 80, 79, 78, 71, 70, 69, 68, 67, 66, 65, 58, 57, 56, 55, 54, 53, 52, 45, 44, 43, 42, 41, 40, 39, 32, 31, 30, 29, 28, 27, 26, 111, 110, 109, 108, 107, 106, 105, 98, 97, 96, 95, 94, 93, 92, 85, 84, 83, 82, 81, 80, 79, 72, 71, 70, 69, 68, 67, 66, 59, 58, 57, 56, 55, 54, 53, 46, 45, 44, 43, 42, 41, 40, 33, 32, 31, 30, 29, 28, 27, 112, 111, 110, 109, 108, 107, 106, 99, 98, 97, 96, 95, 94, 93, 86, 85, 84, 83, 82, 81, 80, 73, 72, 71, 70, 69, 68, 67, 60, 59, 58, 57, 56, 55, 54, 47, 46, 45, 44, 43, 42, 41, 34, 33, 32, 31, 30, 29, 28, 113, 112, 111, 110, 109, 108, 107, 100, 99, 98, 97, 96, 95, 94, 87, 86, 85, 84, 83, 82, 81, 74, 73, 72, 71, 70, 69, 68, 61, 60, 59, 58, 57, 56, 55, 48, 47, 46, 45, 44, 43, 42, 35, 34, 33, 32, 31, 30, 29, 114, 113, 112, 111, 110, 109, 108, 101, 100, 99, 98, 97, 96, 95, 88, 87, 86, 85, 84, 83, 82, 75, 74, 73, 72, 71, 70, 69, 62, 61, 60, 59, 58, 57, 56, 49, 48, 47, 46, 45, 44, 43, 36, 35, 34, 33, 32, 31, 30, 115, 114, 113, 112, 111, 110, 109, 102, 101, 100, 99, 98, 97, 96, 89, 88, 87, 86, 85, 84, 83, 76, 75, 74, 73, 72, 71, 70, 63, 62, 61, 60, 59, 58, 57, 50, 49, 48, 47, 46, 45, 44, 37, 36, 35, 34, 33, 32, 31, 116, 115, 114, 113, 112, 111, 110, 103, 102, 101, 100, 99, 98, 97, 90, 89, 88, 87, 86, 85, 84, 77, 76, 75, 74, 73, 72, 71, 64, 63, 62, 61, 60, 59, 58, 51, 50, 49, 48, 47, 46, 45, 38, 37, 36, 35, 34, 33, 32, 123, 122, 121, 120, 119, 118, 117, 110, 109, 108, 107, 106, 105, 104, 97, 96, 95, 94, 93, 92, 91, 84, 83, 82, 81, 80, 79, 78, 71, 70, 69, 68, 67, 66, 65, 58, 57, 56, 55, 54, 53, 52, 45, 44, 43, 42, 41, 40, 39, 124, 123, 122, 121, 120, 119, 118, 111, 110, 109, 108, 107, 106, 105, 98, 97, 96, 95, 94, 93, 92, 85, 84, 83, 82, 81, 80, 79, 72, 71, 70, 69, 68, 67, 66, 59, 58, 57, 56, 55, 54, 53, 46, 45, 44, 43, 42, 41, 40, 125, 124, 123, 122, 121, 120, 119, 112, 111, 110, 109, 108, 107, 106, 99, 98, 97, 96, 95, 94, 93, 86, 85, 84, 83, 82, 81, 80, 73, 72, 71, 70, 69, 68, 67, 60, 59, 58, 57, 56, 55, 54, 47, 46, 45, 44, 43, 42, 41, 126, 125, 124, 123, 122, 121, 120, 113, 112, 111, 110, 109, 108, 107, 100, 99, 98, 97, 96, 95, 94, 87, 86, 85, 84, 83, 82, 81, 74, 73, 72, 71, 70, 69, 68, 61, 60, 59, 58, 57, 56, 55, 48, 47, 46, 45, 44, 43, 42, 127, 126, 125, 124, 123, 122, 121, 114, 113, 112, 111, 110, 109, 108, 101, 100, 99, 98, 97, 96, 95, 88, 87, 86, 85, 84, 83, 82, 75, 74, 73, 72, 71, 70, 69, 62, 61, 60, 59, 58, 57, 56, 49, 48, 47, 46, 45, 44, 43, 128, 127, 126, 125, 124, 123, 122, 115, 114, 113, 112, 111, 110, 109, 102, 101, 100, 99, 98, 97, 96, 89, 88, 87, 86, 85, 84, 83, 76, 75, 74, 73, 72, 71, 70, 63, 62, 61, 60, 59, 58, 57, 50, 49, 48, 47, 46, 45, 44, 129, 128, 127, 126, 125, 124, 123, 116, 115, 114, 113, 112, 111, 110, 103, 102, 101, 100, 99, 98, 97, 90, 89, 88, 87, 86, 85, 84, 77, 76, 75, 74, 73, 72, 71, 64, 63, 62, 61, 60, 59, 58, 51, 50, 49, 48, 47, 46, 45, 136, 135, 134, 133, 132, 131, 130, 123, 122, 121, 120, 119, 118, 117, 110, 109, 108, 107, 106, 105, 104, 97, 96, 95, 94, 93, 92, 91, 84, 83, 82, 81, 80, 79, 78, 71, 70, 69, 68, 67, 66, 65, 58, 57, 56, 55, 54, 53, 52, 137, 136, 135, 134, 133, 132, 131, 124, 123, 122, 121, 120, 119, 118, 111, 110, 109, 108, 107, 106, 105, 98, 97, 96, 95, 94, 93, 92, 85, 84, 83, 82, 81, 80, 79, 72, 71, 70, 69, 68, 67, 66, 59, 58, 57, 56, 55, 54, 53, 138, 137, 136, 135, 134, 133, 132, 125, 124, 123, 122, 121, 120, 119, 112, 111, 110, 109, 108, 107, 106, 99, 98, 97, 96, 95, 94, 93, 86, 85, 84, 83, 82, 81, 80, 73, 72, 71, 70, 69, 68, 67, 60, 59, 58, 57, 56, 55, 54, 139, 138, 137, 136, 135, 134, 133, 126, 125, 124, 123, 122, 121, 120, 113, 112, 111, 110, 109, 108, 107, 100, 99, 98, 97, 96, 95, 94, 87, 86, 85, 84, 83, 82, 81, 74, 73, 72, 71, 70, 69, 68, 61, 60, 59, 58, 57, 56, 55, 140, 139, 138, 137, 136, 135, 134, 127, 126, 125, 124, 123, 122, 121, 114, 113, 112, 111, 110, 109, 108, 101, 100, 99, 98, 97, 96, 95, 88, 87, 86, 85, 84, 83, 82, 75, 74, 73, 72, 71, 70, 69, 62, 61, 60, 59, 58, 57, 56, 141, 140, 139, 138, 137, 136, 135, 128, 127, 126, 125, 124, 123, 122, 115, 114, 113, 112, 111, 110, 109, 102, 101, 100, 99, 98, 97, 96, 89, 88, 87, 86, 85, 84, 83, 76, 75, 74, 73, 72, 71, 70, 63, 62, 61, 60, 59, 58, 57, 142, 141, 140, 139, 138, 137, 136, 129, 128, 127, 126, 125, 124, 123, 116, 115, 114, 113, 112, 111, 110, 103, 102, 101, 100, 99, 98, 97, 90, 89, 88, 87, 86, 85, 84, 77, 76, 75, 74, 73, 72, 71, 64, 63, 62, 61, 60, 59, 58, 149, 148, 147, 146, 145, 144, 143, 136, 135, 134, 133, 132, 131, 130, 123, 122, 121, 120, 119, 118, 117, 110, 109, 108, 107, 106, 105, 104, 97, 96, 95, 94, 93, 92, 91, 84, 83, 82, 81, 80, 79, 78, 71, 70, 69, 68, 67, 66, 65, 150, 149, 148, 147, 146, 145, 144, 137, 136, 135, 134, 133, 132, 131, 124, 123, 122, 121, 120, 119, 118, 111, 110, 109, 108, 107, 106, 105, 98, 97, 96, 95, 94, 93, 92, 85, 84, 83, 82, 81, 80, 79, 72, 71, 70, 69, 68, 67, 66, 151, 150, 149, 148, 147, 146, 145, 138, 137, 136, 135, 134, 133, 132, 125, 124, 123, 122, 121, 120, 119, 112, 111, 110, 109, 108, 107, 106, 99, 98, 97, 96, 95, 94, 93, 86, 85, 84, 83, 82, 81, 80, 73, 72, 71, 70, 69, 68, 67, 152, 151, 150, 149, 148, 147, 146, 139, 138, 137, 136, 135, 134, 133, 126, 125, 124, 123, 122, 121, 120, 113, 112, 111, 110, 109, 108, 107, 100, 99, 98, 97, 96, 95, 94, 87, 86, 85, 84, 83, 82, 81, 74, 73, 72, 71, 70, 69, 68, 153, 152, 151, 150, 149, 148, 147, 140, 139, 138, 137, 136, 135, 134, 127, 126, 125, 124, 123, 122, 121, 114, 113, 112, 111, 110, 109, 108, 101, 100, 99, 98, 97, 96, 95, 88, 87, 86, 85, 84, 83, 82, 75, 74, 73, 72, 71, 70, 69, 154, 153, 152, 151, 150, 149, 148, 141, 140, 139, 138, 137, 136, 135, 128, 127, 126, 125, 124, 123, 122, 115, 114, 113, 112, 111, 110, 109, 102, 101, 100, 99, 98, 97, 96, 89, 88, 87, 86, 85, 84, 83, 76, 75, 74, 73, 72, 71, 70, 155, 154, 153, 152, 151, 150, 149, 142, 141, 140, 139, 138, 137, 136, 129, 128, 127, 126, 125, 124, 123, 116, 115, 114, 113, 112, 111, 110, 103, 102, 101, 100, 99, 98, 97, 90, 89, 88, 87, 86, 85, 84, 77, 76, 75, 74, 73, 72, 71, 162, 161, 160, 159, 158, 157, 156, 149, 148, 147, 146, 145, 144, 143, 136, 135, 134, 133, 132, 131, 130, 123, 122, 121, 120, 119, 118, 117, 110, 109, 108, 107, 106, 105, 104, 97, 96, 95, 94, 93, 92, 91, 84, 83, 82, 81, 80, 79, 78, 163, 162, 161, 160, 159, 158, 157, 150, 149, 148, 147, 146, 145, 144, 137, 136, 135, 134, 133, 132, 131, 124, 123, 122, 121, 120, 119, 118, 111, 110, 109, 108, 107, 106, 105, 98, 97, 96, 95, 94, 93, 92, 85, 84, 83, 82, 81, 80, 79, 164, 163, 162, 161, 160, 159, 158, 151, 150, 149, 148, 147, 146, 145, 138, 137, 136, 135, 134, 133, 132, 125, 124, 123, 122, 121, 120, 119, 112, 111, 110, 109, 108, 107, 106, 99, 98, 97, 96, 95, 94, 93, 86, 85, 84, 83, 82, 81, 80, 165, 164, 163, 162, 161, 160, 159, 152, 151, 150, 149, 148, 147, 146, 139, 138, 137, 136, 135, 134, 133, 126, 125, 124, 123, 122, 121, 120, 113, 112, 111, 110, 109, 108, 107, 100, 99, 98, 97, 96, 95, 94, 87, 86, 85, 84, 83, 82, 81, 166, 165, 164, 163, 162, 161, 160, 153, 152, 151, 150, 149, 148, 147, 140, 139, 138, 137, 136, 135, 134, 127, 126, 125, 124, 123, 122, 121, 114, 113, 112, 111, 110, 109, 108, 101, 100, 99, 98, 97, 96, 95, 88, 87, 86, 85, 84, 83, 82, 167, 166, 165, 164, 163, 162, 161, 154, 153, 152, 151, 150, 149, 148, 141, 140, 139, 138, 137, 136, 135, 128, 127, 126, 125, 124, 123, 122, 115, 114, 113, 112, 111, 110, 109, 102, 101, 100, 99, 98, 97, 96, 89, 88, 87, 86, 85, 84, 83, 168, 167, 166, 165, 164, 163, 162, 155, 154, 153, 152, 151, 150, 149, 142, 141, 140, 139, 138, 137, 136, 129, 128, 127, 126, 125, 124, 123, 116, 115, 114, 113, 112, 111, 110, 103, 102, 101, 100, 99, 98, 97, 90, 89, 88, 87, 86, 85, 84], requires_grad=false}:(tensor<2401xf32>) -> tensor<2401xf32>
	%454="ufront.slice"(%452, %453){output_shape=[2401, 8]}:(tensor<169x8xf32>, tensor<2401xf32>) -> tensor<2401x8xf32>
	%455="ufront.reshape"(%454){shape=[49, 49, 8]}:(tensor<2401x8xf32>) -> tensor<49x49x8xf32>
	%456="ufront.transpose"(%455){perms=[2, 0, 1]}:(tensor<49x49x8xf32>) -> tensor<8x49x49xf32>
	%457="ufront.reshape"(%456){shape=[1, 8, 49, 49]}:(tensor<8x49x49xf32>) -> tensor<1x8x49x49xf32>
	%458="ufront.add"(%451, %457):(tensor<1x4x8x49x49xf32>, tensor<1x8x49x49xf32>) -> tensor<1x4x8x49x49xf32>
	%459="ufront.softmax"(%458):(tensor<1x4x8x49x49xf32>) -> tensor<1x4x8x49x49xf32>
	%460="ufront.call"(%459, %449){addargs=[('arg1', 'B G H I J, B G H J D -> B G H I D')], func=einsum}:(tensor<1x4x8x49x49xf32>, tensor<1x4x8x49x32xf32>) -> tensor<1x4x8x49x32xf32>
	%461="ufront.transpose"(%460){perms=[0, 1, 3, 2, 4]}:(tensor<1x4x8x49x32xf32>) -> tensor<1x4x49x8x32xf32>
	%462="ufront.reshape"(%461){shape=[1, 4, 49, 256]}:(tensor<1x4x49x8x32xf32>) -> tensor<1x4x49x256xf32>
	%463="ufront.linear"(%462):(tensor<1x4x49x256xf32>) -> tensor<1x4x49x256xf32>
	%464="ufront.dropout"(%463){rate=0.0, seed=0}:(tensor<1x4x49x256xf32>) -> tensor<1x4x49x256xf32>
	%465="ufront.call"(%464){addargs=[('p', 0.08), ('mode', 'row'), ('training', False)], func=stochastic_depth}:(tensor<1x4x49x256xf32>) -> tensor<1x4x49x256xf32>
	%466="ufront.add"(%438, %465):(tensor<1x4x49x256xf32>, tensor<1x4x49x256xf32>) -> tensor<1x4x49x256xf32>
	%467="ufront.layer_norm"(%466){elementwise_affine=true, eps=0.00001, normalized_shape=[256]}:(tensor<1x4x49x256xf32>) -> tensor<1x4x49x256xf32>
	%468="ufront.linear"(%467):(tensor<1x4x49x256xf32>) -> tensor<1x4x49x1024xf32>
	%469="ufront.gelu"(%468):(tensor<1x4x49x1024xf32>) -> tensor<1x4x49x1024xf32>
	%470="ufront.linear"(%469):(tensor<1x4x49x1024xf32>) -> tensor<1x4x49x256xf32>
	%471="ufront.dropout"(%470){rate=0.0, seed=0}:(tensor<1x4x49x256xf32>) -> tensor<1x4x49x256xf32>
	%472="ufront.call"(%471){addargs=[('p', 0.08), ('mode', 'row'), ('training', False)], func=stochastic_depth}:(tensor<1x4x49x256xf32>) -> tensor<1x4x49x256xf32>
	%473="ufront.add"(%466, %472):(tensor<1x4x49x256xf32>, tensor<1x4x49x256xf32>) -> tensor<1x4x49x256xf32>
	%474="ufront.identity"(%473):(tensor<1x4x49x256xf32>) -> tensor<1x4x49x256xf32>
	%475="ufront.reshape"(%474){shape=[1, 2, 2, 7, 7, 256]}:(tensor<1x4x49x256xf32>) -> tensor<1x2x2x7x7x256xf32>
	%476="ufront.transpose"(%475){perms=[0, 5, 1, 3, 2, 4]}:(tensor<1x2x2x7x7x256xf32>) -> tensor<1x256x2x7x2x7xf32>
	%477="ufront.reshape"(%476){shape=[1, 256, 14, 14]}:(tensor<1x256x2x7x2x7xf32>) -> tensor<1x256x14x14xf32>
	%478="ufront.reshape"(%477){shape=[1, 256, 7, 2, 7, 2]}:(tensor<1x256x14x14xf32>) -> tensor<1x256x7x2x7x2xf32>
	%479="ufront.transpose"(%478){perms=[0, 2, 4, 3, 5, 1]}:(tensor<1x256x7x2x7x2xf32>) -> tensor<1x7x7x2x2x256xf32>
	%480="ufront.reshape"(%479){shape=[1, 49, 4, 256]}:(tensor<1x7x7x2x2x256xf32>) -> tensor<1x49x4x256xf32>
	%481="ufront.call"(%480){addargs=[('arg2', -2), ('arg3', -3)], func=swapaxes}:(tensor<1x49x4x256xf32>) -> tensor<1x4x49x256xf32>
	%482="ufront.layer_norm"(%481){elementwise_affine=true, eps=0.00001, normalized_shape=[256]}:(tensor<1x4x49x256xf32>) -> tensor<1x4x49x256xf32>
	%483="ufront.linear"(%482):(tensor<1x4x49x256xf32>) -> tensor<1x4x49x768xf32>
	%484, %485, %486="ufront.chunk"(%483){axis=-1, sizes=3}:(tensor<1x4x49x768xf32>) -> tensor<1x4x49x256xf32>, tensor<1x4x49x256xf32>, tensor<1x4x49x256xf32>
	%487="ufront.reshape"(%484){shape=[1, 4, 49, 8, 32]}:(tensor<1x4x49x256xf32>) -> tensor<1x4x49x8x32xf32>
	%488="ufront.transpose"(%487){perms=[0, 1, 3, 2, 4]}:(tensor<1x4x49x8x32xf32>) -> tensor<1x4x8x49x32xf32>
	%489="ufront.reshape"(%485){shape=[1, 4, 49, 8, 32]}:(tensor<1x4x49x256xf32>) -> tensor<1x4x49x8x32xf32>
	%490="ufront.transpose"(%489){perms=[0, 1, 3, 2, 4]}:(tensor<1x4x49x8x32xf32>) -> tensor<1x4x8x49x32xf32>
	%491="ufront.reshape"(%486){shape=[1, 4, 49, 8, 32]}:(tensor<1x4x49x256xf32>) -> tensor<1x4x49x8x32xf32>
	%492="ufront.transpose"(%491){perms=[0, 1, 3, 2, 4]}:(tensor<1x4x49x8x32xf32>) -> tensor<1x4x8x49x32xf32>
	%493="ufront.smultiply"(%490){scalar=0.0625}:(tensor<1x4x8x49x32xf32>) -> tensor<1x4x8x49x32xf32>
	%494="ufront.call"(%488, %493){addargs=[('arg1', 'B G H I D, B G H J D -> B G H I J')], func=einsum}:(tensor<1x4x8x49x32xf32>, tensor<1x4x8x49x32xf32>) -> tensor<1x4x8x49x49xf32>
	%495="ufront.parameter"(%495){dtype=DataType.Float, initializer=[[… requires_grad=true}:(tensor<169x8xf32>) -> tensor<169x8xf32>
	%496="ufront.tensor"(%496){dtype=DataType.Int64, initializer=[84, 83, 82, 81, 80, 79, 78, 71, 70, 69, 68, 67, 66, 65, 58, 57, 56, 55, 54, 53, 52, 45, 44, 43, 42, 41, 40, 39, 32, 31, 30, 29, 28, 27, 26, 19, 18, 17, 16, 15, 14, 13, 6, 5, 4, 3, 2, 1, 0, 85, 84, 83, 82, 81, 80, 79, 72, 71, 70, 69, 68, 67, 66, 59, 58, 57, 56, 55, 54, 53, 46, 45, 44, 43, 42, 41, 40, 33, 32, 31, 30, 29, 28, 27, 20, 19, 18, 17, 16, 15, 14, 7, 6, 5, 4, 3, 2, 1, 86, 85, 84, 83, 82, 81, 80, 73, 72, 71, 70, 69, 68, 67, 60, 59, 58, 57, 56, 55, 54, 47, 46, 45, 44, 43, 42, 41, 34, 33, 32, 31, 30, 29, 28, 21, 20, 19, 18, 17, 16, 15, 8, 7, 6, 5, 4, 3, 2, 87, 86, 85, 84, 83, 82, 81, 74, 73, 72, 71, 70, 69, 68, 61, 60, 59, 58, 57, 56, 55, 48, 47, 46, 45, 44, 43, 42, 35, 34, 33, 32, 31, 30, 29, 22, 21, 20, 19, 18, 17, 16, 9, 8, 7, 6, 5, 4, 3, 88, 87, 86, 85, 84, 83, 82, 75, 74, 73, 72, 71, 70, 69, 62, 61, 60, 59, 58, 57, 56, 49, 48, 47, 46, 45, 44, 43, 36, 35, 34, 33, 32, 31, 30, 23, 22, 21, 20, 19, 18, 17, 10, 9, 8, 7, 6, 5, 4, 89, 88, 87, 86, 85, 84, 83, 76, 75, 74, 73, 72, 71, 70, 63, 62, 61, 60, 59, 58, 57, 50, 49, 48, 47, 46, 45, 44, 37, 36, 35, 34, 33, 32, 31, 24, 23, 22, 21, 20, 19, 18, 11, 10, 9, 8, 7, 6, 5, 90, 89, 88, 87, 86, 85, 84, 77, 76, 75, 74, 73, 72, 71, 64, 63, 62, 61, 60, 59, 58, 51, 50, 49, 48, 47, 46, 45, 38, 37, 36, 35, 34, 33, 32, 25, 24, 23, 22, 21, 20, 19, 12, 11, 10, 9, 8, 7, 6, 97, 96, 95, 94, 93, 92, 91, 84, 83, 82, 81, 80, 79, 78, 71, 70, 69, 68, 67, 66, 65, 58, 57, 56, 55, 54, 53, 52, 45, 44, 43, 42, 41, 40, 39, 32, 31, 30, 29, 28, 27, 26, 19, 18, 17, 16, 15, 14, 13, 98, 97, 96, 95, 94, 93, 92, 85, 84, 83, 82, 81, 80, 79, 72, 71, 70, 69, 68, 67, 66, 59, 58, 57, 56, 55, 54, 53, 46, 45, 44, 43, 42, 41, 40, 33, 32, 31, 30, 29, 28, 27, 20, 19, 18, 17, 16, 15, 14, 99, 98, 97, 96, 95, 94, 93, 86, 85, 84, 83, 82, 81, 80, 73, 72, 71, 70, 69, 68, 67, 60, 59, 58, 57, 56, 55, 54, 47, 46, 45, 44, 43, 42, 41, 34, 33, 32, 31, 30, 29, 28, 21, 20, 19, 18, 17, 16, 15, 100, 99, 98, 97, 96, 95, 94, 87, 86, 85, 84, 83, 82, 81, 74, 73, 72, 71, 70, 69, 68, 61, 60, 59, 58, 57, 56, 55, 48, 47, 46, 45, 44, 43, 42, 35, 34, 33, 32, 31, 30, 29, 22, 21, 20, 19, 18, 17, 16, 101, 100, 99, 98, 97, 96, 95, 88, 87, 86, 85, 84, 83, 82, 75, 74, 73, 72, 71, 70, 69, 62, 61, 60, 59, …
	%975="ufront.softmax"(%974):(tensor<1x1x16x49x49xf32>) -> tensor<1x1x16x49x49xf32>
	%976="ufront.call"(%975, %965){addargs=[('arg1', 'B G H I J, B G H J D -> B G H I D')], func=einsum}:(tensor<1x1x16x49x49xf32>, tensor<1x1x16x49x32xf32>) -> tensor<1x1x16x49x32xf32>
	%977="ufront.transpose"(%976){perms=[0, 1, 3, 2, 4]}:(tensor<1x1x16x49x32xf32>) -> tensor<1x1x49x16x32xf32>
	%978="ufront.reshape"(%977){shape=[1, 1, 49, 512]}:(tensor<1x1x49x16x32xf32>) -> tensor<1x1x49x512xf32>
	%979="ufront.linear"(%978):(tensor<1x1x49x512xf32>) -> tensor<1x1x49x512xf32>
	%980="ufront.dropout"(%979){rate=0.0, seed=0}:(tensor<1x1x49x512xf32>) -> tensor<1x1x49x512xf32>
	%981="ufront.call"(%980){addargs=[('p', 0.18), ('mode', 'row'), ('training', False)], func=stochastic_depth}:(tensor<1x1x49x512xf32>) -> tensor<1x1x49x512xf32>
	%982="ufront.add"(%954, %981):(tensor<1x1x49x512xf32>, tensor<1x1x49x512xf32>) -> tensor<1x1x49x512xf32>
	%983="ufront.layer_norm"(%982){elementwise_affine=true, eps=0.00001, normalized_shape=[512]}:(tensor<1x1x49x512xf32>) -> tensor<1x1x49x512xf32>
	%984="ufront.linear"(%983):(tensor<1x1x49x512xf32>) -> tensor<1x1x49x2048xf32>
	%985="ufront.gelu"(%984):(tensor<1x1x49x2048xf32>) -> tensor<1x1x49x2048xf32>
	%986="ufront.linear"(%985):(tensor<1x1x49x2048xf32>) -> tensor<1x1x49x512xf32>
	%987="ufront.dropout"(%986){rate=0.0, seed=0}:(tensor<1x1x49x512xf32>) -> tensor<1x1x49x512xf32>
	%988="ufront.call"(%987){addargs=[('p', 0.18), ('mode', 'row'), ('training', False)], func=stochastic_depth}:(tensor<1x1x49x512xf32>) -> tensor<1x1x49x512xf32>
	%989="ufront.add"(%982, %988):(tensor<1x1x49x512xf32>, tensor<1x1x49x512xf32>) -> tensor<1x1x49x512xf32>
	%990="ufront.identity"(%989):(tensor<1x1x49x512xf32>) -> tensor<1x1x49x512xf32>
	%991="ufront.reshape"(%990){shape=[1, 1, 1, 7, 7, 512]}:(tensor<1x1x49x512xf32>) -> tensor<1x1x1x7x7x512xf32>
	%992="ufront.transpose"(%991){perms=[0, 5, 1, 3, 2, 4]}:(tensor<1x1x1x7x7x512xf32>) -> tensor<1x512x1x7x1x7xf32>
	%993="ufront.reshape"(%992){shape=[1, 512, 7, 7]}:(tensor<1x512x1x7x1x7xf32>) -> tensor<1x512x7x7xf32>
	%994="ufront.reshape"(%993){shape=[1, 512, 7, 1, 7, 1]}:(tensor<1x512x7x7xf32>) -> tensor<1x512x7x1x7x1xf32>
	%995="ufront.transpose"(%994){perms=[0, 2, 4, 3, 5, 1]}:(tensor<1x512x7x1x7x1xf32>) -> tensor<1x7x7x1x1x512xf32>
	%996="ufront.reshape"(%995){shape=[1, 49, 1, 512]}:(tensor<1x7x7x1x1x512xf32>) -> tensor<1x49x1x512xf32>
	%997="ufront.call"(%996){addargs=[('arg2', -2), ('arg3', -3)], func=swapaxes}:(tensor<1x49x1x512xf32>) -> tensor<1x1x49x512xf32>
	%998="ufront.layer_norm"(%997){elementwise_affine=true, eps=0.00001, normalized_shape=[512]}:(tensor<1x1x49x512xf32>) -> tensor<1x1x49x512xf32>
	%999="ufront.linear"(%998):(tensor<1x1x49x512xf32>) -> tensor<1x1x49x1536xf32>
	%1000, %1001, %1002="ufront.chunk"(%999){axis=-1, sizes=3}:(tensor<1x1x49x1536xf32>) -> tensor<1x1x49x512xf32>, tensor<1x1x49x512xf32>, tensor<1x1x49x512xf32>
	%1003="ufront.reshape"(%1000){shape=[1, 1, 49, 16, 32]}:(tensor<1x1x49x512xf32>) -> tensor<1x1x49x16x32xf32>
	%1004="ufront.transpose"(%1003){perms=[0, 1, 3, 2, 4]}:(tensor<1x1x49x16x32xf32>) -> tensor<1x1x16x49x32xf32>
	%1005="ufront.reshape"(%1001){shape=[1, 1, 49, 16, 32]}:(tensor<1x1x49x512xf32>) -> tensor<1x1x49x16x32xf32>
	%1006="ufront.transpose"(%1005){perms=[0, 1, 3, 2, 4]}:(tensor<1x1x49x16x32xf32>) -> tensor<1x1x16x49x32xf32>
	%1007="ufront.reshape"(%1002){shape=[1, 1, 49, 16, 32]}:(tensor<1x1x49x512xf32>) -> tensor<1x1x49x16x32xf32>
	%1008="ufront.transpose"(%1007){perms=[0, 1, 3, 2, 4]}:(tensor<1x1x49x16x32xf32>) -> tensor<1x1x16x49x32xf32>
	%1009="ufront.smultiply"(%1006){scalar=0.04419417382415922}:(tensor<1x1x16x49x32xf32>) -> tensor<1x1x16x49x32xf32>
	%1010="ufront.call"(%1004, %1009){addargs=[('arg1', 'B G H I D, B G H J D -> B G H I J')], func=einsum}:(tensor<1x1x16x49x32xf32>, tensor<1x1x16x49x32xf32>) -> tensor<1x1x16x49x49xf32>
	%1011="ufront.parameter"(%1011){dtype=DataType.Float, initializer=[[… requires_grad=true}:(tensor<169x16xf32>) -> tensor<169x16xf32>
	%1012="ufront.tensor"(%1012){dtype=DataType.Int64, initializer=[84, 83, 82, 81, 80, 79, 78, 71, 70, 69, 68, 67, 66, 65, 58, 57, 56, 55, 54, 53, 52, 45, 44, 43, 42, 41, 40, 39, 32, 31, 30, 29, 28, 27, 26, 19, 18, 17, 16, 15, 14, 13, 6, 5, 4, 3, 2, 1, 0, 85, 84, 83, 82, 81, 80, 79, 72, 71, 70, 69, 68, 67, 66, 59, 58, 57, 56, 55, 54, 53, 46, 45, 44, 43, 42, 41, 40, 33, 32, 31, 30, 29, 28, 27, 20, 19, 18, 17, 16, 15, 14, 7, 6, 5, 4, 3, 2, 1, 86, 85, 84, 83, 82, 81, 80, 73, 72, 71, 70, 69, 68, 67, 60, 59, 58, 57, 56, 55, 54, 47, 46, 45, 44, 43, 42, 41, 34, 33, 32, 31, 30, 29, 28, 21, 20, 19, 18, 17, 16, 15, 8, 7, 6, 5, 4, 3, 2, 87, 86, 85, 84, 83, 82, 81, 74, 73, 72, 71, 70, 69, 68, 61, 60, 59, 58, 57, 56, 55, 48, 47, 46, 45, 44, 43, 42, 35, 34, 33, 32, 31, 30, 29, 22, 21, 20, 19, 18, 17, 16, 9, 8, 7, 6, 5, 4, 3, 88, 87, 86, 85, 84, 83, 82, 75, 74, 73, 72, 71, 70, 69, 62, 61, 60, 59, 58, 57, 56, 49, 48, 47, 46, 45, 44, 43, 36, 35, 34, 33, 32, 31, 30, 23, 22, 21, 20, 19, 18, 17, 10, 9, 8, 7, 6, 5, 4, 89, 88, 87, 86, 85, 84, 83, 76, 75, 74, 73, 72, 71, 70, 63, 62, 61, 60, 59, 58, 57, 50, 49, 48, 47, 46, 45, 44, 37, 36, 35, 34, 33, 32, 31, 24, 23, 22, 21, 20, 19, 18, 11, 10, 9, 8, 7, 6, 5, 90, 89, 88, 87, 86, 85, 84, 77, 76, 75, 74, 73, 72, 71, 64, 63, 62, 61, 60, 59, 58, 51, 50, 49, 48, 47, 46, 45, 38, 37, 36, 35, 34, 33, 32, 25, 24, 23, 22, 21, 20, 19, 12, 11, 10, 9, 8, 7, 6, 97, 96, 95, 94, 93, 92, 91, 84, 83, 82, 81, 80, 79, 78, 71, 70, 69, 68, 67, 66, 65, 58, 57, 56, 55, 54, 53, 52, 45, 44, 43, 42, 41, 40, 39, 32, 31, 30, 29, 28, 27, 26, 19, 18, 17, 16, 15, 14, 13, 98, 97, 96, 95, 94, 93, 92, 85, 84, 83, 82, 81, 80, 79, 72, 71, 70, 69, 68, 67, 66, 59, 58, 57, 56, 55, 54, 53, 46, 45, 44, 43, 42, 41, 40, 33, 32, 31, 30, 29, 28, 27, 20, 19, 18, 17, 16, 15, 14, 99, 98, 97, 96, 95, 94, 93, 86, 85, 84, 83, 82, 81, 80, 73, 72, 71, 70, 69, 68, 67, 60, 59, 58, 57, 56, 55, 54, 47, 46, 45, 44, 43, 42, 41, 34, 33, 32, 31, 30, 29, 28, 21, 20, 19, 18, 17, 16, 15, 100, 99, 98, 97, 96, 95, 94, 87, 86, 85, 84, 83, 82, 81, 74, 73, 72, 71, 70, 69, 68, 61, 60, 59, 58, 57, 56, 55, 48, 47, 46, 45, 44, 43, 42, 35, 34, 33, 32, 31, 30, 29, 22, 21, 20, 19, 18, 17, 16, 101, 100, 99, 98, 97, 96, 95, 88, 87, 86, 85, 84, 83, 82, 75, 74, 73, 72, 71, 70, 69, 62, 61, 60, 59, 58, 57, 56, 49, 48, 47, 46, 45, 44, 43, 36, 35, 34, 33, 32, 31, 30, 23, 22, 21, 20, 19, 18, 17, 102, 101, 100, 99, 98, 97, 96, 89, 88, 87, 86, 85, 84, 83, 76, 75, 74, 73, 72, 71, 70, 63, 62, 61, 60, 59, 58, 57, 50, 49, 48, 47, 46, 45, 44, 37, 36, 35, 34, 33, 32, 31, 24, 23, 22, 21, 20, 19, 18, 103, 102, 101, 100, 99, 98, 97, 90, 89, 88, 87, 86, 85, 84, 77, 76, 75, 74, 73, 72, 71, 64, 63, 62, 61, 60, 59, 58, 51, 50, 49, 48, 47, 46, 45, 38, 37, 36, 35, 34, 33, 32, 25, 24, 23, 22, 21, 20, 19, 110, 109, 108, 107, 106, 105, 104, 97, 96, 95, 94, 93, 92, 91, 84, 83, 82, 81, 80, 79, 78, 71, 70, 69, 68, 67, 66, 65, 58, 57, 56, 55, 54, 53, 52, 45, 44, 43, 42, 41, 40, 39, 32, 31, 30, 29, 28, 27, 26, 111, 110, 109, 108, 107, 106, 105, 98, 97, 96, 95, 94, 93, 92, 85, 84, 83, 82, 81, 80, 79, 72, 71, 70, 69, 68, 67, 66, 59, 58, 57, 56, 55, 54, 53, 46, 45, 44, 43, 42, 41, 40, 33, 32, 31, 30, 29, 28, 27, 112, 111, 110, 109, 108, 107, 106, 99, 98, 97, 96, 95, 94, 93, 86, 85, 84, 83, 82, 81, 80, 73, 72, 71, 70, 69, 68, 67, 60, 59, 58, 57, 56, 55, 54, 47, 46, 45, 44, 43, 42, 41, 34, 33, 32, 31, 30, 29, 28, 113, 112, 111, 110, 109, 108, 107, 100, 99, 98, 97, 96, 95, 94, 87, 86, 85, 84, 83, 82, 81, 74, 73, 72, 71, 70, 69, 68, 61, 60, 59, 58, 57, 56, 55, 48, 47, 46, 45, 44, 43, 42, 35, 34, 33, 32, 31, 30, 29, 114, 113, 112, 111, 110, 109, 108, 101, 100, 99, 98, 97, 96, 95, 88, 87, 86, 85, 84, 83, 82, 75, 74, 73, 72, 71, 70, 69, 62, 61, 60, 59, 58, 57, 56, 49, 48, 47, 46, 45, 44, 43, 36, 35, 34, 33, 32, 31, 30, 115, 114, 113, 112, 111, 110, 109, 102, 101, 100, 99, 98, 97, 96, 89, 88, 87, 86, 85, 84, 83, 76, 75, 74, 73, 72, 71, 70, 63, 62, 61, 60, 59, 58, 57, 50, 49, 48, 47, 46, 45, 44, 37, 36, 35, 34, 33, 32, 31, 116, 115, 114, 113, 112, 111, 110, 103, 102, 101, 100, 99, 98, 97, 90, 89, 88, 87, 86, 85, 84, 77, 76, 75, 74, 73, 72, 71, 64, 63, 62, 61, 60, 59, 58, 51, 50, 49, 48, 47, 46, 45, 38, 37, 36, 35, 34, 33, 32, 123, 122, 121, 120, 119, 118, 117, 110, 109, 108, 107, 106, 105, 104, 97, 96, 95, 94, 93, 92, 91, 84, 83, 82, 81, 80, 79, 78, 71, 70, 69, 68, 67, 66, 65, 58, 57, 56, 55, 54, 53, 52, 45, 44, 43, 42, 41, 40, 39, 124, 123, 122, 121, 120, 119, 118, 111, 110, 109, 108, 107, 106, 105, 98, 97, 96, 95, 94, 93, 92, 85, 84, 83, 82, 81, 80, 79, 72, 71, 70, 69, 68, 67, 66, 59, 58, 57, 56, 55, 54, 53, 46, 45, 44, 43, 42, 41, 40, 125, 124, 123, 122, 121, 120, 119, 112, 111, 110, 109, 108, 107, 106, 99, 98, 97, 96, 95, 94, 93, 86, 85, 84, 83, 82, 81, 80, 73, 72, 71, 70, 69, 68, 67, 60, 59, 58, 57, 56, 55, 54, 47, 46, 45, 44, 43, 42, 41, 126, 125, 124, 123, 122, 121, 120, 113, 112, 111, 110, 109, 108, 107, 100, 99, 98, 97, 96, 95, 94, 87, 86, 85, 84, 83, 82, 81, 74, 73, 72, 71, 70, 69, 68, 61, 60, 59, 58, 57, 56, 55, 48, 47, 46, 45, 44, 43, 42, 127, 126, 125, 124, 123, 122, 121, 114, 113, 112, 111, 110, 109, 108, 101, 100, 99, 98, 97, 96, 95, 88, 87, 86, 85, 84, 83, 82, 75, 74, 73, 72, 71, 70, 69, 62, 61, 60, 59, 58, 57, 56, 49, 48, 47, 46, 45, 44, 43, 128, 127, 126, 125, 124, 123, 122, 115, 114, 113, 112, 111, 110, 109, 102, 101, 100, 99, 98, 97, 96, 89, 88, 87, 86, 85, 84, 83, 76, 75, 74, 73, 72, 71, 70, 63, 62, 61, 60, 59, 58, 57, 50, 49, 48, 47, 46, 45, 44, 129, 128, 127, 126, 125, 124, 123, 116, 115, 114, 113, 112, 111, 110, 103, 102, 101, 100, 99, 98, 97, 90, 89, 88, 87, 86, 85, 84, 77, 76, 75, 74, 73, 72, 71, 64, 63, 62, 61, 60, 59, 58, 51, 50, 49, 48, 47, 46, 45, 136, 135, 134, 133, 132, 131, 130, 123, 122, 121, 120, 119, 118, 117, 110, 109, 108, 107, 106, 105, 104, 97, 96, 95, 94, 93, 92, 91, 84, 83, 82, 81, 80, 79, 78, 71, 70, 69, 68, 67, 66, 65, 58, 57, 56, 55, 54, 53, 52, 137, 136, 135, 134, 133, 132, 131, 124, 123, 122, 121, 120, 119, 118, 111, 110, 109, 108, 107, 106, 105, 98, 97, 96, 95, 94, 93, 92, 85, 84, 83, 82, 81, 80, 79, 72, 71, 70, 69, 68, 67, 66, 59, 58, 57, 56, 55, 54, 53, 138, 137, 136, 135, 134, 133, 132, 125, 124, 123, 122, 121, 120, 119, 112, 111, 110, 109, 108, 107, 106, 99, 98, 97, 96, 95, 94, 93, 86, 85, 84, 83, 82, 81, 80, 73, 72, 71, 70, 69, 68, 67, 60, 59, 58, 57, 56, 55, 54, 139, 138, 137, 136, 135, 134, 133, 126, 125, 124, 123, 122, 121, 120, 113, 112, 111, 110, 109, 108, 107, 100, 99, 98, 97, 96, 95, 94, 87, 86, 85, 84, 83, 82, 81, 74, 73, 72, 71, 70, 69, 68, 61, 60, 59, 58, 57, 56, 55, 140, 139, 138, 137, 136, 135, 134, 127, 126, 125, 124, 123, 122, 121, 114, 113, 112, 111, 110, 109, 108, 101, 100, 99, 98, 97, 96, 95, 88, 87, 86, 85, 84, 83, 82, 75, 74, 73, 72, 71, 70, 69, 62, 61, 60, 59, 58, 57, 56, 141, 140, 139, 138, 137, 136, 135, 128, 127, 126, 125, 124, 123, 122, 115, 114, 113, 112, 111, 110, 109, 102, 101, 100, 99, 98, 97, 96, 89, 88, 87, 86, 85, 84, 83, 76, 75, 74, 73, 72, 71, 70, 63, 62, 61, 60, 59, 58, 57, 142, 141, 140, 139, 138, 137, 136, 129, 128, 127, 126, 125, 124, 123, 116, 115, 114, 113, 112, 111, 110, 103, 102, 101, 100, 99, 98, 97, 90, 89, 88, 87, 86, 85, 84, 77, 76, 75, 74, 73, 72, 71, 64, 63, 62, 61, 60, 59, 58, 149, 148, 147, 146, 145, 144, 143, 136, 135, 134, 133, 132, 131, 130, 123, 122, 121, 120, 119, 118, 117, 110, 109, 108, 107, 106, 105, 104, 97, 96, 95, 94, 93, 92, 91, 84, 83, 82, 81, 80, 79, 78, 71, 70, 69, 68, 67, 66, 65, 150, 149, 148, 147, 146, 145, 144, 137, 136, 135, 134, 133, 132, 131, 124, 123, 122, 121, 120, 119, 118, 111, 110, 109, 108, 107, 106, 105, 98, 97, 96, 95, 94, 93, 92, 85, 84, 83, 82, 81, 80, 79, 72, 71, 70, 69, 68, 67, 66, 151, 150, 149, 148, 147, 146, 145, 138, 137, 136, 135, 134, 133, 132, 125, 124, 123, 122, 121, 120, 119, 112, 111, 110, 109, 108, 107, 106, 99, 98, 97, 96, 95, 94, 93, 86, 85, 84, 83, 82, 81, 80, 73, 72, 71, 70, 69, 68, 67, 152, 151, 150, 149, 148, 147, 146, 139, 138, 137, 136, 135, 134, 133, 126, 125, 124, 123, 122, 121, 120, 113, 112, 111, 110, 109, 108, 107, 100, 99, 98, 97, 96, 95, 94, 87, 86, 85, 84, 83, 82, 81, 74, 73, 72, 71, 70, 69, 68, 153, 152, 151, 150, 149, 148, 147, 140, 139, 138, 137, 136, 135, 134, 127, 126, 125, 124, 123, 122, 121, 114, 113, 112, 111, 110, 109, 108, 101, 100, 99, 98, 97, 96, 95, 88, 87, 86, 85, 84, 83, 82, 75, 74, 73, 72, 71, 70, 69, 154, 153, 152, 151, 150, 149, 148, 141, 140, 139, 138, 137, 136, 135, 128, 127, 126, 125, 124, 123, 122, 115, 114, 113, 112, 111, 110, 109, 102, 101, 100, 99, 98, 97, 96, 89, 88, 87, 86, 85, 84, 83, 76, 75, 74, 73, 72, 71, 70, 155, 154, 153, 152, 151, 150, 149, 142, 141, 140, 139, 138, 137, 136, 129, 128, 127, 126, 125, 124, 123, 116, 115, 114, 113, 112, 111, 110, 103, 102, 101, 100, 99, 98, 97, 90, 89, 88, 87, 86, 85, 84, 77, 76, 75, 74, 73, 72, 71, 162, 161, 160, 159, 158, 157, 156, 149, 148, 147, 146, 145, 144, 143, 136, 135, 134, 133, 132, 131, 130, 123, 122, 121, 120, 119, 118, 117, 110, 109, 108, 107, 106, 105, 104, 97, 96, 95, 94, 93, 92, 91, 84, 83, 82, 81, 80, 79, 78, 163, 162, 161, 160, 159, 158, 157, 150, 149, 148, 147, 146, 145, 144, 137, 136, 135, 134, 133, 132, 131, 124, 123, 122, 121, 120, 119, 118, 111, 110, 109, 108, 107, 106, 105, 98, 97, 96, 95, 94, 93, 92, 85, 84, 83, 82, 81, 80, 79, 164, 163, 162, 161, 160, 159, 158, 151, 150, 149, 148, 147, 146, 145, 138, 137, 136, 135, 134, 133, 132, 125, 124, 123, 122, 121, 120, 119, 112, 111, 110, 109, 108, 107, 106, 99, 98, 97, 96, 95, 94, 93, 86, 85, 84, 83, 82, 81, 80, 165, 164, 163, 162, 161, 160, 159, 152, 151, 150, 149, 148, 147, 146, 139, 138, 137, 136, 135, 134, 133, 126, 125, 124, 123, 122, 121, 120, 113, 112, 111, 110, 109, 108, 107, 100, 99, 98, 97, 96, 95, 94, 87, 86, 85, 84, 83, 82, 81, 166, 165, 164, 163, 162, 161, 160, 153, 152, 151, 150, 149, 148, 147, 140, 139, 138, 137, 136, 135, 134, 127, 126, 125, 124, 123, 122, 121, 114, 113, 112, 111, 110, 109, 108, 101, 100, 99, 98, 97, 96, 95, 88, 87, 86, 85, 84, 83, 82, 167, 166, 165, 164, 163, 162, 161, 154, 153, 152, 151, 150, 149, 148, 141, 140, 139, 138, 137, 136, 135, 128, 127, 126, 125, 124, 123, 122, 115, 114, 113, 112, 111, 110, 109, 102, 101, 100, 99, 98, 97, 96, 89, 88, 87, 86, 85, 84, 83, 168, 167, 166, 165, 164, 163, 162, 155, 154, 153, 152, 151, 150, 149, 142, 141, 140, 139, 138, 137, 136, 129, 128, 127, 126, 125, 124, 123, 116, 115, 114, 113, 112, 111, 110, 103, 102, 101, 100, 99, 98, 97, 90, 89, 88, 87, 86, 85, 84], requires_grad=false}:(tensor<2401xf32>) -> tensor<2401xf32>
	%1013="ufront.slice"(%1011, %1012){output_shape=[2401, 16]}:(tensor<169x16xf32>, tensor<2401xf32>) -> tensor<2401x16xf32>
	%1014="ufront.reshape"(%1013){shape=[49, 49, 16]}:(tensor<2401x16xf32>) -> tensor<49x49x16xf32>
	%1015="ufront.transpose"(%1014){perms=[2, 0, 1]}:(tensor<49x49x16xf32>) -> tensor<16x49x49xf32>
	%1016="ufront.reshape"(%1015){shape=[1, 16, 49, 49]}:(tensor<16x49x49xf32>) -> tensor<1x16x49x49xf32>
	%1017="ufront.add"(%1010, %1016):(tensor<1x1x16x49x49xf32>, tensor<1x16x49x49xf32>) -> tensor<1x1x16x49x49xf32>
	%1018="ufront.softmax"(%1017):(tensor<1x1x16x49x49xf32>) -> tensor<1x1x16x49x49xf32>
	%1019="ufront.call"(%1018, %1008){addargs=[('arg1', 'B G H I J, B G H J D -> B G H I D')], func=einsum}:(tensor<1x1x16x49x49xf32>, tensor<1x1x16x49x32xf32>) -> tensor<1x1x16x49x32xf32>
	%1020="ufront.transpose"(%1019){perms=[0, 1, 3, 2, 4]}:(tensor<1x1x16x49x32xf32>) -> tensor<1x1x49x16x32xf32>
	%1021="ufront.reshape"(%1020){shape=[1, 1, 49, 512]}:(tensor<1x1x49x16x32xf32>) -> tensor<1x1x49x512xf32>
	%1022="ufront.linear"(%1021):(tensor<1x1x49x512xf32>) -> tensor<1x1x49x512xf32>
	%1023="ufront.dropout"(%1022){rate=0.0, seed=0}:(tensor<1x1x49x512xf32>) -> tensor<1x1x49x512xf32>
	%1024="ufront.call"(%1023){addargs=[('p', 0.18), ('mode', 'row'), ('training', False)], func=stochastic_depth}:(tensor<1x1x49x512xf32>) -> tensor<1x1x49x512xf32>
	%1025="ufront.add"(%997, %1024):(tensor<1x1x49x512xf32>, tensor<1x1x49x512xf32>) -> tensor<1x1x49x512xf32>
	%1026="ufront.layer_norm"(%1025){elementwise_affine=true, eps=0.00001, normalized_shape=[512]}:(tensor<1x1x49x512xf32>) -> tensor<1x1x49x512xf32>
	%1027="ufront.linear"(%1026):(tensor<1x1x49x512xf32>) -> tensor<1x1x49x2048xf32>
	%1028="ufront.gelu"(%1027):(tensor<1x1x49x2048xf32>) -> tensor<1x1x49x2048xf32>
	%1029="ufront.linear"(%1028):(tensor<1x1x49x2048xf32>) -> tensor<1x1x49x512xf32>
	%1030="ufront.dropout"(%1029){rate=0.0, seed=0}:(tensor<1x1x49x512xf32>) -> tensor<1x1x49x512xf32>
	%1031="ufront.call"(%1030){addargs=[('p', 0.18), ('mode', 'row'), ('training', False)], func=stochastic_depth}:(tensor<1x1x49x512xf32>) -> tensor<1x1x49x512xf32>
	%1032="ufront.add"(%1025, %1031):(tensor<1x1x49x512xf32>, tensor<1x1x49x512xf32>) -> tensor<1x1x49x512xf32>
	%1033="ufront.call"(%1032){addargs=[('arg2', -2), ('arg3', -3)], func=swapaxes}:(tensor<1x1x49x512xf32>) -> tensor<1x49x1x512xf32>
	%1034="ufront.reshape"(%1033){shape=[1, 7, 7, 1, 1, 512]}:(tensor<1x49x1x512xf32>) -> tensor<1x7x7x1x1x512xf32>
	%1035="ufront.transpose"(%1034){perms=[0, 5, 1, 3, 2, 4]}:(tensor<1x7x7x1x1x512xf32>) -> tensor<1x512x7x1x7x1xf32>
	%1036="ufront.reshape"(%1035){shape=[1, 512, 7, 7]}:(tensor<1x512x7x1x7x1xf32>) -> tensor<1x512x7x7xf32>
	%1037="ufront.identity"(%1036):(tensor<1x512x7x7xf32>) -> tensor<1x512x7x7xf32>
	%1038="ufront.batchnorm"(%1036){affine=true, eps=0.001, momentum=0.99, track_running_stats=true}:(tensor<1x512x7x7xf32>) -> tensor<1x512x7x7xf32>
	%1039="ufront.conv2d"(%1038){groups=1, kernel=[1, 1], pad=[0, 0], stride=[1, 1]}:(tensor<1x512x7x7xf32>) -> tensor<1x2048x7x7xf32>
	%1040="ufront.batchnorm"(%1039){affine=true, eps=0.001, momentum=0.99, track_running_stats=true}:(tensor<1x2048x7x7xf32>) -> tensor<1x2048x7x7xf32>
	%1041="ufront.gelu"(%1040):(tensor<1x2048x7x7xf32>) -> tensor<1x2048x7x7xf32>
	%1042="ufront.conv2d"(%1041){groups=2048, kernel=[3, 3], pad=[1, 1], stride=[1, 1]}:(tensor<1x2048x7x7xf32>) -> tensor<1x2048x7x7xf32>
	%1043="ufront.batchnorm"(%1042){affine=true, eps=0.001, momentum=0.99, track_running_stats=true}:(tensor<1x2048x7x7xf32>) -> tensor<1x2048x7x7xf32>
	%1044="ufront.gelu"(%1043):(tensor<1x2048x7x7xf32>) -> tensor<1x2048x7x7xf32>
	%1045="ufront.pool2d"(%1044){output_size=[1, 1], pool_type="POOL_ADAPTIVE"}:(tensor<1x2048x7x7xf32>) -> tensor<1x2048x1x1xf32>
	%1046="ufront.conv2d"(%1045){groups=1, kernel=[1, 1], pad=[0, 0], stride=[1, 1]}:(tensor<1x2048x1x1xf32>) -> tensor<1x128x1x1xf32>
	%1047="ufront.silu"(%1046):(tensor<1x128x1x1xf32>) -> tensor<1x128x1x1xf32>
	%1048="ufront.conv2d"(%1047){groups=1, kernel=[1, 1], pad=[0, 0], stride=[1, 1]}:(tensor<1x128x1x1xf32>) -> tensor<1x2048x1x1xf32>
	%1049="ufront.sigmoid"(%1048):(tensor<1x2048x1x1xf32>) -> tensor<1x2048x1x1xf32>
	%1050="ufront.multiply"(%1049, %1044):(tensor<1x2048x1x1xf32>, tensor<1x2048x7x7xf32>) -> tensor<1x2048x7x7xf32>
	%1051="ufront.conv2d"(%1050){groups=1, kernel=[1, 1], pad=[0, 0], stride=[1, 1]}:(tensor<1x2048x7x7xf32>) -> tensor<1x512x7x7xf32>
	%1052="ufront.call"(%1051){addargs=[('p', 0.2), ('mode', 'row'), ('training', False)], func=stochastic_depth}:(tensor<1x512x7x7xf32>) -> tensor<1x512x7x7xf32>
	%1053="ufront.add"(%1037, %1052):(tensor<1x512x7x7xf32>, tensor<1x512x7x7xf32>) -> tensor<1x512x7x7xf32>
	%1054="ufront.reshape"(%1053){shape=[1, 512, 1, 7, 1, 7]}:(tensor<1x512x7x7xf32>) -> tensor<1x512x1x7x1x7xf32>
	%1055="ufront.transpose"(%1054){perms=[0, 2, 4, 3, 5, 1]}:(tensor<1x512x1x7x1x7xf32>) -> tensor<1x1x1x7x7x512xf32>
	%1056="ufront.reshape"(%1055){shape=[1, 1, 49, 512]}:(tensor<1x1x1x7x7x512xf32>) -> tensor<1x1x49x512xf32>
	%1057="ufront.identity"(%1056):(tensor<1x1x49x512xf32>) -> tensor<1x1x49x512xf32>
	%1058="ufront.layer_norm"(%1057){elementwise_affine=true, eps=0.00001, normalized_shape=[512]}:(tensor<1x1x49x512xf32>) -> tensor<1x1x49x512xf32>
	%1059="ufront.linear"(%1058):(tensor<1x1x49x512xf32>) -> tensor<1x1x49x1536xf32>
	%1060, %1061, %1062="ufront.chunk"(%1059){axis=-1, sizes=3}:(tensor<1x1x49x1536xf32>) -> tensor<1x1x49x512xf32>, tensor<1x1x49x512xf32>, tensor<1x1x49x512xf32>
	%1063="ufront.reshape"(%1060){shape=[1, 1, 49, 16, 32]}:(tensor<1x1x49x512xf32>) -> tensor<1x1x49x16x32xf32>
	%1064="ufront.transpose"(%1063){perms=[0, 1, 3, 2, 4]}:(tensor<1x1x49x16x32xf32>) -> tensor<1x1x16x49x32xf32>
	%1065="ufront.reshape"(%1061){shape=[1, 1, 49, 16, 32]}:(tensor<1x1x49x512xf32>) -> tensor<1x1x49x16x32xf32>
	%1066="ufront.transpose"(%1065){perms=[0, 1, 3, 2, 4]}:(tensor<1x1x49x16x32xf32>) -> tensor<1x1x16x49x32xf32>
	%1067="ufront.reshape"(%1062){shape=[1, 1, 49, 16, 32]}:(tensor<1x1x49x512xf32>) -> tensor<1x1x49x16x32xf32>
	%1068="ufront.transpose"(%1067){perms=[0, 1, 3, 2, 4]}:(tensor<1x1x49x16x32xf32>) -> tensor<1x1x16x49x32xf32>
	%1069="ufront.smultiply"(%1066){scalar=0.04419417382415922}:(tensor<1x1x16x49x32xf32>) -> tensor<1x1x16x49x32xf32>
	%1070="ufront.call"(%1064, %1069){addargs=[('arg1', 'B G H I D, B G H J D -> B G H I J')], func=einsum}:(tensor<1x1x16x49x32xf32>, tensor<1x1x16x49x32xf32>) -> tensor<1x1x16x49x49xf32>
	%1071="ufront.parameter"(%1071){dtype=DataType.Float, initializer=[[… requires_grad=true}:(tensor<169x16xf32>) -> tensor<169x16xf32>
	%1072="ufront.tensor"(%1072){dtype=DataType.Int64, initializer=[84, 83, 82, 81, 80, 79, 78, 71, 70, 69, 68, 67, 66, 65, 58, 57, 56, 55, 54, 53, 52, 45, 44, 43, 42, 41, 40, 39, 32, 31, 30, 29, 28, 27, 26, 19, 18, 17, 16, 15, 14, 13, 6, 5, 4, 3, 2, 1, 0, 85, 84, 83, 82, 81, 80, 79, 72, 71, 70, 69, 68, 67, 66, 59, 58, 57, 56, 55, 54, 53, 46, 45, 44, 43, 42, 41, 40, 33, 32, 31, 30, 29, 28, 27, 20, 19, 18, 17, 16, 15, 14, 7, 6, 5, 4, 3, 2, 1, 86, 85, 84, 83, 82, 81, 80, 73, 72, 71, 70, 69, 68, 67, 60, 59, 58, 57, 56, 55, 54, 47, 46, 45, 44, 43, 42, 41, 34, 33, 32, 31, 30, 29, 28, 21, 20, 19, 18, 17, 16, 15, 8, 7, 6, 5, 4, 3, 2, 87, 86, 85, 84, 83, 82, 81, 74, 73, 72, 71, 70, 69, 68, 61, 60, 59, 58, 57, 56, 55, 48, 47, 46, 45, 44, 43, 42, 35, 34, 33, 32, 31, 30, 29, 22, 21, 20, 19, 18, 17, 16, 9, 8, 7, 6, 5, 4, 3, 88, 87, 86, 85, 84, 83, 82, 75, 74, 73, 72, 71, 70, 69, 62, 61, 60, 59, 58, 57, 56, 49, 48, 47, 46, 45, 44, 43, 36, 35, 34, 33, 32, 31, 30, 23, 22, 21, 20, 19, 18, 17, 10, 9, 8, 7, 6, 5, 4, 89, 88, 87, 86, 85, 84, 83, 76, 75, 74, 73, 72, 71, 70, 63, 62, 61, 60, 59, 58, 57, 50, 49, 48, 47, 46, 45, 44, 37, 36, 35, 34, 33, 32, 31, 24, 23, 22, 21, 20, 19, 18, 11, 10, 9, 8, 7, 6, 5, 90, 89, 88, 87, 86, 85, 84, 77, 76, 75, 74, 73, 72, 71, 64, 63, 62, 61, 60, 59, 58, 51, 50, 49, 48, 47, 46, 45, 38, 37, 36, 35, 34, 33, 32, 25, 24, 23, 22, 21, 20, 19, 12, 11, 10, 9, 8, 7, 6, 97, 96, 95, 94, 93, 92, 91, 84, 83, 82, 81, 80, 79, 78, 71, 70, 69, 68, 67, 66, 65, 58, 57, 56, 55, 54, 53, 52, 45, 44, 43, 42, 41, 40, 39, 32, 31, 30, 29, 28, 27, 26, 19, 18, 17, 16, 15, 14, 13, 98, 97, 96, 95, 94, 93, 92, 85, 84, 83, 82, 81, 80, 79, 72, 71, 70, 69, 68, 67, 66, 59, 58, 57, 56, 55, 54, 53, 46, 45, 44, 43, 42, 41, 40, 33, 32, 31, 30, 29, 28, 27, 20, 19, 18, 17, 16, 15, 14, 99, 98, 97, 96, 95, 94, 93, 86, 85, 84, 83, 82, 81, 80, 73, 72, 71, 70, 69, 68, 67, 60, 59, 58, 57, 56, 55, 54, 47, 46, 45, 44, 43, 42, 41, 34, 33, 32, 31, 30, 29, 28, 21, 20, 19, 18, 17, 16, 15, 100, 99, 98, 97, 96, 95, 94, 87, 86, 85, 84, 83, 82, 81, 74, 73, 72, 71, 70, 69, 68, 61, 60, 59, 58, 57, 56, 55, 48, 47, 46, 45, 44, 43, 42, 35, 34, 33, 32, 31, 30, 29, 22, 21, 20, 19, 18, 17, 16, 101, 100, 99, 98, 97, 96, 95, 88, 87, 86, 85, 84, 83, 82, 75, 74, 73, 72, 71, 70, 69, 62, 61, 60, 59, 58, 57, 56, 49, 48, 47, 46, 45, 44, 43, 36, 35, 34, 33, 32, 31, 30, 23, 22, 21, 20, 19, 18, 17, 102, 101, 100, 99, 98, 97, 96, 89, 88, 87, 86, 85, 84, 83, 76, 75, 74, 73, 72, 71, 70, 63, 62, 61, 60, 59, 58, 57, 50, 49, 48, 47, 46, 45, 44, 37, 36, 35, 34, 33, 32, 31, 24, 23, 22, 21, 20, 19, 18, 103, 102, 101, 100, 99, 98, 97, 90, 89, 88, 87, 86, 85, 84, 77, 76, 75, 74, 73, 72, 71, 64, 63, 62, 61, 60, 59, 58, 51, 50, 49, 48, 47, 46, 45, 38, 37, 36, 35, 34, 33, 32, 25, 24, 23, 22, 21, 20, 19, 110, 109, 108, 107, 106, 105, 104, 97, 96, 95, 94, 93, 92, 91, 84, 83, 82, 81, 80, 79, 78, 71, 70, 69, 68, 67, 66, 65, 58, 57, 56, 55, 54, 53, 52, 45, 44, 43, 42, 41, 40, 39, 32, 31, 30, 29, 28, 27, 26, 111, 110, 109, 108, 107, 106, 105, 98, 97, 96, 95, 94, 93, 92, 85, 84, 83, 82, 81, 80, 79, 72, 71, 70, 69, 68, 67, 66, 59, 58, 57, 56, 55, 54, 53, 46, 45, 44, 43, 42, 41, 40, 33, 32, 31, 30, 29, 28, 27, 112, 111, 110, 109, 108, 107, 106, 99, 98, 97, 96, 95, 94, 93, 86, 85, 84, 83, 82, 81, 80, 73, 72, 71, 70, 69, 68, 67, 60, 59, 58, 57, 56, 55, 54, 47, 46, 45, 44, 43, 42, 41, 34, 33, 32, 31, 30, 29, 28, 113, 112, 111, 110, 109, 108, 107, 100, 99, 98, 97, 96, 95, 94, 87, 86, 85, 84, 83, 82, 81, 74, 73, 72, 71, 70, 69, 68, 61, 60, 59, 58, 57, 56, 55, 48, 47, 46, 45, 44, 43, 42, 35, 34, 33, 32, 31, 30, 29, 114, 113, 112, 111, 110, 109, 108, 101, 100, 99, 98, 97, 96, 95, 88, 87, 86, 85, 84, 83, 82, 75, 74, 73, 72, 71, 70, 69, 62, 61, 60, 59, 58, 57, 56, 49, 48, 47, 46, 45, 44, 43, 36, 35, 34, 33, 32, 31, 30, 115, 114, 113, 112, 111, 110, 109, 102, 101, 100, 99, 98, 97, 96, 89, 88, 87, 86, 85, 84, 83, 76, 75, 74, 73, 72, 71, 70, 63, 62, 61, 60, 59, 58, 57, 50, 49, 48, 47, 46, 45, 44, 37, 36, 35, 34, 33, 32, 31, 116, 115, 114, 113, 112, 111, 110, 103, 102, 101, 100, 99, 98, 97, 90, 89, 88, 87, 86, 85, 84, 77, 76, 75, 74, 73, 72, 71, 64, 63, 62, 61, 60, 59, 58, 51, 50, 49, 48, 47, 46, 45, 38, 37, 36, 35, 34, 33, 32, 123, 122, 121, 120, 119, 118, 117, 110, 109, 108, 107, 106, 105, 104, 97, 96, 95, 94, 93, 92, 91, 84, 83, 82, 81, 80, 79, 78, 71, 70, 69, 68, 67, 66, 65, 58, 57, 56, 55, 54, 53, 52, 45, 44, 43, 42, 41, 40, 39, 124, 123, 122, 121, 120, 119, 118, 111, 110, 109, 108, 107, 106, 105, 98, 97, 96, 95, 94, 93, 92, 85, 84, 83, 82, 81, 80, 79, 72, 71, 70, 69, 68, 67, 66, 59, 58, 57, 56, 55, 54, 53, 46, 45, 44, 43, 42, 41, 40, 125, 124, 123, 122, 121, 120, 119, 112, 111, 110, 109, 108, 107, 106, 99, 98, 97, 96, 95, 94, 93, 86, 85, 84, 83, 82, 81, 80, 73, 72, 71, 70, 69, 68, 67, 60, 59, 58, 57, 56, 55, 54, 47, 46, 45, 44, 43, 42, 41, 126, 125, 124, 123, 122, 121, 120, 113, 112, 111, 110, 109, 108, 107, 100, 99, 98, 97, 96, 95, 94, 87, 86, 85, 84, 83, 82, 81, 74, 73, 72, 71, 70, 69, 68, 61, 60, 59, 58, 57, 56, 55, 48, 47, 46, 45, 44, 43, 42, 127, 126, 125, 124, 123, 122, 121, 114, 113, 112, 111, 110, 109, 108, 101, 100, 99, 98, 97, 96, 95, 88, 87, 86, 85, 84, 83, 82, 75, 74, 73, 72, 71, 70, 69, 62, 61, 60, 59, 58, 57, 56, 49, 48, 47, 46, 45, 44, 43, 128, 127, 126, 125, 124, 123, 122, 115, 114, 113, 112, 111, 110, 109, 102, 101, 100, 99, 98, 97, 96, 89, 88, 87, 86, 85, 84, 83, 76, 75, 74, 73, 72, 71, 70, 63, 62, 61, 60, 59, 58, 57, 50, 49, 48, 47, 46, 45, 44, 129, 128, 127, 126, 125, 124, 123, 116, 115, 114, 113, 112, 111, 110, 103, 102, 101, 100, 99, 98, 97, 90, 89, 88, 87, 86, 85, 84, 77, 76, 75, 74, 73, 72, 71, 64, 63, 62, 61, 60, 59, 58, 51, 50, 49, 48, 47, 46, 45, 136, 135, 134, 133, 132, 131, 130, 123, 122, 121, 120, 119, 118, 117, 110, 109, 108, 107, 106, 105, 104, 97, 96, 95, 94, 93, 92, 91, 84, 83, 82, 81, 80, 79, 78, 71, 70, 69, 68, 67, 66, 65, 58, 57, 56, 55, 54, 53, 52, 137, 136, 135, 134, 133, 132, 131, 124, 123, 122, 121, 120, 119, 118, 111, 110, 109, 108, 107, 106, 105, 98, 97, 96, 95, 94, 93, 92, 85, 84, 83, 82, 81, 80, 79, 72, 71, 70, 69, 68, 67, 66, 59, 58, 57, 56, 55, 54, 53, 138, 137, 136, 135, 134, 133, 132, 125, 124, 123, 122, 121, 120, 119, 112, 111, 110, 109, 108, 107, 106, 99, 98, 97, 96, 95, 94, 93, 86, 85, 84, 83, 82, 81, 80, 73, 72, 71, 70, 69, 68, 67, 60, 59, 58, 57, 56, 55, 54, 139, 138, 137, 136, 135, 134, 133, 126, 125, 124, 123, 122, 121, 120, 113, 112, 111, 110, 109, 108, 107, 100, 99, 98, 97, 96, 95, 94, 87, 86, 85, 84, 83, 82, 81, 74, 73, 72, 71, 70, 69, 68, 61, 60, 59, 58, 57, 56, 55, 140, 139, 138, 137, 136, 135, 134, 127, 126, 125, 124, 123, 122, 121, 114, 113, 112, 111, 110, 109, 108, 101, 100, 99, 98, 97, 96, 95, 88, 87, 86, 85, 84, 83, 82, 75, 74, 73, 72, 71, 70, 69, 62, 61, 60, 59, 58, 57, 56, 141, 140, 139, 138, 137, 136, 135, 128, 127, 126, 125, 124, 123, 122, 115, 114, 113, 112, 111, 110, 109, 102, 101, 100, 99, 98, 97, 96, 89, 88, 87, 86, 85, 84, 83, 76, 75, 74, 73, 72, 71, 70, 63, 62, 61, 60, 59, 58, 57, 142, 141, 140, 139, 138, 137, 136, 129, 128, 127, 126, 125, 124, 123, 116, 115, 114, 113, 112, 111, 110, 103, 102, 101, 100, 99, 98, 97, 90, 89, 88, 87, 86, 85, 84, 77, 76, 75, 74, 73, 72, 71, 64, 63, 62, 61, 60, 59, 58, 149, 148, 147, 146, 145, 144, 143, 136, 135, 134, 133, 132, 131, 130, 123, 122, 121, 120, 119, 118, 117, 110, 109, 108, 107, 106, 105, 104, 97, 96, 95, 94, 93, 92, 91, 84, 83, 82, 81, 80, 79, 78, 71, 70, 69, 68, 67, 66, 65, 150, 149, 148, 147, 146, 145, 144, 137, 136, 135, 134, 133, 132, 131, 124, 123, 122, 121, 120, 119, 118, 111, 110, 109, 108, 107, 106, 105, 98, 97, 96, 95, 94, 93, 92, 85, 84, 83, 82, 81, 80, 79, 72, 71, 70, 69, 68, 67, 66, 151, 150, 149, 148, 147, 146, 145, 138, 137, 136, 135, 134, 133, 132, 125, 124, 123, 122, 121, 120, 119, 112, 111, 110, 109, 108, 107, 106, 99, 98, 97, 96, 95, 94, 93, 86, 85, 84, 83, 82, 81, 80, 73, 72, 71, 70, 69, 68, 67, 152, 151, 150, 149, 148, 147, 146, 139, 138, 137, 136, 135, 134, 133, 126, 125, 124, 123, 122, 121, 120, 113, 112, 111, 110, 109, 108, 107, 100, 99, 98, 97, 96, 95, 94, 87, 86, 85, 84, 83, 82, 81, 74, 73, 72, 71, 70, 69, 68, 153, 152, 151, 150, 149, 148, 147, 140, 139, 138, 137, 136, 135, 134, 127, 126, 125, 124, 123, 122, 121, 114, 113, 112, 111, 110, 109, 108, 101, 100, 99, 98, 97, 96, 95, 88, 87, 86, 85, 84, 83, 82, 75, 74, 73, 72, 71, 70, 69, 154, 153, 152, 151, 150, 149, 148, 141, 140, 139, 138, 137, 136, 135, 128, 127, 126, 125, 124, 123, 122, 115, 114, 113, 112, 111, 110, 109, 102, 101, 100, 99, 98, 97, 96, 89, 88, 87, 86, 85, 84, 83, 76, 75, 74, 73, 72, 71, 70, 155, 154, 153, 152, 151, 150, 149, 142, 141, 140, 139, 138, 137, 136, 129, 128, 127, 126, 125, 124, 123, 116, 115, 114, 113, 112, 111, 110, 103, 102, 101, 100, 99, 98, 97, 90, 89, 88, 87, 86, 85, 84, 77, 76, 75, 74, 73, 72, 71, 162, 161, 160, 159, 158, 157, 156, 149, 148, 147, 146, 145, 144, 143, 136, 135, 134, 133, 132, 131, 130, 123, 122, 121, 120, 119, 118, 117, 110, 109, 108, 107, 106, 105, 104, 97, 96, 95, 94, 93, 92, 91, 84, 83, 82, 81, 80, 79, 78, 163, 162, 161, 160, 159, 158, 157, 150, 149, 148, 147, 146, 145, 144, 137, 136, 135, 134, 133, 132, 131, 124, 123, 122, 121, 120, 119, 118, 111, 110, 109, 108, 107, 106, 105, 98, 97, 96, 95, 94, 93, 92, 85, 84, 83, 82, 81, 80, 79, 164, 163, 162, 161, 160, 159, 158, 151, 150, 149, 148, 147, 146, 145, 138, 137, 136, 135, 134, 133, 132, 125, 124, 123, 122, 121, 120, 119, 112, 111, 110, 109, 108, 107, 106, 99, 98, 97, 96, 95, 94, 93, 86, 85, 84, 83, 82, 81, 80, 165, 164, 163, 162, 161, 160, 159, 152, 151, 150, 149, 148, 147, 146, 139, 138, 137, 136, 135, 134, 133, 126, 125, 124, 123, 122, 121, 120, 113, 112, 111, 110, 109, 108, 107, 100, 99, 98, 97, 96, 95, 94, 87, 86, 85, 84, 83, 82, 81, 166, 165, 164, 163, 162, 161, 160, 153, 152, 151, 150, 149, 148, 147, 140, 139, 138, 137, 136, 135, 134, 127, 126, 125, 124, 123, 122, 121, 114, 113, 112, 111, 110, 109, 108, 101, 100, 99, 98, 97, 96, 95, 88, 87, 86, 85, 84, 83, 82, 167, 166, 165, 164, 163, 162, 161, 154, 153, 152, 151, 150, 149, 148, 141, 140, 139, 138, 137, 136, 135, 128, 127, 126, 125, 124, 123, 122, 115, 114, 113, 112, 111, 110, 109, 102, 101, 100, 99, 98, 97, 96, 89, 88, 87, 86, 85, 84, 83, 168, 167, 166, 165, 164, 163, 162, 155, 154, 153, 152, 151, 150, 149, 142, 141, 140, 139, 138, 137, 136, 129, 128, 127, 126, 125, 124, 123, 116, 115, 114, 113, 112, 111, 110, 103, 102, 101, 100, 99, 98, 97, 90, 89, 88, 87, 86, 85, 84], requires_grad=false}:(tensor<2401xf32>) -> tensor<2401xf32>
	%1073="ufront.slice"(%1071, %1072){output_shape=[2401, 16]}:(tensor<169x16xf32>, tensor<2401xf32>) -> tensor<2401x16xf32>
	%1074="ufront.reshape"(%1073){shape=[49, 49, 16]}:(tensor<2401x16xf32>) -> tensor<49x49x16xf32>
	%1075="ufront.transpose"(%1074){perms=[2, 0, 1]}:(tensor<49x49x16xf32>) -> tensor<16x49x49xf32>
	%1076="ufront.reshape"(%1075){shape=[1, 16, 49, 49]}:(tensor<16x49x49xf32>) -> tensor<1x16x49x49xf32>
	%1077="ufront.add"(%1070, %1076):(tensor<1x1x16x49x49xf32>, tensor<1x16x49x49xf32>) -> tensor<1x1x16x49x49xf32>
	%1078="ufront.softmax"(%1077):(tensor<1x1x16x49x49xf32>) -> tensor<1x1x16x49x49xf32>
	%1079="ufront.call"(%1078, %1068){addargs=[('arg1', 'B G H I J, B G H J D -> B G H I D')], func=einsum}:(tensor<1x1x16x49x49xf32>, tensor<1x1x16x49x32xf32>) -> tensor<1x1x16x49x32xf32>
	%1080="ufront.transpose"(%1079){perms=[0, 1, 3, 2, 4]}:(tensor<1x1x16x49x32xf32>) -> tensor<1x1x49x16x32xf32>
	%1081="ufront.reshape"(%1080){shape=[1, 1, 49, 512]}:(tensor<1x1x49x16x32xf32>) -> tensor<1x1x49x512xf32>
	%1082="ufront.linear"(%1081):(tensor<1x1x49x512xf32>) -> tensor<1x1x49x512xf32>
	%1083="ufront.dropout"(%1082){rate=0.0, seed=0}:(tensor<1x1x49x512xf32>) -> tensor<1x1x49x512xf32>
	%1084="ufront.call"(%1083){addargs=[('p', 0.2), ('mode', 'row'), ('training', False)], func=stochastic_depth}:(tensor<1x1x49x512xf32>) -> tensor<1x1x49x512xf32>
	%1085="ufront.add"(%1057, %1084):(tensor<1x1x49x512xf32>, tensor<1x1x49x512xf32>) -> tensor<1x1x49x512xf32>
	%1086="ufront.layer_norm"(%1085){elementwise_affine=true, eps=0.00001, normalized_shape=[512]}:(tensor<1x1x49x512xf32>) -> tensor<1x1x49x512xf32>
	%1087="ufront.linear"(%1086):(tensor<1x1x49x512xf32>) -> tensor<1x1x49x2048xf32>
	%1088="ufront.gelu"(%1087):(tensor<1x1x49x2048xf32>) -> tensor<1x1x49x2048xf32>
	%1089="ufront.linear"(%1088):(tensor<1x1x49x2048xf32>) -> tensor<1x1x49x512xf32>
	%1090="ufront.dropout"(%1089){rate=0.0, seed=0}:(tensor<1x1x49x512xf32>) -> tensor<1x1x49x512xf32>
	%1091="ufront.call"(%1090){addargs=[('p', 0.2), ('mode', 'row'), ('training', False)], func=stochastic_depth}:(tensor<1x1x49x512xf32>) -> tensor<1x1x49x512xf32>
	%1092="ufront.add"(%1085, %1091):(tensor<1x1x49x512xf32>, tensor<1x1x49x512xf32>) -> tensor<1x1x49x512xf32>
	%1093="ufront.identity"(%1092):(tensor<1x1x49x512xf32>) -> tensor<1x1x49x512xf32>
	%1094="ufront.reshape"(%1093){shape=[1, 1, 1, 7, 7, 512]}:(tensor<1x1x49x512xf32>) -> tensor<1x1x1x7x7x512xf32>
	%1095="ufront.transpose"(%1094){perms=[0, 5, 1, 3, 2, 4]}:(tensor<1x1x1x7x7x512xf32>) -> tensor<1x512x1x7x1x7xf32>
	%1096="ufront.reshape"(%1095){shape=[1, 512, 7, 7]}:(tensor<1x512x1x7x1x7xf32>) -> tensor<1x512x7x7xf32>
	%1097="ufront.reshape"(%1096){shape=[1, 512, 7, 1, 7, 1]}:(tensor<1x512x7x7xf32>) -> tensor<1x512x7x1x7x1xf32>
	%1098="ufront.transpose"(%1097){perms=[0, 2, 4, 3, 5, 1]}:(tensor<1x512x7x1x7x1xf32>) -> tensor<1x7x7x1x1x512xf32>
	%1099="ufront.reshape"(%1098){shape=[1, 49, 1, 512]}:(tensor<1x7x7x1x1x512xf32>) -> tensor<1x49x1x512xf32>
	%1100="ufront.call"(%1099){addargs=[('arg2', -2), ('arg3', -3)], func=swapaxes}:(tensor<1x49x1x512xf32>) -> tensor<1x1x49x512xf32>
	%1101="ufront.layer_norm"(%1100){elementwise_affine=true, eps=0.00001, normalized_shape=[512]}:(tensor<1x1x49x512xf32>) -> tensor<1x1x49x512xf32>
	%1102="ufront.linear"(%1101):(tensor<1x1x49x512xf32>) -> tensor<1x1x49x1536xf32>
	%1103, %1104, %1105="ufront.chunk"(%1102){axis=-1, sizes=3}:(tensor<1x1x49x1536xf32>) -> tensor<1x1x49x512xf32>, tensor<1x1x49x512xf32>, tensor<1x1x49x512xf32>
	%1106="ufront.reshape"(%1103){shape=[1, 1, 49, 16, 32]}:(tensor<1x1x49x512xf32>) -> tensor<1x1x49x16x32xf32>
	%1107="ufront.transpose"(%1106){perms=[0, 1, 3, 2, 4]}:(tensor<1x1x49x16x32xf32>) -> tensor<1x1x16x49x32xf32>
	%1108="ufront.reshape"(%1104){shape=[1, 1, 49, 16, 32]}:(tensor<1x1x49x512xf32>) -> tensor<1x1x49x16x32xf32>
	%1109="ufront.transpose"(%1108){perms=[0, 1, 3, 2, 4]}:(tensor<1x1x49x16x32xf32>) -> tensor<1x1x16x49x32xf32>
	%1110="ufront.reshape"(%1105){shape=[1, 1, 49, 16, 32]}:(tensor<1x1x49x512xf32>) -> tensor<1x1x49x16x32xf32>
	%1111="ufront.transpose"(%1110){perms=[0, 1, 3, 2, 4]}:(tensor<1x1x49x16x32xf32>) -> tensor<1x1x16x49x32xf32>
	%1112="ufront.smultiply"(%1109){scalar=0.04419417382415922}:(tensor<1x1x16x49x32xf32>) -> tensor<1x1x16x49x32xf32>
	%1113="ufront.call"(%1107, %1112){addargs=[('arg1', 'B G H I D, B G H J D -> B G H I J')], func=einsum}:(tensor<1x1x16x49x32xf32>, tensor<1x1x16x49x32xf32>) -> tensor<1x1x16x49x49xf32>
	%1114="ufront.parameter"(%1114){dtype=DataType.Float, initializer=[[… requires_grad=true}:(tensor<169x16xf32>) -> tensor<169x16xf32>
	%1115="ufront.tensor"(%1115){dtype=DataType.Int64, initializer=[84, 83, 82, 81, 80, 79, 78, 71, 70, 69, 68, 67, 66, 65, 58, 57, 56, 55, 54, 53, 52, 45, 44, 43, 42, 41, 40, 39, 32, 31, 30, 29, 28, 27, 26, 19, 18, 17, 16, 15, 14, 13, 6, 5, 4, 3, 2, 1, 0, 85, 84, 83, 82, 81, 80, 79, 72, 71, 70, 69, 68, 67, 66, 59, 58, 57, 56, 55, 54, 53, 46, 45, 44, 43, 42, 41, 40, 33, 32, 31, 30, 29, 28, 27, 20, 19, 18, 17, 16, 15, 14, 7, 6, 5, 4, 3, 2, 1, 86, 85, 84, 83, 82, 81, 80, 73, 72, 71, 70, 69, 68, 67, 60, 59, 58, 57, 56, 55, 54, 47, 46, 45, 44, 43, 42, 41, 34, 33, 32, 31, 30, 29, 28, 21, 20, 19, 18, 17, 16, 15, 8, 7, 6, 5, 4, 3, 2, 87, 86, 85, 84, 83, 82, 81, 74, 73, 72, 71, 70, 69, 68, 61, 60, 59, 58, 57, 56, 55, 48, 47, 46, 45, 44, 43, 42, 35, 34, 33, 32, 31, 30, 29, 22, 21, 20, 19, 18, 17, 16, 9, 8, 7, 6, 5, 4, 3, 88, 87, 86, 85, 84, 83, 82, 75, 74, 73, 72, 71, 70, 69, 62, 61, 60, 59, 58, 57, 56, 49, 48, 47, 46, 45, 44, 43, 36, 35, 34, 33, 32, 31, 30, 23, 22, 21, 20, 19, 18, 17, 10, 9, 8, 7, 6, 5, 4, 89, 88, 87, 86, 85, 84, 83, 76, 75, 74, 73, 72, 71, 70, 63, 62, 61, 60, 59, 58, 57, 50, 49, 48, 47, 46, 45, 44, 37, 36, 35, 34, 33, 32, 31, 24, 23, 22, 21, 20, 19, 18, 11, 10, 9, 8, 7, 6, 5, 90, 89, 88, 87, 86, 85, 84, 77, 76, 75, 74, 73, 72, 71, 64, 63, 62, 61, 60, 59, 58, 51, 50, 49, 48, 47, 46, 45, 38, 37, 36, 35, 34, 33, 32, 25, 24, 23, 22, 21, 20, 19, 12, 11, 10, 9, 8, 7, 6, 97, 96, 95, 94, 93, 92, 91, 84, 83, 82, 81, 80, 79, 78, 71, 70, 69, 68, 67, 66, 65, 58, 57, 56, 55, 54, 53, 52, 45, 44, 43, 42, 41, 40, 39, 32, 31, 30, 29, 28, 27, 26, 19, 18, 17, 16, 15, 14, 13, 98, 97, 96, 95, 94, 93, 92, 85, 84, 83, 82, 81, 80, 79, 72, 71, 70, 69, 68, 67, 66, 59, 58, 57, 56, 55, 54, 53, 46, 45, 44, 43, 42, 41, 40, 33, 32, 31, 30, 29, 28, 27, 20, 19, 18, 17, 16, 15, 14, 99, 98, 97, 96, 95, 94, 93, 86, 85, 84, 83, 82, 81, 80, 73, 72, 71, 70, 69, 68, 67, 60, 59, 58, 57, 56, 55, 54, 47, 46, 45, 44, 43, 42, 41, 34, 33, 32, 31, 30, 29, 28, 21, 20, 19, 18, 17, 16, 15, 100, 99, 98, 97, 96, 95, 94, 87, 86, 85, 84, 83, 82, 81, 74, 73, 72, 71, 70, 69, 68, 61, 60, 59, 58, 57, 56, 55, 48, 47, 46, 45, 44, 43, 42, 35, 34, 33, 32, 31, 30, 29, 22, 21, 20, 19, 18, 17, 16, 101, 100, 99, 98, 97, 96, 95, 88, 87, 86, 85, 84, 83, 82, 75, 74, 73, 72, 71, 70, 69, 62, 61, 60, 59, 58, 57, 56, 49, 48, 47, 46, 45, 44, 43, 36, 35, 34, 33, 32, 31, 30, 23, 22, 21, 20, 19, 18, 17, 102, 101, 100, 99, 98, 97, 96, 89, 88, 87, 86, 85, 84, 83, 76, 75, 74, 73, 72, 71, 70, 63, 62, 61, 60, 59, 58, 57, 50, 49, 48, 47, 46, 45, 44, 37, 36, 35, 34, 33, 32, 31, 24, 23, 22, 21, 20, 19, 18, 103, 102, 101, 100, 99, 98, 97, 90, 89, 88, 87, 86, 85, 84, 77, 76, 75, 74, 73, 72, 71, 64, 63, 62, 61, 60, 59, 58, 51, 50, 49, 48, 47, 46, 45, 38, 37, 36, 35, 34, 33, 32, 25, 24, 23, 22, 21, 20, 19, 110, 109, 108, 107, 106, 105, 104, 97, 96, 95, 94, 93, 92, 91, 84, 83, 82, 81, 80, 79, 78, 71, 70, 69, 68, 67, 66, 65, 58, 57, 56, 55, 54, 53, 52, 45, 44, 43, 42, 41, 40, 39, 32, 31, 30, 29, 28, 27, 26, 111, 110, 109, 108, 107, 106, 105, 98, 97, 96, 95, 94, 93, 92, 85, 84, 83, 82, 81, 80, 79, 72, 71, 70, 69, 68, 67, 66, 59, 58, 57, 56, 55, 54, 53, 46, 45, 44, 43, 42, 41, 40, 33, 32, 31, 30, 29, 28, 27, 112, 111, 110, 109, 108, 107, 106, 99, 98, 97, 96, 95, 94, 93, 86, 85, 84, 83, 82, 81, 80, 73, 72, 71, 70, 69, 68, 67, 60, 59, 58, 57, 56, 55, 54, 47, 46, 45, 44, 43, 42, 41, 34, 33, 32, 31, 30, 29, 28, 113, 112, 111, 110, 109, 108, 107, 100, 99, 98, 97, 96, 95, 94, 87, 86, 85, 84, 83, 82, 81, 74, 73, 72, 71, 70, 69, 68, 61, 60, 59, 58, 57, 56, 55, 48, 47, 46, 45, 44, 43, 42, 35, 34, 33, 32, 31, 30, 29, 114, 113, 112, 111, 110, 109, 108, 101, 100, 99, 98, 97, 96, 95, 88, 87, 86, 85, 84, 83, 82, 75, 74, 73, 72, 71, 70, 69, 62, 61, 60, 59, 58, 57, 56, 49, 48, 47, 46, 45, 44, 43, 36, 35, 34, 33, 32, 31, 30, 115, 114, 113, 112, 111, 110, 109, 102, 101, 100, 99, 98, 97, 96, 89, 88, 87, 86, 85, 84, 83, 76, 75, 74, 73, 72, 71, 70, 63, 62, 61, 60, 59, 58, 57, 50, 49, 48, 47, 46, 45, 44, 37, 36, 35, 34, 33, 32, 31, 116, 115, 114, 113, 112, 111, 110, 103, 102, 101, 100, 99, 98, 97, 90, 89, 88, 87, 86, 85, 84, 77, 76, 75, 74, 73, 72, 71, 64, 63, 62, 61, 60, 59, 58, 51, 50, 49, 48, 47, 46, 45, 38, 37, 36, 35, 34, 33, 32, 123, 122, 121, 120, 119, 118, 117, 110, 109, 108, 107, 106, 105, 104, 97, 96, 95, 94, 93, 92, 91, 84, 83, 82, 81, 80, 79, 78, 71, 70, 69, 68, 67, 66, 65, 58, 57, 56, 55, 54, 53, 52, 45, 44, 43, 42, 41, 40, 39, 124, 123, 122, 121, 120, 119, 118, 111, 110, 109, 108, 107, 106, 105, 98, 97, 96, 95, 94, 93, 92, 85, 84, 83, 82, 81, 80, 79, 72, 71, 70, 69, 68, 67, 66, 59, 58, 57, 56, 55, 54, 53, 46, 45, 44, 43, 42, 41, 40, 125, 124, 123, 122, 121, 120, 119, 112, 111, 110, 109, 108, 107, 106, 99, 98, 97, 96, 95, 94, 93, 86, 85, 84, 83, 82, 81, 80, 73, 72, 71, 70, 69, 68, 67, 60, 59, 58, 57, 56, 55, 54, 47, 46, 45, 44, 43, 42, 41, 126, 125, 124, 123, 122, 121, 120, 113, 112, 111, 110, 109, 108, 107, 100, 99, 98, 97, 96, 95, 94, 87, 86, 85, 84, 83, 82, 81, 74, 73, 72, 71, 70, 69, 68, 61, 60, 59, 58, 57, 56, 55, 48, 47, 46, 45, 44, 43, 42, 127, 126, 125, 124, 123, 122, 121, 114, 113, 112, 111, 110, 109, 108, 101, 100, 99, 98, 97, 96, 95, 88, 87, 86, 85, 84, 83, 82, 75, 74, 73, 72, 71, 70, 69, 62, 61, 60, 59, 58, 57, 56, 49, 48, 47, 46, 45, 44, 43, 128, 127, 126, 125, 124, 123, 122, 115, 114, 113, 112, 111, 110, 109, 102, 101, 100, 99, 98, 97, 96, 89, 88, 87, 86, 85, 84, 83, 76, 75, 74, 73, 72, 71, 70, 63, 62, 61, 60, 59, 58, 57, 50, 49, 48, 47, 46, 45, 44, 129, 128, 127, 126, 125, 124, 123, 116, 115, 114, 113, 112, 111, 110, 103, 102, 101, 100, 99, 98, 97, 90, 89, 88, 87, 86, 85, 84, 77, 76, 75, 74, 73, 72, 71, 64, 63, 62, 61, 60, 59, 58, 51, 50, 49, 48, 47, 46, 45, 136, 135, 134, 133, 132, 131, 130, 123, 122, 121, 120, 119, 118, 117, 110, 109, 108, 107, 106, 105, 104, 97, 96, 95, 94, 93, 92, 91, 84, 83, 82, 81, 80, 79, 78, 71, 70, 69, 68, 67, 66, 65, 58, 57, 56, 55, 54, 53, 52, 137, 136, 135, 134, 133, 132, 131, 124, 123, 122, 121, 120, 119, 118, 111, 110, 109, 108, 107, 106, 105, 98, 97, 96, 95, 94, 93, 92, 85, 84, 83, 82, 81, 80, 79, 72, 71, 70, 69, 68, 67, 66, 59, 58, 57, 56, 55, 54, 53, 138, 137, 136, 135, 134, 133, 132, 125, 124, 123, 122, 121, 120, 119, 112, 111, 110, 109, 108, 107, 106, 99, 98, 97, 96, 95, 94, 93, 86, 85, 84, 83, 82, 81, 80, 73, 72, 71, 70, 69, 68, 67, 60, 59, 58, 57, 56, 55, 54, 139, 138, 137, 136, 135, 134, 133, 126, 125, 124, 123, 122, 121, 120, 113, 112, 111, 110, 109, 108, 107, 100, 99, 98, 97, 96, 95, 94, 87, 86, 85, 84, 83, 82, 81, 74, 73, 72, 71, 70, 69, 68, 61, 60, 59, 58, 57, 56, 55, 140, 139, 138, 137, 136, 135, 134, 127, 126, 125, 124, 123, 122, 121, 114, 113, 112, 111, 110, 109, 108, 101, 100, 99, 98, 97, 96, 95, 88, 87, 86, 85, 84, 83, 82, 75, 74, 73, 72, 71, 70, 69, 62, 61, 60, 59, 58, 57, 56, 141, 140, 139, 138, 137, 136, 135, 128, 127, 126, 125, 124, 123, 122, 115, 114, 113, 112, 111, 110, 109, 102, 101, 100, 99, 98, 97, 96, 89, 88, 87, 86, 85, 84, 83, 76, 75, 74, 73, 72, 71, 70, 63, 62, 61, 60, 59, 58, 57, 142, 141, 140, 139, 138, 137, 136, 129, 128, 127, 126, 125, 124, 123, 116, 115, 114, 113, 112, 111, 110, 103, 102, 101, 100, 99, 98, 97, 90, 89, 88, 87, 86, 85, 84, 77, 76, 75, 74, 73, 72, 71, 64, 63, 62, 61, 60, 59, 58, 149, 148, 147, 146, 145, 144, 143, 136, 135, 134, 133, 132, 131, 130, 123, 122, 121, 120, 119, 118, 117, 110, 109, 108, 107, 106, 105, 104, 97, 96, 95, 94, 93, 92, 91, 84, 83, 82, 81, 80, 79, 78, 71, 70, 69, 68, 67, 66, 65, 150, 149, 148, 147, 146, 145, 144, 137, 136, 135, 134, 133, 132, 131, 124, 123, 122, 121, 120, 119, 118, 111, 110, 109, 108, 107, 106, 105, 98, 97, 96, 95, 94, 93, 92, 85, 84, 83, 82, 81, 80, 79, 72, 71, 70, 69, 68, 67, 66, 151, 150, 149, 148, 147, 146, 145, 138, 137, 136, 135, 134, 133, 132, 125, 124, 123, 122, 121, 120, 119, 112, 111, 110, 109, 108, 107, 106, 99, 98, 97, 96, 95, 94, 93, 86, 85, 84, 83, 82, 81, 80, 73, 72, 71, 70, 69, 68, 67, 152, 151, 150, 149, 148, 147, 146, 139, 138, 137, 136, 135, 134, 133, 126, 125, 124, 123, 122, 121, 120, 113, 112, 111, 110, 109, 108, 107, 100, 99, 98, 97, 96, 95, 94, 87, 86, 85, 84, 83, 82, 81, 74, 73, 72, 71, 70, 69, 68, 153, 152, 151, 150, 149, 148, 147, 140, 139, 138, 137, 136, 135, 134, 127, 126, 125, 124, 123, 122, 121, 114, 113, 112, 111, 110, 109, 108, 101, 100, 99, 98, 97, 96, 95, 88, 87, 86, 85, 84, 83, 82, 75, 74, 73, 72, 71, 70, 69, 154, 153, 152, 151, 150, 149, 148, 141, 140, 139, 138, 137, 136, 135, 128, 127, 126, 125, 124, 123, 122, 115, 114, 113, 112, 111, 110, 109, 102, 101, 100, 99, 98, 97, 96, 89, 88, 87, 86, 85, 84, 83, 76, 75, 74, 73, 72, 71, 70, 155, 154, 153, 152, 151, 150, 149, 142, 141, 140, 139, 138, 137, 136, 129, 128, 127, 126, 125, 124, 123, 116, 115, 114, 113, 112, 111, 110, 103, 102, 101, 100, 99, 98, 97, 90, 89, 88, 87, 86, 85, 84, 77, 76, 75, 74, 73, 72, 71, 162, 161, 160, 159, 158, 157, 156, 149, 148, 147, 146, 145, 144, 143, 136, 135, 134, 133, 132, 131, 130, 123, 122, 121, 120, 119, 118, 117, 110, 109, 108, 107, 106, 105, 104, 97, 96, 95, 94, 93, 92, 91, 84, 83, 82, 81, 80, 79, 78, 163, 162, 161, 160, 159, 158, 157, 150, 149, 148, 147, 146, 145, 144, 137, 136, 135, 134, 133, 132, 131, 124, 123, 122, 121, 120, 119, 118, 111, 110, 109, 108, 107, 106, 105, 98, 97, 96, 95, 94, 93, 92, 85, 84, 83, 82, 81, 80, 79, 164, 163, 162, 161, 160, 159, 158, 151, 150, 149, 148, 147, 146, 145, 138, 137, 136, 135, 134, 133, 132, 125, 124, 123, 122, 121, 120, 119, 112, 111, 110, 109, 108, 107, 106, 99, 98, 97, 96, 95, 94, 93, 86, 85, 84, 83, 82, 81, 80, 165, 164, 163, 162, 161, 160, 159, 152, 151, 150, 149, 148, 147, 146, 139, 138, 137, 136, 135, 134, 133, 126, 125, 124, 123, 122, 121, 120, 113, 112, 111, 110, 109, 108, 107, 100, 99, 98, 97, 96, 95, 94, 87, 86, 85, 84, 83, 82, 81, 166, 165, 164, 163, 162, 161, 160, 153, 152, 151, 150, 149, 148, 147, 140, 139, 138, 137, 136, 135, 134, 127, 126, 125, 124, 123, 122, 121, 114, 113, 112, 111, 110, 109, 108, 101, 100, 99, 98, 97, 96, 95, 88, 87, 86, 85, 84, 83, 82, 167, 166, 165, 164, 163, 162, 161, 154, 153, 152, 151, 150, 149, 148, 141, 140, 139, 138, 137, 136, 135, 128, 127, 126, 125, 124, 123, 122, 115, 114, 113, 112, 111, 110, 109, 102, 101, 100, 99, 98, 97, 96, 89, 88, 87, 86, 85, 84, 83, 168, 167, 166, 165, 164, 163, 162, 155, 154, 153, 152, 151, 150, 149, 142, 141, 140, 139, 138, 137, 136, 129, 128, 127, 126, 125, 124, 123, 116, 115, 114, 113, 112, 111, 110, 103, 102, 101, 100, 99, 98, 97, 90, 89, 88, 87, 86, 85, 84], requires_grad=false}:(tensor<2401xf32>) -> tensor<2401xf32>
	%1116="ufront.slice"(%1114, %1115){output_shape=[2401, 16]}:(tensor<169x16xf32>, tensor<2401xf32>) -> tensor<2401x16xf32>
	%1117="ufront.reshape"(%1116){shape=[49, 49, 16]}:(tensor<2401x16xf32>) -> tensor<49x49x16xf32>
	%1118="ufront.transpose"(%1117){perms=[2, 0, 1]}:(tensor<49x49x16xf32>) -> tensor<16x49x49xf32>
	%1119="ufront.reshape"(%1118){shape=[1, 16, 49, 49]}:(tensor<16x49x49xf32>) -> tensor<1x16x49x49xf32>
	%1120="ufront.add"(%1113, %1119):(tensor<1x1x16x49x49xf32>, tensor<1x16x49x49xf32>) -> tensor<1x1x16x49x49xf32>
	%1121="ufront.softmax"(%1120):(tensor<1x1x16x49x49xf32>) -> tensor<1x1x16x49x49xf32>
	%1122="ufront.call"(%1121, %1111){addargs=[('arg1', 'B G H I J, B G H J D -> B G H I D')], func=einsum}:(tensor<1x1x16x49x49xf32>, tensor<1x1x16x49x32xf32>) -> tensor<1x1x16x49x32xf32>
	%1123="ufront.transpose"(%1122){perms=[0, 1, 3, 2, 4]}:(tensor<1x1x16x49x32xf32>) -> tensor<1x1x49x16x32xf32>
	%1124="ufront.reshape"(%1123){shape=[1, 1, 49, 512]}:(tensor<1x1x49x16x32xf32>) -> tensor<1x1x49x512xf32>
	%1125="ufront.linear"(%1124):(tensor<1x1x49x512xf32>) -> tensor<1x1x49x512xf32>
	%1126="ufront.dropout"(%1125){rate=0.0, seed=0}:(tensor<1x1x49x512xf32>) -> tensor<1x1x49x512xf32>
	%1127="ufront.call"(%1126){addargs=[('p', 0.2), ('mode', 'row'), ('training', False)], func=stochastic_depth}:(tensor<1x1x49x512xf32>) -> tensor<1x1x49x512xf32>
	%1128="ufront.add"(%1100, %1127):(tensor<1x1x49x512xf32>, tensor<1x1x49x512xf32>) -> tensor<1x1x49x512xf32>
	%1129="ufront.layer_norm"(%1128){elementwise_affine=true, eps=0.00001, normalized_shape=[512]}:(tensor<1x1x49x512xf32>) -> tensor<1x1x49x512xf32>
	%1130="ufront.linear"(%1129):(tensor<1x1x49x512xf32>) -> tensor<1x1x49x2048xf32>
	%1131="ufront.gelu"(%1130):(tensor<1x1x49x2048xf32>) -> tensor<1x1x49x2048xf32>
	%1132="ufront.linear"(%1131):(tensor<1x1x49x2048xf32>) -> tensor<1x1x49x512xf32>
	%1133="ufront.dropout"(%1132){rate=0.0, seed=0}:(tensor<1x1x49x512xf32>) -> tensor<1x1x49x512xf32>
	%1134="ufront.call"(%1133){addargs=[('p', 0.2), ('mode', 'row'), ('training', False)], func=stochastic_depth}:(tensor<1x1x49x512xf32>) -> tensor<1x1x49x512xf32>
	%1135="ufront.add"(%1128, %1134):(tensor<1x1x49x512xf32>, tensor<1x1x49x512xf32>) -> tensor<1x1x49x512xf32>
	%1136="ufront.call"(%1135){addargs=[('arg2', -2), ('arg3', -3)], func=swapaxes}:(tensor<1x1x49x512xf32>) -> tensor<1x49x1x512xf32>
	%1137="ufront.reshape"(%1136){shape=[1, 7, 7, 1, 1, 512]}:(tensor<1x49x1x512xf32>) -> tensor<1x7x7x1x1x512xf32>
	%1138="ufront.transpose"(%1137){perms=[0, 5, 1, 3, 2, 4]}:(tensor<1x7x7x1x1x512xf32>) -> tensor<1x512x7x1x7x1xf32>
	%1139="ufront.reshape"(%1138){shape=[1, 512, 7, 7]}:(tensor<1x512x7x1x7x1xf32>) -> tensor<1x512x7x7xf32>
	%1140="ufront.pool2d"(%1139){output_size=[1, 1], pool_type="POOL_ADAPTIVE"}:(tensor<1x512x7x7xf32>) -> tensor<1x512x1x1xf32>
	%1141="ufront.flat"(%1140){end_dim=-1, start_dim=1}:(tensor<1x512x1x1xf32>) -> tensor<1x512xf32>
	%1142="ufront.layer_norm"(%1141){elementwise_affine=true, eps=0.00001, normalized_shape=[512]}:(tensor<1x512xf32>) -> tensor<1x512xf32>
	%1143="ufront.linear"(%1142):(tensor<1x512xf32>) -> tensor<1x512xf32>
	%1144="ufront.tanh"(%1143):(tensor<1x512xf32>) -> tensor<1x512xf32>
	%1145="ufront.linear"(%1144):(tensor<1x512xf32>) -> tensor<1x1000xf32>
	return %1145: tensor<1x1000xf32>
}